1.pth (torch, 109714 bytes, 12 tensors)

encoder.conv1.lin_l.weight f4 [64, 7]
00000000: 2f01 a9be 2db2 c1be c8ca 003e b614 483e
00000010: 1aa8 8ebe 1d7f febd 1964 b13e f621 bebe
00000020: 52bc 44be bcf5 e33d 6c90 f5bd a41f c0be
00000030: 233a c13e 7eab 73be 42ec 353e c4ef e5bd
00000040: ff9f 823e 0030 c2b8 220c 7f3e fc54 c9bd
00000050: 09e1 8d3e 7cf4 c6bd 7a6c 84be a072 9dbd
00000060: c46c df3d 3890 893d ab28 94be b64a 2c3e
00000070: 30a5 99be 89e5 e33c e316 523e 0418 a1be
00000080: 200e 1b3d 3e83 7cbe 63de b03e a187 1abe
00000090: 6630 77be 224f 5cbe c8f0 febd 58ee 85bd
000000a0: 4626 023e 83a1 77be e48b 2fbe b8fc 8ebd
000000b0: ec3b a0be 6014 d53d 0df7 813e c2ed 3d3e
000000c0: 50ee 583d c6c0 68be 55c7 8d3e 0093 d73a
000000d0: dbbe bfbe ee7c 82be b069 35be 546b c53d
000000e0: 9530 993d d1b3 493c d565 3e3e 48a1 dd3d
000000f0: d05c c3bc 4dcd c6bd 20bb a73d cb59 8e3e
00000100: e9cd 633c 2d91 abbc c8c2 67bd 7286 11be
00000110: c5f1 94be 9043 50be baf1 dc3d d3f1 86bd
00000120: 5f6f 843e 789f 9e3d bce2 89be 3a87 d9bd
00000130: c09b 893b 3bc1 903e e860 dbbd 891d aa3e
00000140: 7099 153d 7c37 b5be 883d 14bd 7ab4 44be
00000150: a469 09be 9e44 febd 71db abbd 0b24 05be
00000160: 3b3b 23be eda0 253c a380 8a3e bcc9 2abe
00000170: 1de6 813c 7907 ad3e 0d1b ba3e 1c56 cd3d
00000180: 37a3 483e 5dba bc3e e005 a0be 00f3 fd3c
00000190: 64d2 bebe 7486 c33d d0d1 d03c d828 35be
000001a0: 011c bf3e b7aa babe 6928 bebe 0715 6fbe
000001b0: 8ffc a23e d9f9 b93e ae70 723e 062c 8dbe
000001c0: f515 483e 568e 8c3e e212 29be 3eee 91be
000001d0: 76be 243e 6489 4f3e 1f8e a33e c6b5 063e
000001e0: af9a 66be 26d2 babe fbea a6be 12d5 2f3e
000001f0: 6245 3e3e d0fb 0cbd a0e4 523c e369 99be
00000200: c646 a2be 0301 bd3e 1bd3 b9be d0ff d03c
00000210: f93a a2be c705 bebe ef15 d1bd 7f39 b13c
00000220: a170 873e aab8 7a3e 2761 8fbe 5050 f23d
00000230: 0f0b 0abe 16b8 54bd 28f1 aabd c732 8c3e
00000240: 385b 753d 03a1 73be 8b2e b8be f40d ae3d
00000250: dcb5 bcbd e8c6 373d f8cd 6cbd bec9 71be
00000260: e8d1 1cbd 80da 8e3c 3a9a db3d a706 bd3e
00000270: 533b bc3e e05f 703d b8dc c8bd 6fb4 bb3e
00000280: 6081 123c 82f3 ea3d d101 a83d 9b15 6e3e
00000290: f652 573e f4ff 95be 5167 b43e 7f6f 9b3e
000002a0: 3c30 adbd 4523 b3be 6cd5 573e b040 02bd
000002b0: 0845 733d e1b7 9e3e 5c6f 6dbe f18b db3d
000002c0: 0e7e 243e 56fb b53e 0f90 b03e 53f6 0ebe
000002d0: e7b6 74be 00d1 68bb 4712 a8be b7b1 66be
000002e0: d0b5 a23d a333 b23e 9915 ad3e 47b6 b6be
000002f0: d8ff c7bd cb08 4ebe 4e7c 223d 92da aebe
00000300: 7c0c e7bd 946d ddbd 31ff 993e 7f8a a03e
00000310: d8f6 983d eb0b 923e f62a 213e c94f 5dbe
00000320: 07d7 76be c009 02bd befb 8ebe 9ab5 67be
00000330: b751 b1be 033e 78be b177 993e 60e3 b73c
00000340: 8f23 59bd b625 acbe ab98 b0be 8139 253e
00000350: b0a5 8abe cb4a b2be f33e 0cbe d4e1 e0bd
00000360: f50a b23e 670a c8bd ee87 96be 085f 993e
00000370: 96f5 7b3e 6e7c 4b3e 3608 023e e6a2 5d3e
00000380: 4e2e 7b3e 98f7 7abe f0b6 6bbd 80d2 dabc
00000390: 7d6b 973e 21e5 b43e 2300 9f3e eae1 88be
000003a0: 499a 36be 91db 5c3e 2b01 a13e 6e66 733e
000003b0: 1e57 9c3e b3bf 43be 7f9a 24bd ff02 023e
000003c0: fdd5 11be e0f1 35bc 8f40 babe e812 67be
000003d0: 6750 8e3e 4df7 7abd 2eef 99be 493c b93e
000003e0: 2c5e d63d ec1c dc3d 5382 85be b7b2 a53e
000003f0: e6a9 9dbd d769 b23e d9ba 3d3e b06e 873c
-0.33008716 -0.3783125 0.12577355 0.1953915 -0.27862626 -0.12426589 0.3464668 -0.37135285
-0.19212463 0.111308545 -0.11990437 -0.3752414 0.37739667 -0.23795888 0.17765906 -0.11227372
0.25512692 -9.2595816e-05 0.24906972 -0.098306626 0.2771075 -0.097146004 -0.2586401 -0.076878786
0.10909417 0.06716961 -0.28937277 0.16825375 -0.3000884 0.027819412 0.20516543 -0.31463635
0.037855268 -0.2465944 0.34544668 -0.15090801 -0.24139556 -0.21514562 -0.12448269 -0.06539601
0.12709913 -0.24182706 -0.17143208 -0.06981796 -0.31295717 0.10404277 0.25383797 0.18547729
0.052961648 -0.22729787 0.2769114 0.0016447008 -0.374503 -0.2548594 -0.17716098 0.09639612
0.074799694 0.012310938 0.18593533 0.108217776 -0.023847967 -0.09707127 0.08189988 0.27802882
0.013904073 -0.020943249 -0.056582242 -0.14211443 -0.29090706 -0.20338273 0.10788293 -0.06589093
0.2586622 0.0774526 -0.26930797 -0.106214955 0.004199475 0.28272423 -0.10711843 0.3322566
0.036523283 -0.35393894 -0.036191493 -0.19209471 -0.13419205 -0.124154314 -0.083914645 -0.1300203
-0.15940563 0.0101091685 0.27051267 -0.16678518 0.015856797 0.33794764 0.36348763 0.1002619
0.19593512 0.36860934 -0.31254482 0.03099966 -0.3726989 0.09547129 0.025490671 -0.17691362
0.37326053 -0.3645837 -0.37140206 -0.23347865 0.31833312 0.3632343 0.23675796 -0.2757265
0.19539626 0.27452344 -0.1651111 -0.28502077 0.1608828 0.20267254 0.31944367 0.13155279
-0.22519945 -0.36488456 -0.3260115 0.17171124 0.18581155 -0.034419835 0.012871891 -0.29963598
-0.3169462 0.36914834 -0.36293873 0.025512606 -0.31685618 -0.37113783 -0.102092616 0.021633862
0.26453117 0.24484506 -0.2800381 0.11831725 -0.13480781 -0.05193337 -0.08346778 0.2738249
0.059901446 -0.2379189 -0.3597301 0.08498755 -0.092143744 0.044867426 -0.057813615 -0.23612115
-0.03828612 0.017438173 0.10722776 0.36919138 0.3676401 0.058685184 -0.09807724 0.36661097
0.008941978 0.11472227 0.082034715 0.2325043 0.21027741 -0.2929684 0.35235074 0.30358502
-0.084564656 -0.34987846 0.21077508 -0.031799972 0.059392005 0.30999663 -0.23187011 0.10720051
0.16063711 0.35543317 0.34484908 -0.13961153 -0.23897897 -0.0035524964 -0.32826445 -0.2252873
0.07944834 0.3480502 0.3380554 -0.35685942 -0.09765595 -0.20120542 0.039669327 -0.3415113
-0.11281678 -0.10811916 0.30077508 0.31355664 0.07468957 0.28524718 0.15739045 -0.21612467
-0.24105464 -0.03174758 -0.2792644 -0.22627869 -0.34632656 -0.24242406 0.2997413 0.022447288
-0.053012427 -0.3362252 -0.34491476 0.16135217 -0.27079535 -0.34822688 -0.13695888 -0.10980573
0.34773985 -0.09767609 -0.2940058 0.29955316 0.24605402 0.19871685 0.12698445 0.21644172
0.24529383 -0.24508512 -0.05754751 -0.026711702 0.29574195 0.3533106 0.31054792 -0.2673486
-0.17832293 0.21568133 0.31446204 0.23769543 0.30535215 -0.19116096 -0.0401864 0.12696455
-0.14241786 -0.011105031 -0.3637738 -0.22565806 0.27795717 -0.061271 -0.30065292 0.36178806
0.104671806 0.10747704 -0.26075992 0.3236291 -0.07698421 0.34846374 0.18528308 0.016532272

encoder.conv1.lin_l.bias f4 [64]
00000000: 0805 cb3d 0142 d53e 6578 97be 5828 d63d
00000010: e81d 55be c39d 74bd 9630 25be 5d9c 82be
00000020: 5675 52be 1f19 e2bd ebdf 973e 2f6a 6f3e
00000030: dd0c 863e 6c96 d7bd f5bf 4e3d 8090 b8be
00000040: bbbd 9bbe d86b 83be 56b4 e53d d62b 80be
00000050: 98db 373e 2b66 7ebe c7f8 323e 3b17 8e3d
00000060: 010e 413e d2a8 15be 68c7 bebe f548 963e
00000070: 8492 51bb 34d6 0b3e a0e7 703c 546d 093d
00000080: f271 29be d76f 00be c9e1 c33e c43d 8d3e
00000090: 1460 46be 4f3d db3e 8c39 33be 1d8e 1abe
000000a0: b1b7 313d 1f3f 8e3e 2f04 13be b735 913e
000000b0: 2450 ee3b 9f38 87be fddf cb3e 3d94 d7bd
000000c0: 9e7c 833e 560f 88bd 2aee 583e 7775 1c3d
000000d0: 265c 663e b0f2 33be 747b debd fab1 983e
000000e0: 84e5 623e aec8 1e3e 50d8 cfbd 7140 a1be
000000f0: 0f14 d33e 517c da3d ced2 b03e d7d0 96bc
0.09913069 0.4165192 -0.2958404 0.10456914 -0.2081219 -0.059720766 -0.16131815 -0.2550992
-0.20552573 -0.11039948 0.29663023 0.2338035 0.2618169 -0.105267376 0.050476033 -0.36047745
-0.3041819 -0.25668216 0.11216037 -0.25033444 0.17954862 -0.24843661 0.17477714 0.069380246
0.18852998 -0.14615181 -0.3726151 0.29352537 -0.00319782 0.13655931 0.014703661 0.03355153
-0.16547373 -0.12542664 0.38258198 0.27586186 -0.19372588 0.42820212 -0.17502421 -0.15093274
0.043388072 0.27782533 -0.14357065 0.28361294 0.007272737 -0.26410386 0.39819327 -0.10526321
0.25681013 -0.0664355 0.21184602 0.03819796 0.2249609 -0.17573047 -0.108633906 0.29823285
0.22157866 0.1550624 -0.1014868 -0.31494477 0.4122624 0.10668243 0.3453583 -0.01841013

encoder.conv1.lin_r.weight f4 [64, 7]
00000000: 6074 97be 2200 b73e f96d 9abe 40f4 193d
00000010: c853 94be 79db e03d 12dc 023e ae22 8b3d
00000020: e4fe abbe e91d 9ebe 5456 d83d c03a b83b
00000030: 2a38 50bd 6712 69be 8d54 62be f23b 7fbe
00000040: 23ba b63e a32e adbe 5b9f b33e a76e 973e
00000050: c8f6 afbd ce98 8fbe 241a 053e ca09 f83d
00000060: 68f1 79bd f3af ad3e fe83 333e 308a 933c
00000070: 2bb2 f53c 8cd5 be3e 6b78 d9be a820 bb3d
00000080: 0700 a7be 90d2 943d a851 7cbe 66ad cb3e
00000090: bca9 6dbe eedb 523d 5b7b adbe f22f 553e
000000a0: 23f3 e23e f86e 96bd 988e 3cbd 2d1e 703d
000000b0: 0a35 a9be ccbc fb3d d84f 64bd 0f93 293d
000000c0: eb9c 8a3e b1c8 d8bc 0f8d d2be db72 22be
000000d0: 3104 31be 2582 9c3e 75a1 c93e 0002 52bc
000000e0: 756e 08be 1c7f d43e 5641 37bd b85c 213d
000000f0: a298 06be 7c36 7fbd 30f0 b0bd 4d62 593e
00000100: 1d4b d5be 6aa5 c23e 838f a7be d036 c83d
00000110: abf7 f3bd 47ec 6abe f87b 39bd 47dd 823d
00000120: 4d01 91bd bfdd 9e3e 5832 8abd ded1 1d3e
00000130: 002e a2bc 309a 4bbe 4cfc 9dbe 8eb6 96bd
00000140: b29f 1b3e 657c be3e 7727 5f3e 7d61 c13e
00000150: f611 fc3d 5985 993e 2eee a73c 760d 0abe
00000160: 5a91 743e eca6 913e c0e3 b1bb 7ef2 e83e
00000170: 5ee9 b53e e360 2b3e 5b36 bb3e 20f1 823c
00000180: 5184 80be 586a 413d eebf c93d 7599 79be
00000190: 8336 ab3e 834f 1bbe 4e33 14be 23bd 87be
000001a0: 28d8 cc3d b0f3 cfbe 0644 dabd b194 aa3e
000001b0: 726b 3e3e 4c19 94be 1fe8 033e cc9a db3d
000001c0: 8e5b db3e a970 803e 597b ab3e 45bb b73e
000001d0: 9c4e ff3d b5db 743e 24ad 83be 9c94 44bd
000001e0: 4d28 c5be 5d20 c23e 1cc0 a3be 7056 97be
000001f0: 77a5 483e 3513 89be b48f 8bbd c3b5 67be
00000200: f5e6 b0be 4193 8b3e 4762 963e 9279 843e
00000210: 4753 13be e1e3 0f3d 3d15 c23e 3e1e 5b3e
00000220: d7c8 3abe ce13 703e c7b0 eb3d efe3 b33e
00000230: 0a58 8e3e d225 4fbe 4f99 03be a06a da3d
00000240: 8048 76be 9be6 d63e 8080 1b3c 84f7 79be
00000250: 48b7 31be 42ba 50be c6f0 01be 7c92 b1be
00000260: 2394 95bd 4a76 173e 602e 4d3e dbc8 e5be
00000270: fd55 1a3d d2e0 653e b581 b5be 18de a63e
00000280: 00e0 cc3d 9d22 1abe 05aa ad3e 2043 b5bc
00000290: d075 9abc df36 b73e b3c4 863e 50aa af3c
000002a0: b96c 7c3e df8a a63e 5a2b 44be 92ad 643e
000002b0: 1397 a33e 62ed 86bc c930 97be 2033 7ebe
000002c0: 2774 6c3e 1d24 dcbe c784 973e 8ad2 143e
000002d0: cde8 543c b1b5 933e e093 43be 5cbc 11bc
000002e0: 6fed 073d c028 263c 3b14 21be f3af b63e
000002f0: d422 ffbd 3d62 6ebe 9c32 103e b0f5 ac3e
00000300: 2c76 48be 35b8 0cbe f9f1 29be c055 5dbc
00000310: fb8b c5be 038b 90be 3a85 4f3e b141 08be
00000320: 514f ad3e d0d7 553e 9eb7 333e f4df 873e
00000330: bafe 94bb 50c3 32be b050 4fbd fce7 943d
00000340: a309 96bd 6c6a 8f3d 8657 b53e e4a7 90be
00000350: 67ee d53e 02f5 3c3e b7cc 903e cf63 6e3e
00000360: 0a5e 783e edcb ce3e cc07 563e 7542 f73d
00000370: 5650 2b3e 0028 17bd e37c d7bb 208d 62be
00000380: 11b9 c5be 1648 d5be e1fa 3c3e 21c7 b33e
00000390: 47ff a5be f3ad 4abe 99e4 5cbe a29b 5d3e
000003a0: 2abf de3e 2d04 d53d 648b 96bd 1473 4dbe
000003b0: 5150 74be 6530 883e 7179 9a3e ed99 be3d
000003c0: cb40 393e 4354 48be 99a0 3ebe 78d7 ca3e
000003d0: 8067 683b 3fde aa3e ebe9 32be ff2c febb
000003e0: 8363 a43e 0230 b2be e766 473e 0e07 753e
000003f0: c033 003e 3fe5 1f3e f6aa 653e 15d9 a53e
-0.29580975 0.3574229 -0.30162027 0.03758645 -0.2897017 0.10979361 0.12779263 0.06793724
-0.33592904 -0.30882195 0.10563341 0.005622238 -0.050834812 -0.22760926 -0.22102566 -0.24925211
0.35688886 -0.33824643 0.35082516 0.2957661 -0.08591992 -0.28046268 0.12998253 0.12111242
-0.06102124 0.339233 0.1753082 0.018010229 0.029992184 0.37272298 -0.42474684 0.09137088
-0.32617208 0.07266724 -0.24640524 0.3978073 -0.2320928 0.051479273 -0.33883175 0.20819071
0.44326124 -0.07345384 -0.046034425 0.058622528 -0.33048278 0.122918695 -0.055740207 0.04140001
0.27072844 -0.026462885 -0.41123244 -0.15864126 -0.17286755 0.30568042 0.39380994 -0.01281786
-0.13323386 0.41503227 -0.044740044 0.039395064 -0.13144162 -0.06230782 -0.08639562 0.21228905
-0.4165887 0.38016826 -0.32726678 0.0977608 -0.11912473 -0.22941695 -0.04528424 0.063898616
-0.07080326 0.31028554 -0.067478836 0.15412089 -0.019797325 -0.19883037 -0.3085655 -0.07359038
0.15197638 0.3720428 0.21792398 0.3776969 0.12308113 0.2998455 0.020499315 -0.13481697
0.23883572 0.28447664 -0.0054287612 0.45497507 0.35529608 0.16736178 0.36564907 0.015984118
-0.2510095 0.047220558 0.09851061 -0.24374945 0.33440027 -0.1516705 -0.14472696 -0.26511487
0.10002166 -0.40615606 -0.10657506 0.33316568 0.18595675 -0.2892555 0.12881516 0.107228845
0.42843288 0.25085953 0.33492544 0.35885063 0.124661654 0.23911937 -0.25718033 -0.047993287
-0.3850731 0.37915316 -0.31982505 -0.29558134 0.1959437 -0.26772466 -0.068145186 -0.2262793
-0.34551206 0.27260783 0.29371855 0.25874 -0.14387237 0.03512943 0.3790683 0.21398255
-0.18240677 0.23445055 0.11508327 0.35134837 0.27801543 -0.20229271 -0.12851451 0.10664868
-0.24051094 0.41972813 0.009491086 -0.24410826 -0.17355072 -0.20383552 -0.12689504 -0.3468207
-0.073036455 0.14791217 0.20037222 -0.44879803 0.03767966 0.22449043 -0.3545052 0.3259132
0.10003662 -0.15052266 0.33918777 -0.022126734 -0.018855006 0.3578405 0.26321945 0.021443516
0.2465085 0.32527825 -0.19157162 0.22331837 0.31951198 -0.016470615 -0.29529408 -0.2482419
0.23091184 -0.42996302 0.2959349 0.1453344 0.012994957 0.28849557 -0.19099379 -0.008895006
0.03318542 0.0101415515 -0.15730374 0.35681114 -0.12457815 -0.23279662 0.14081806 0.33781195
-0.19576329 -0.13742144 -0.16596211 -0.013509214 -0.3858336 -0.28231058 0.20265666 -0.1330631
0.33849576 0.20883107 0.17550513 0.2653805 -0.0045469673 -0.17457318 -0.05061406 0.0727081
-0.07326057 0.0700272 0.35418338 -0.2825309 0.4178345 0.18452838 0.28281185 0.23280261
0.24254623 0.40389958 0.20901412 0.120732225 0.16729864 -0.03690338 -0.006576167 -0.22124147
-0.38617757 -0.4165656 0.18455078 0.3511286 -0.32421324 -0.19792919 -0.21571578 0.216414
0.43505222 0.10401187 -0.073508054 -0.2006343 -0.23858763 0.26599422 0.30170777 0.09306703
0.18091123 -0.19563393 -0.1861595 0.39617515 0.0035462081 0.33372685 -0.17472045 -0.007756829
0.3210717 -0.34802252 0.19472848 0.23928472 0.12519741 0.15614794 0.22428498 0.32392183

encoder.conv2.lin_l.weight f4 [64, 64]
00000000: 71a4 4abd 0b7c 13bd 425a a53c b5a6 0f3e
00000010: bf66 ec3d 1289 70bd c81c 2c3e 0fd1 e53d
00000020: 21f1 9d3d 4f7a 023e f2b9 013e fc63 c13d
00000030: 2b2d 433e 0986 3c3e ebdd 5f3c 1d3d 013b
00000040: a250 9a3d 20b5 313e fe6e 65bd 9c79 2f3e
00000050: 0a68 58bd 9416 193c 77cc 373e d969 523e
00000060: f63b 2ebd 5a15 d13d 5610 f03d fdb2 f0bc
00000070: ac48 323d 1e93 093e 38cd 68bc 44e8 2e3e
00000080: ce91 20bc 3e91 e63d 1fde 2bbc 8ad4 0d3d
00000090: e509 473e 0601 d83d 4e36 2abd 85fc 393e
000000a0: cf5b 5fbd 6a82 453c 8949 853d d89a 0a3e
000000b0: 550a 213e dc37 e33d fa5c 0fbd f3a8 78bc
000000c0: ae37 193d 95e3 9c3d 07d7 e1bc cafa ad3d
000000d0: 9ce9 f53b 156b f73d 85c2 5f3c a43b 963d
000000e0: 1784 073e f5de be3d 0708 f73d ef96 173e
000000f0: 8526 f13d dc19 a93d 93e9 bf3d c7f0 ea3d
00000100: 0969 21bc 6a6e 953d baab 3fbd 36a1 a13d
00000110: 7f82 ae3d ab11 af3d 9548 313e 0213 c83d
00000120: 7073 d23c ffc9 1ebd 460f 513e 6d21 16bd
00000130: f2ed c43d 89c2 193e de96 7e3d 45db 91bc
00000140: 8bce 153d 327d 81bd 0508 c53d ebae 8d3b
00000150: be74 053d 6959 8abb 4235 d43d 80a9 f63d
00000160: 9ed8 a4bc 21ae 7e3c f897 113d 385f 093e
00000170: 2c16 3d3e f1ab 613c 99f4 103e 7c2f 233d
00000180: 365e 423d 7ed1 0bbd 6877 383e 3339 893d
00000190: 773a 7c3d f3e5 403e fad6 183e b589 353e
000001a0: ceff 163d c444 773d 652a 073e 9620 753d
000001b0: 3027 303d 4d61 3f3c f454 643d 2838 2e3e
000001c0: c1c1 443d 6b24 423e 05d1 43bc 85ab 383e
000001d0: 5c0a 393e c5b2 c23d 2807 483e 588b 313e
000001e0: e43c 2f3d b1f6 423d e79e 3dbd 7ee8 0a3c
000001f0: 6507 b53d 3a8d 4d3d 2d18 1eba ac6c fa3d
00000200: b711 0bbe a002 2a3d 7d0f f5bb 52cb 3dbe
00000210: 94b1 95bd 8bd2 09be 9fdc 3dbe f440 34be
00000220: f78c 3cbc 5542 61bd 7327 25be 41b8 c33c
00000230: fc75 71bd 36ea 03be 0bb8 5bbd ddc3 2ebe
00000240: db4d 4abe 5958 f6bd 9271 24be 36d1 18be
00000250: 17d2 1dbe 8b5c 063d 4ad0 3cbe 0ccb fcbd
00000260: e664 143d 553c 47be ccfe 4bbd 4f71 bdbd
00000270: d549 efbd 3f93 42be 7f1e a5bd cfac 96bc
00000280: a62d 38be 369b 0dbe c2fa 183d 97b3 183c
00000290: 7efa f0bd 6a3e 21be cf49 2abe 46a7 9dbd
000002a0: 9d87 9fbd 57d5 20bc 796e 0fbe 1f65 64bd
000002b0: ad42 debd b016 09be da62 a43c 8213 48be
000002c0: 854e febd a427 88bb 72b9 3bbe 3521 5cbd
000002d0: 8bda 38be 76ea 47be 7083 cabc 133c 03be
000002e0: 8655 b3bc 5e4d 37be 040f fcbd 10f0 eabd
000002f0: 8dec 0d3d 9c17 c6bd 3c0d 0cbe 50ef 17bd
00000300: d02f d33c 2896 d2bc 3af6 b33d 6036 fc3c
00000310: a8e9 443d 5046 a9bc 98ab f13d d200 963d
00000320: 3eb2 fc3d 0ab4 9d3d 14e8 a33d 24de 98bd
00000330: d4a2 353d 0c58 4d3d ca5d da3d 8086 ce3a
00000340: 50cf 283d 584e af3c dcac debd be59 c1bd
00000350: 682b 35bd 4c2b 88bd 640c 0fbd 56e7 8d3d
00000360: aae8 f9bd e459 883d 20da 97bd a84f c4bc
00000370: 04f3 403d dcb8 42bd c49b 23bd a0ac 09bc
00000380: ba5d de3d 9e1e bcbd 5499 84bd aa9d a73d
00000390: 2836 e1bd 8c72 1abd 2699 a9bd aebd c73d
000003a0: 089b 613d e89a 77bd c068 e5bc f4bb a43d
000003b0: 4a71 cd3d eab2 d9bd a426 ef3d 3c15 d0bd
000003c0: 40c1 b83c 80d4 9f3a c046 853d 585c d13c
000003d0: 109e 7b3c 5624 d0bd 74a1 e93d 1e50 ce3d
000003e0: 6005 213d 485f 91bd 60f9 58bd c0bb 583c
000003f0: 00e6 583a 6cb3 c23d 2cfe 80bd bab2 ae3d
-0.04947323 -0.03600697 0.02018464 0.14028437 0.11543035 -0.05872447 0.16807854 0.112215154
0.07712007 0.1274197 0.12668589 0.09442899 0.19060199 0.18410505 0.013663749 0.0019720264
0.07534911 0.1735425 -0.056014054 0.17136234 -0.052833594 0.009343762 0.17949091 0.2054819
-0.042537652 0.102091506 0.11721866 -0.029382223 0.043526337 0.13435027 -0.014209084 0.1708079
-0.009800388 0.112581715 -0.0104899695 0.03462652 0.19437368 0.1054707 -0.041555695 0.18162735
-0.054530915 0.012055019 0.06508166 0.1353563 0.15726598 0.11094639 -0.03500078 -0.015176999
0.037406616 0.07660595 -0.027568353 0.084951 0.007504655 0.12080971 0.013657217 0.07335594
0.13233982 0.093198694 0.12062078 0.1480367 0.11774925 0.082568854 0.093707226 0.11471706
-0.0098517025 0.072964504 -0.04679463 0.07892077 0.08520984 0.08548292 0.17312844 0.097692505
0.02568981 -0.038766857 0.20415983 -0.03665297 0.09615697 0.15015616 0.062155597 -0.017804751
0.036573928 -0.06322707 0.0962067 0.0043238304 0.032582037 -0.0042220843 0.103617206 0.12044048
-0.020122822 0.015544445 0.03554532 0.1341523 0.18465489 0.013773904 0.14155807 0.039840207
0.047453128 -0.034135334 0.180143 0.06700363 0.061579194 0.18837719 0.14925757 0.17728312
0.036865048 0.060368314 0.13199766 0.05984553 0.043006122 0.011680913 0.05574508 0.1701361
0.04803634 0.18959205 -0.01195169 0.1803418 0.18070358 0.09506754 0.1953398 0.17338312
0.04278268 0.047598545 -0.04629412 0.008478282 0.08839301 0.050183512 -0.0006030824 0.12227759
-0.13580976 0.04150641 -0.007478653 -0.18534592 -0.07309261 -0.13459222 -0.18541192 -0.17602903
-0.011508218 -0.0549949 -0.1612833 0.02389157 -0.05895041 -0.12882313 -0.053642314 -0.17066903
-0.19756262 -0.1202857 -0.16058949 -0.14923558 -0.15412174 0.0328031 -0.18438831 -0.123434156
0.036229037 -0.19456609 -0.04980354 -0.092501275 -0.11684004 -0.19001482 -0.08062457 -0.018392948
-0.17986163 -0.1382874 0.037348516 0.009320161 -0.117665276 -0.15746465 -0.16629718 -0.076979205
-0.07789538 -0.009816489 -0.14006986 -0.0557605 -0.10852561 -0.13387561 0.020066667 -0.19538692
-0.1241732 -0.004155116 -0.1833246 -0.053742606 -0.18052118 -0.19523033 -0.024720877 -0.12815885
-0.021891367 -0.17900607 -0.123075515 -0.114715695 0.03464942 -0.09672472 -0.13676924 -0.03709346
0.025779635 -0.025706366 0.08787198 0.030787647 0.048074394 -0.02066341 0.11800307 0.07324375
0.123386845 0.07700355 0.0800325 -0.07464245 0.044344738 0.050132796 0.1066242 0.0015756637
0.041213334 0.021399662 -0.10872814 -0.09440945 -0.04423085 -0.06648883 -0.034923926 0.069288895
-0.1220258 0.0665777 -0.07414651 -0.023963764 0.047106758 -0.047539577 -0.03994347 -0.008402973
0.10857721 -0.09185527 -0.064745575 0.08184369 -0.109966576 -0.037706897 -0.08281164 0.097529754
0.05507949 -0.060450464 -0.02800405 0.08043662 0.10031374 -0.10629828 0.11677292 -0.101603
0.022553086 0.0012194067 0.06507635 0.025556728 0.015357509 -0.101631805 0.11407748 0.10073875
0.039311767 -0.070982516 -0.052972198 0.013228357 0.0008274019 0.09506878 -0.062984794 0.08530183

encoder.conv2.lin_l.bias f4 [64]
00000000: b20c 4fbd ba2f 0abd b9a6 b2bc b739 853d
00000010: 6994 74bd 6550 f63d df29 1f3e d6c0 6dbd
00000020: 272e 823d 4afa 9abd 8727 edbc 8472 f2bc
00000030: 2018 243e bed3 163d 2257 a4bd 82bf 53bd
00000040: 5fb0 ab3c 3802 143e d66a 51bd af03 013e
00000050: d14d 833c 9e6f 113e 6132 2e3e e0d1 97bc
00000060: 7953 86bd 6d17 c83d 4f9b 21bd f9b7 b2bb
00000070: 3e72 54bd 770a c3bd c887 a63d 8734 eabd
00000080: fcbe 44bd bd07 813d cf6a 6abc 205d 113e
00000090: f2da 5d3d 05a2 473d 80d7 783d d8be d8bb
000000a0: dbc4 83bd d4f0 223e e5e2 203e d743 5b3d
000000b0: f5e5 3b3e 2a8e c33d e0f4 a2bb 50b6 3f3c
000000c0: 664d 3ebc f310 d23d ea5a d6bd cf0f edbd
000000d0: e25f 493e 4c8b 0abe 4123 0d3e 8824 643d
000000e0: b757 e73c fbf2 153e 4412 d83d e8e7 eebd
000000f0: 9e7f dcbd 0f1d a6bd b1f7 0f3e acda c0bd
-0.050549217 -0.03373692 -0.021808015 0.06505149 -0.059711847 0.12027053 0.15543316 -0.05804523
0.06356459 -0.0756727 -0.028949512 -0.02959562 0.16024828 0.036823027 -0.08024432 -0.051696308
0.020958124 0.14453971 -0.051127277 0.12599061 0.016028317 0.14202735 0.17011406 -0.018532693
-0.0655889 0.09770093 -0.039454754 -0.00545406 -0.051866762 -0.095234804 0.08131367 -0.114358
-0.0480337 0.06300304 -0.014307692 0.1419568 0.05416388 0.0487385 0.06075239 -0.006614547
-0.064340316 0.15912181 0.15711553 0.053531494 0.1834944 0.095486 -0.004973039 0.0117011815
-0.011615133 0.10257139 -0.10466559 -0.11575281 0.19665483 -0.135297 0.1378298 0.0556989
0.028240068 0.14643471 0.10550359 -0.11665326 -0.107665285 -0.08111011 0.1405933 -0.09416708

encoder.conv2.lin_r.weight f4 [64, 64]
00000000: 9506 c53d a094 c5bc d02c 8c3d f294 bc3d
00000010: ea92 e1bd ecb3 d8bc 5b20 9b3c 4d1e b13d
00000020: ad3d 663c 7433 6bbd 2458 57bd 13de bb3c
00000030: c5fd 1ebc aa07 1c3d b490 1fbd 82ed 7c3d
00000040: 1995 2e3b 0de6 d2bd 52b9 8b3d 3d59 0dbc
00000050: 6e4e aabd babf 083e f0e7 abbd 0a8a a33d
00000060: 2fc5 b0bd ef2a 4d3d b360 6bbd e8bf dcbd
00000070: 406e 17bc 91e8 9dbc 1afd 6dbd 86ae 5abc
00000080: 8331 b8bd 69dc cdbd 2713 de3d ded4 20bd
00000090: 25de ebbc c564 8ebd 5061 753d e559 b2bb
000000a0: cbfa 9f3d e82d 0b3d 0487 a7bd a386 643d
000000b0: 6f44 08be e0e8 8fbd e8b6 01be 486f 133d
000000c0: 0b7d bf3b b75c ea3d bc42 4e3c 997f e0bd
000000d0: ffd6 a33c c97d 87bd 1948 8bbd 182a 3b3c
000000e0: 6f0e ac3d 1b28 fbbd a2bd 313d 07eb fc3b
000000f0: 8158 acba e7ca d2bc fa17 5fbc 2bfe ccbc
00000100: 9fb2 673d 5811 67bd c89f 81bd 15f6 ee3d
00000110: 3a27 81bd 72f4 e83b a980 8d3d cca1 80bd
00000120: 956e adbd 4bab 893c 4ae1 a8bd a15b f5bc
00000130: 3c65 80bd 79ce b3ba 5c7c e3bd d4d5 bb3d
00000140: fc98 b53d 57ee 41bb ba79 e3bb 1c35 f33c
00000150: 5462 f2bd d71d e63d f041 b0bd 94b6 86bd
00000160: 558e dabd ae63 30bc 227a bb3d 3fcb 90bd
00000170: 509e a83d 35a8 cebd 0f25 3cbd d443 b53d
00000180: a097 1bbd 569c 2eba d912 cd3d 0515 343d
00000190: ad75 753d e69e 07bc 4bdc 013d 3d9a a93c
000001a0: 293c 2e3d 54f1 f03d 9fb9 7d3d ebb8 863d
000001b0: 296f 84bd a8b6 adbb 206b c0bd c2ac acbd
000001c0: e527 2e3d 63f6 e6bd d95b f9bc 428a a13b
000001d0: d0d0 cbbd 31f2 883d 23f6 eb3d 9e62 ddbd
000001e0: 3fd8 81bd 7563 783d 7894 8cbc 0cb7 cabd
000001f0: ea4c 873d 8d78 b73d 7add 21bd a179 b7bd
00000200: 4c32 533c da84 413e 6a19 eebb 3a42 833c
00000210: dead 203e f959 b5bc 4163 af3c 34d7 ecba
00000220: 7edd fa3d 1828 363d 300d 2bbd 572b 423e
00000230: a477 1dbd 091c 27bc e785 5bbd ddf5 aebc
00000240: 7b62 173c f74e 1b3e 526a f63d 807a 893d
00000250: ab1b e13d ddde 3d3d 42ef c43d 74a0 253e
00000260: ad96 2c3e 6bbf c13d d4bf bc3d 57f9 173d
00000270: 15bc a43c e586 ef3d a1d0 a8bb 9cd6 383e
00000280: 4843 0b3c 96e9 a43c 3229 ee3d b85c 303e
00000290: 6986 9fbc db45 e83d 3011 9e3d 622c e4bd
000002a0: 43ff 313e 236a 383e 965a a23d 5348 013b
000002b0: a8f6 c43d b4e4 e13b 51c9 213e 4bf5 333e
000002c0: 852a 80bb 7a3a d93d cf6a 2fbd b18a 9d3c
000002d0: a1d0 cf3a 1085 373e 83b3 1c3c f1fb 583d
000002e0: 6c19 563d 917c 303e 7265 b83d 17db a63d
000002f0: e41e 2f3e cdd4 47bd 0e29 0abd 33cb 2d3d
00000300: 02c3 8ebd accd fdbd 34a0 d03d f939 01be
00000310: 4812 ad3d 2003 60bd 4f04 89bd 1d79 b03d
00000320: dab2 2e3d ebac c63c 0631 843c c944 74bc
00000330: 4343 45bd cda5 a13d c630 873d c6ff 47bd
00000340: 4036 83bd 7c91 163c 7c3b cfbd e88c 523d
00000350: fbc2 cb3d a012 e63c eeae 6fbc e6cd 8c3d
00000360: dee8 b33d 300e bebd 9a7e af3d 045d afbd
00000370: 7ca4 613d 1418 b43d 0d18 7cbd 1f58 fabd
00000380: 2ccd bc3d 0100 353d eaa9 05be a2f6 c3bd
00000390: 58bd c83d 5868 b9bd b9bf 16bd 52a6 2e3d
000003a0: e9f4 54bd 0dd3 9abd 1e36 debc 4140 bc3d
000003b0: 27b9 bc3b 3286 893d 8e91 00be b432 01be
000003c0: bde1 7c3d 6774 ddbc a814 e7bd 82f0 67bd
000003d0: 5b3b 7d3d 45ec ccbd 6199 7f3d 4069 45bd
000003e0: 96ad bf3d 2632 b2bd b802 8dbd 717f 393c
000003f0: c359 b63d ae3d ccbc 3225 cabd e9b2 7b3d
0.09620396 -0.024118721 0.06844485 0.092080966 -0.1101435 -0.026452981 0.018936327 0.086483575
0.014052791 -0.057422116 -0.05257429 0.022933042 -0.009704058 0.038093247 -0.03895636 0.061749943
0.0026639162 -0.10297785 0.068224564 -0.008627233 -0.083157405 0.13354388 -0.08393848 0.07985313
-0.0863136 0.050089773 -0.057465266 -0.10778791 -0.009242594 -0.019275935 -0.058102705 -0.013347274
-0.089938186 -0.100518055 0.10843497 -0.039265506 -0.02879245 -0.06952814 0.059907258 -0.005442845
0.07811507 0.033979326 -0.08180049 0.055792462 -0.13307355 -0.07026839 -0.1266743 0.035994798
0.0058437637 0.11443465 0.012589153 -0.10961837 0.019999979 -0.066157885 -0.06800861 0.01142361
0.084011905 -0.12263509 0.04339374 0.007718447 -0.0013148935 -0.025731517 -0.013616556 -0.02502354
0.05656683 -0.056413025 -0.06329304 0.1166803 -0.0630631 0.0071092183 0.069093056 -0.0628086
-0.084683575 0.016805312 -0.082460955 -0.029950919 -0.06269309 -0.001371815 -0.11107704 0.09171644
0.0886707 -0.0029591525 -0.006942001 0.02968841 -0.11835161 0.1123616 -0.086063266 -0.06577793
-0.10671679 -0.010765953 0.09154154 -0.07070016 0.08233321 -0.10090677 -0.04593378 0.08850828
-0.037986398 -0.0006660869 0.100133605 0.04396536 0.059926677 -0.00827763 0.03170423 0.02070343
0.042537842 0.1176478 0.0619446 0.06578239 -0.064665146 -0.0053013153 -0.093954325 -0.084313884
0.042518515 -0.11277463 -0.030439304 0.0049298117 -0.09951937 0.06686819 0.11521556 -0.10809825
-0.06340074 0.060641725 -0.01716064 -0.09898195 0.06606467 0.0895854 -0.039517857 -0.08958746
0.01289041 0.18898335 -0.007266213 0.01602279 0.15691325 -0.022137629 0.021409633 -0.0018069507
0.122492775 0.04447183 -0.041760623 0.18961845 -0.038444176 -0.010199555 -0.053594496 -0.021357471
0.009239788 0.15166841 0.12031998 0.06712818 0.10991605 0.046355117 0.09615947 0.1617449
0.16854353 0.09460338 0.09216276 0.037103023 0.020109216 0.11695651 -0.0051518236 0.18050617
0.008499928 0.020130914 0.11628951 0.1722287 -0.019473271 0.11341449 0.07718122 -0.11141278
0.17382531 0.18009238 0.07927434 0.0019726946 0.096173584 0.0068937186 0.15799452 0.1757404
-0.0039113187 0.10606857 -0.04282647 0.019231172 0.0015855023 0.17921853 0.009564283 0.052974645
0.052270338 0.17235018 0.09003724 0.08147257 0.17101628 -0.048786927 -0.03373056 0.042430114
-0.069707885 -0.123927444 0.10186806 -0.12619771 0.084507525 -0.05469048 -0.06690275 0.086168505
0.042651035 0.024252376 0.016136657 -0.014908978 -0.04815985 0.07892952 0.066011 -0.04882791
-0.06406832 0.00918996 -0.101187676 0.05140391 0.09949299 0.028085053 -0.014629109 0.068752095
0.0878465 -0.0928005 0.08569069 -0.08562663 0.055088505 0.08793655 -0.061546374 -0.12223839
0.09218821 0.044189457 -0.13053098 -0.09568526 0.098017395 -0.09053105 -0.036803935 0.042639084
-0.051991377 -0.07559786 -0.027125414 0.09191943 0.0057593766 0.06715049 -0.12555525 -0.12616998
0.06173872 -0.027033044 -0.11283237 -0.05662585 0.061824184 -0.10006002 0.062402133 -0.048196077
0.09359281 -0.08700971 -0.06885284 0.011321888 0.089038394 -0.024931755 -0.09870376 0.06144992

decoder.mlp.0.weight f4 [128, 64]
00000000: 9110 473d 8c53 a5bd 9c32 c33d e066 7e3d
00000010: 3c33 3b3d 905e 8a3d 86e9 a03d 29c6 193e
00000020: 9658 013e da1e 64bd 9d2f 33bd 0bb5 843c
00000030: 4087 1e3e e8fd 383e 5420 1ebd 83cb 8a3d
00000040: a88b 313e 93b6 143e 9c33 193e b139 083d
00000050: aebc 0ebd b514 403e bbeb 4d3e 3756 3a3e
00000060: 9f7d bebc e194 143e bb7a 503d 883f 253d
00000070: 5110 643d 049b ea3d 1eab e3ba ceff a13d
00000080: 3699 ecbd e172 b63c 82a8 283c 3a2c fabc
00000090: 900b 273d b9dd d33d 378e 2a3e 022b 96bd
000000a0: 7d00 b73d 9125 b33d 5ac6 003e 07bf 3f3e
000000b0: 14bd ef3d c7df 9a3c 8821 d1bc a6c7 6e3d
000000c0: 93d9 5c3d 4523 ef3d ce8a d33d 11ee ed3c
000000d0: 9cd1 473e ef41 fb3d fb60 5fbc 0cd3 483e
000000e0: a4d4 803c 5a6c 133d c0a6 3bbd 2ed3 bbbd
000000f0: 4be8 be3d 8fa8 9dbd 79f0 24bd d0a1 70bc
00000100: c3f3 dcbb a657 113e 7bc4 fdbd e0c6 7cbd
00000110: f4d4 5b3d 7b4b 383d c346 0d3c 5060 1cbb
00000120: 8585 bb3d 0747 503c 20cb adbd 0d6c 02bc
00000130: 0c9b ac3d f62e ee3d 2821 20bd afa4 183d
00000140: 89a7 81bc babe d9bd 9d72 b13d 9c2c 02be
00000150: 4457 8b3c dd38 f83d 2d20 66bc 21f1 07be
00000160: 72b0 28bd aa5f d53d 893b 3cbd dea8 383d
00000170: 5bbb 74bb f9bf 433d ac06 bf3d bdbb 103e
00000180: b061 b5bc fbcc 933d 4b81 2c3d bdff a3bd
00000190: e8c8 b9bd eb1d 1dbd 5f4b 69bb 8d3e 333d
000001a0: 051c febd 6e67 b33d c7e2 42bd aff1 583d
000001b0: a9d5 8abd 8ff1 0c3d 401c a63b 9a50 363d
000001c0: 4b8c 8a3b 0bce 72bc 188d b4bc 89ec 9e3d
000001d0: 526e b8bd aa09 c23d 56cb 483d 3e65 153d
000001e0: c127 2cbc b419 8a3d 986a 76bd d48f 173e
000001f0: c78a ba3d 9f72 e93d cd13 e3bd 90e7 c63d
00000200: 0163 223d 2714 f03c 96c6 593c 631e 84bd
00000210: 0cc9 3a3d 1073 e23d e6c7 ea3d f90d cf3d
00000220: 6050 d53c d09f 293d a5a3 3e3d 3e58 d5bd
00000230: 2085 b7bc eff7 383e 2e7b 9d3d c64d 043e
00000240: 9f06 1b3e 2f7a 2b3e c477 2a3d 01b6 423e
00000250: a98e 353e 6e91 f43d 569f 143e 57e0 cf3b
00000260: bd08 d83d 5e9b bb3c 46e5 ee3d 0777 3b3e
00000270: 00d7 52bd 9179 ee3d df4d 033e 88e8 303d
00000280: 0e71 d13d 65d7 84bd b922 9dbd 2a0d 493e
00000290: d12a 143e 7a51 37bc fe03 f23d 7848 573c
000002a0: 56e2 a63d 8ad6 a53d b1f6 ee3c 0407 cc3d
000002b0: 3240 2f3e c63b 273d ce2a 81bd 37e2 4bbd
000002c0: 3496 133e 0a80 443e a400 a0bd f35f 0abd
000002d0: 3da5 123e e830 e4bd fca9 d13c d365 143e
000002e0: d005 fa3d f6f0 4e3e 005f 9e3a ee62 953d
000002f0: 7568 bbbd 93b4 db3d 648e bebb b0c3 4bbd
00000300: 9741 ee3c 3551 41bc 9897 913d aa51 e73d
00000310: c15a 873d abd1 7dbd 4157 ff3d 830a efbc
00000320: e30a 6dbc 303a 1d3d b561 843c 185c 82bd
00000330: b0b0 de3d daa6 72bd 7403 9dbd 280e 043e
00000340: 69cd 233d 0b31 acbd 0f5d 94bd 8175 de3c
00000350: 5437 ce3d f8b6 a53d 4764 013e 878d 263e
00000360: af63 2c3e 3360 ed3d 12af 28bd 1e1c fe3d
00000370: e991 58bd f89e 6ebd 2113 1b3d 8d1f a4bd
00000380: d67b fbbd 3a9a bebd a334 66bc 929c ff3d
00000390: 09ba f33d b676 0f3e 396d 07bd 851c 1b3d
000003a0: 3c12 ac3d f201 fbbc 5a36 70bd 8ba2 803d
000003b0: 926c 96bd 951b e23d 64d2 473d bf52 ddbc
000003c0: 49b1 0bbd 37ed e03d c0bf e03d ef23 e9bd
000003d0: ab9e 9f3d 43c7 003d 9145 1d3e 5dbf 1e3e
000003e0: aa9b 163c 4fd5 94bd 74ac 70bd 92bf 0ebe
000003f0: 7bf8 dd3d cf9f 2a3d 05d3 133e 6c87 1d3d
0.048599783 -0.08072576 0.09531137 0.062109828 0.045703158 0.067563176 0.07857041 0.15016998
0.12631449 -0.055693485 -0.04374658 0.01619961 0.15481281 0.18065608 -0.03860505 0.06777098
0.17338431 0.14522772 0.14961094 0.033258144 -0.034847908 0.18757899 0.20109455 0.18196951
-0.02325326 0.14509918 0.050898295 0.04034379 0.055679623 0.11455348 -0.0017369722 0.07910119
-0.1155266 0.022271575 0.010294082 -0.030538667 0.04078251 0.103450246 0.16655813 -0.07332422
0.0893564 0.087473996 0.12575665 0.18725215 0.11705986 0.018905533 -0.025528684 0.05829587
0.053918432 0.11676649 0.10329209 0.029044183 0.19513553 0.12268435 -0.013633962 0.19611758
0.015726395 0.035992004 -0.045813322 -0.09171139 0.0932165 -0.076981656 -0.040268395 -0.014687017
-0.006742926 0.14193591 -0.12390991 -0.0617131 0.053669885 0.04499386 0.008622828 -0.0023861118
0.09156326 0.012712247 -0.08486009 -0.007960332 0.0842801 0.11630051 -0.03909412 0.03726643
-0.015826957 -0.10632081 0.08664439 -0.1271233 0.017009385 0.12120221 -0.014045757 -0.13275577
-0.041183896 0.10418637 -0.045955215 0.04508292 -0.0037343118 0.0477905 0.093274444 0.14134116
-0.022141308 0.07216831 0.04211549 -0.080077626 -0.09071523 -0.03835861 -0.0035597903 0.043760825
-0.12407688 0.08759962 -0.047579553 0.052964862 -0.06779034 0.034410056 0.0050692856 0.04451046
0.00422815 -0.014819632 -0.022039935 0.07759959 -0.09005417 0.094744995 0.04902204 0.036473505
-0.010507525 0.06743184 -0.06016025 0.1480096 0.09108501 0.11398815 -0.11087761 0.09712136
0.0396452 0.029306484 0.0132919755 -0.06451108 0.04560189 0.11057103 0.11463909 0.10110087
0.026039302 0.041412175 0.046542782 -0.104172215 -0.022402346 0.18063329 0.0768951 0.12920293
0.15139244 0.16745828 0.041618124 0.19014741 0.17730202 0.11941801 0.14513907 0.006343882
0.10548542 0.022901233 0.11664824 0.18307124 -0.05147457 0.11644281 0.12822674 0.04319051
0.102266416 -0.06486396 -0.076726384 0.19633928 0.14469458 -0.011188859 0.11817168 0.0131398365
0.08148639 0.08097561 0.029170366 0.099622756 0.17114332 0.04082849 -0.063069925 -0.049776282
0.14412767 0.19189468 -0.07812622 -0.03378291 0.14320846 -0.111421406 0.02559375 0.14491968
0.1220814 0.20209107 0.0012082756 0.0729426 -0.09150783 0.10727801 -0.005815314 -0.04974717
0.02908401 -0.011799146 0.07108992 0.11294873 0.06609107 -0.061967533 0.12467814 -0.029179817
-0.014467928 0.03838557 0.016159872 -0.06365222 0.10873544 -0.059241153 -0.07666674 0.12896025
0.039990816 -0.08407792 -0.07244312 0.02715564 0.10069147 0.08091539 0.12635909 0.16264926
0.16834901 0.11590614 -0.041182585 0.12407707 -0.052873526 -0.058257073 0.03786004 -0.0801383
-0.12279479 -0.0930676 -0.0140506355 0.12481035 0.11900718 0.14010128 -0.033063147 0.037868995
0.084019154 -0.030640576 -0.058645584 0.062810026 -0.07344927 0.11040417 0.04878463 -0.027016995
-0.03410462 0.10982745 0.109740734 -0.11383807 0.077939354 0.03144003 0.15358569 0.15502687
0.009192387 -0.07267248 -0.058758214 -0.13940266 0.108384095 0.04165631 0.14435966 0.038459226

decoder.mlp.0.bias f4 [128]
00000000: a99b 2b3e 901b afbd c6dd fb3d cdf2 0c3e
00000010: 8ff7 063e 3ffc 113c 3ca8 a63d 327a 04bb
00000020: 69d7 b13d fb66 8cbc f757 953d 2c53 d2bd
00000030: 04bf da3d 9d56 5b3d 7c01 08bc ed31 fb3d
00000040: e76b 133e 389e 1b3e 2208 083e f15d 2c3e
00000050: 3ef8 a83b e82d 413e 60d6 d7bc b6e8 c53d
00000060: ce7c fbbd 000f 3c3a 835f e63d 0526 8e3d
00000070: 11cc e53c b728 363e 64fa d63c 0919 8d3d
00000080: ae0a 98bd 780d c63d 8405 653c 5d14 37bd
00000090: 40a4 a4bb 66d6 093e c046 9bbd 416c 2a3e
000000a0: 4e78 4a3d f682 f2bd eba4 ec3d 6250 ad3d
000000b0: 315f d93b bf2f 513d 138f c93a efc5 06bc
000000c0: 632f dfbd bd96 debb c693 603d 83c1 42bd
000000d0: 37c4 163e 74b3 b8bd 1b3b 253e af05 68bc
000000e0: c631 dd3d d85d 9abc ca67 d83d 5c95 0e3e
000000f0: 69df 41bd 7dcc 1a3e 8f9e e63d 31aa de3d
00000100: 423e 113e f42e 963c b2dc 8ebd f06f bbbd
00000110: 7b77 89ba d5aa 113e c690 d0bc d61f 0f3d
00000120: 44d4 223e c788 bf3d 139d 8c3d ca52 8d3d
00000130: d732 ed3d 6471 debd 7f85 8c3d 2596 bd3c
00000140: 583b 38bd 38cb c13d d794 c43d 7a84 84bd
00000150: 99ff 703a f354 823d e356 c73d 6cdf 1dbd
00000160: de20 5c3d 159d eb3d b0ad c43d e1b6 a8bd
00000170: 6853 d33d d503 c03c fbce b9bd f8cd 223e
00000180: 2feb a63d 1207 b0bd aff4 73bd 9a5c da3d
00000190: 0b50 b9bd 7888 d2ba 165d a0bd 0cdd d3bd
000001a0: a8fd 0b3e 82d3 383e b2c6 3d3d 6e22 f23d
000001b0: e7de b8bd f74a 283d 41eb 9cbd 499f 0c3c
000001c0: d369 ea3b c277 a1bd 276c d13d 66e5 9b3d
000001d0: d285 333e c215 f2bd 3589 333e 7a4c 66bd
000001e0: bbba 593e 4b50 0d3e 4006 fdbc 0b3d 443d
000001f0: 6c23 bb3b 4784 8bbd 2e91 03bd 1d31 9a3d
0.16758598 -0.08550179 0.12298159 0.13764496 0.13180374 0.008910238 0.08137557 -0.0020214436
0.08683664 -0.017138949 0.072921686 -0.1026977 0.106809646 0.053549398 -0.008301135 0.12265382
0.1439663 0.15197074 0.13284352 0.16832711 0.005156546 0.18865168 -0.02634734 0.09663527
-0.12279664 0.0007173866 0.11248686 0.069408454 0.028051408 0.17788969 0.026242442 0.06889541
-0.07423912 0.09670538 0.013978366 -0.044697154 -0.005024463 0.13460693 -0.07581854 0.16642858
0.049431138 -0.11841385 0.11554893 0.084625974 0.006633662 0.051070925 0.0015377722 -0.008225902
-0.1089771 -0.0067928717 0.054828428 -0.04754783 0.14723288 -0.09018603 0.16135828 -0.014161511
0.10800509 -0.018843576 0.10566671 0.13924164 -0.0473322 0.15117069 0.112607114 0.10872305
0.14183906 0.018332936 -0.06975688 -0.0915221 -0.0010487878 0.14225323 -0.025459658 0.03494247
0.15901285 0.0935226 0.06865897 0.069005564 0.115819626 -0.10861471 0.068614 0.023142884
-0.04497847 0.09462589 0.095987014 -0.064705804 0.00091933605 0.06363859 0.09733369 -0.03854315
0.053742282 0.115045704 0.09603441 -0.082380064 0.10318643 0.023439327 -0.090726815 0.15898883
0.081503265 -0.085950986 -0.05955952 0.106621936 -0.0904847 -0.0016062399 -0.07830255 -0.10344896
0.13670981 0.18049434 0.04633207 0.11822973 -0.0902689 0.041087117 -0.076620586 0.008582898
0.0071537285 -0.0788417 0.102257065 0.07612114 0.17531517 -0.11820556 0.17532809 -0.056225277
0.21262638 0.1380016 -0.03088677 0.047909778 0.0057110097 -0.06812339 -0.032120876 0.07528899

decoder.mlp.2.weight f4 [64, 128]
00000000: e77f 123d 8ecd 8cbd f04e 2e3e 5dd1 b03d
00000010: 6b9d fd3d fb73 f33d 6c51 0c3e a8cb 6cbd
00000020: 9249 d5ba 0539 2abd 50c0 e23d a84a 393d
00000030: 4fc0 c83d 56e9 c63c 307f d23d ebf8 323e
00000040: 0b71 e03d 0a62 ab3d 494d d03d 6fa7 953d
00000050: bd68 a13d 144c 243e 89a3 16bd c322 9fbc
00000060: b84c b23c 9c29 83bd 4e48 133e 574e 1f3e
00000070: 3398 403d 5492 c13d a757 903c fe24 043e
00000080: b056 b63d e643 a23c fa9a c93d 9b17 24bd
00000090: 0682 84bd e792 7f3d 5c5a a6bd ef9b 113e
000000a0: 2ac0 2d3d 23af 4dbd 9a89 90bc 7648 c13d
000000b0: 4452 73b9 3168 773d 46c3 6bbd 1417 3f3d
000000c0: 6083 88bd b0e6 c53c 2aaa c83d a03a 393c
000000d0: 29a8 e03d f83f adbd d4b2 993d 866b a83c
000000e0: cca9 cd3d ba58 5bbd 67f6 6cbd 0c91 c03d
000000f0: 16d9 1a3d 015b 193e 5672 193e be18 173c
00000100: 9dc7 143e baea 853d e0fc 913c 98c9 3bbc
00000110: 96be 323e 5b12 ac3c 3d83 47bc b93b a13c
00000120: 8aa4 223e 40f4 0a3e d32a 063e cf33 103d
00000130: d1cb c83d 3a41 7abd 32ff 2b3e 74a4 083e
00000140: 9116 40bd 859f b53d a78e 743d 5853 2cbc
00000150: 8b71 723d 88d9 e33d 0e59 a03d 02fc 453d
00000160: 3381 1b3e e17d fb3d 4d93 553d be2e 463d
00000170: 13fb 773c a3b5 e5ba 8832 8a3c 95f4 803d
00000180: 1d6a 763c 22d2 a0bc 9c20 0d3e a21d a83d
00000190: 9886 833d 2135 d33d c885 7d3c 3601 193d
000001a0: 4dde 033e 927b 3a3c 75ae 103e 74e6 943d
000001b0: 2945 f5bb 1ffa 973d 4ae0 d0bc 7620 02bd
000001c0: c259 293c 3bc8 1bbd 4d16 0a3d 8df6 e03d
000001d0: 1bae a33c 5479 89bd f20e b13b c45c 0ebd
000001e0: 949c 073e ff91 ca3c d540 9dbd 854a 40bd
000001f0: b00e 753a 51fd 1a3d c16b 0a3e 2d9c 953d
00000200: 972a 773d 3ac1 02bd 5f65 013e c528 613d
00000210: 9899 cb3d 0440 103e 3660 0c3e fe61 1ebd
00000220: ae61 093e eadc f53b ca45 ffbb a716 98bd
00000230: 0c1d ad3d 4765 9a3d b269 29bc 4f47 8d3d
00000240: c731 2ebc cdd6 1f3e 5bcd 253e 53e3 253d
00000250: 25d5 593d 4008 a23d 2f21 10bd a969 d7bc
00000260: 3ef6 9b3d 2094 083c 37ae 033e fa0f 173e
00000270: 583a 70bc c8c3 bf3d 44de f5b9 7eab 253e
00000280: 0332 76bd 1d77 7d3d 3b9d 883d 7ca6 60bc
00000290: 00c6 ca3a 88b6 b43d a0e1 53bc c03c 163e
000002a0: 3fef 3fbd ba3f 783d 6fd1 e63d 5263 3c3d
000002b0: d649 c63c 6dc5 183e 42db 82bc 2a9c fb3c
000002c0: 790c ab3c 5277 923d 4d1e f13d a1b1 c1ba
000002d0: d23d ec3d 951f 71bd 1b4c 063c 08b7 3c3d
000002e0: a29b fe3d 25c6 a43d f22a 913c ad77 463d
000002f0: 1327 333d 9580 233e 2747 593d 6e09 d1bb
00000300: 282b 393d ea70 1c3e 6cf2 a03c 3a5c 39bd
00000310: 4bb3 d63a 88e9 023e b943 973c a832 fb3d
00000320: f2bb 043d 2c6c 9c3d 5680 df3d 8a62 b73d
00000330: c438 213e 43e7 4ebd 29a5 e43d b4b4 cd3d
00000340: 6e7f 353a 144f 083d cccd 253e c841 22bc
00000350: 2e6e b13c c044 4a3d 8f51 a13d 2a08 343d
00000360: be8a cb3d 398b 013d 1b23 c93c 4dec 0c3d
00000370: 60dd 33bc 3b8a bf3d 6ffd 38bd 5657 e03d
00000380: 97c9 1d3e d4d9 b9bc cb43 023e ed09 85bd
00000390: 3d06 943d b308 393b f7a2 a63d c06c 8d3c
000003a0: dde2 763d 45eb 333d 7c15 653d f418 183e
000003b0: 2450 cb3d ea79 0d3e f52f 6a3d 9bdb d5bc
000003c0: 18f2 173e bbfd 213d aa62 a4b9 8321 4f3d
000003d0: 4331 523d fd38 9fbd 197f c4bb bd7b a83d
000003e0: fe0b 863c b2c8 a93d 003d 4ebc ef63 00bd
000003f0: 7781 8e3d 51db ce3c 34fd 963d 2565 90bd
0.03576651 -0.06875144 0.170223 0.08633683 0.12383541 0.11887356 0.13702935 -0.05781141
-0.0016272536 -0.041558284 0.11071837 0.045237213 0.09802305 0.024281185 0.10278165 0.17477767
0.10959061 0.08368309 0.10170991 0.07307326 0.07881305 0.16044647 -0.036777053 -0.019425755
0.021765098 -0.06404421 0.14383051 0.15557228 0.04702015 0.09451738 0.01761992 0.12904736
0.08903253 0.019807767 0.098440126 -0.040061574 -0.064701125 0.062395956 -0.081227034 0.1421964
0.04241959 -0.05021585 -0.017643739 0.09437649 -0.00023204932 0.0604021 -0.057559274 0.04665287
-0.06665683 0.024157852 0.09798081 0.011305481 0.10969574 -0.08459467 0.07504812 0.020559084
0.10042152 -0.053551413 -0.057852175 0.094026655 0.037804686 0.14976121 0.14985022 0.009222208
0.14529271 0.06538911 0.017820776 -0.011461638 0.17455515 0.021004846 -0.012177286 0.019681798
0.15883079 0.13569736 0.13102274 0.03520566 0.098045 -0.06109736 0.16796568 0.13343984
-0.04689652 0.088683166 0.059706356 -0.010517918 0.059190314 0.11125475 0.07829486 0.048336037
0.15186004 0.12279869 0.05214243 0.04838442 0.015135544 -0.0017525445 0.016869798 0.0629665
0.015039948 -0.01963145 0.1378197 0.08208777 0.06422156 0.10312868 0.0154737905 0.03735467
0.1287777 0.0113820005 0.1412905 0.07270518 -0.007485051 0.07420754 -0.025497574 -0.03176924
0.010336341 -0.03803275 0.033712674 0.10984526 0.01998048 -0.06712595 0.005403393 -0.034756437
0.13243324 0.02472782 -0.07678381 -0.046946067 0.0009348197 0.037839238 0.13517667 0.07305179
0.06034335 -0.031922556 0.12636326 0.05497052 0.09941405 0.1408692 0.13708577 -0.03866767
0.13416168 0.0075031416 -0.007790302 -0.074261956 0.08452806 0.07538848 -0.010340141 0.06898367
-0.010631985 0.15609284 0.16191618 0.040499996 0.053181786 0.0791173 -0.035187896 -0.0262955
0.07615326 0.008336097 0.12859426 0.14752188 -0.014662348 0.09363514 -0.00046895642 0.161787
-0.06010629 0.061881173 0.06670614 -0.013711568 0.0015470386 0.088238776 -0.012932211 0.14671612
-0.046859022 0.06060765 0.11270415 0.045993157 0.02420513 0.14919062 -0.01597369 0.030714113
0.02087997 0.07151665 0.117733575 -0.0014777669 0.11535229 -0.05886801 0.008196856 0.04607299
0.12432028 0.080456056 0.017720673 0.048453975 0.043738436 0.15967019 0.05304637 -0.006379298
0.045207173 0.15277448 0.019646846 -0.04525397 0.0016380338 0.12784398 0.01846491 0.12265521
0.0324058 0.0763782 0.1091315 0.08954342 0.1574431 -0.050513517 0.11164314 0.10044232
0.00069235906 0.03327854 0.16191787 -0.009903379 0.021658983 0.04938197 0.07876884 0.0439531
0.09938572 0.031626914 0.024552872 0.03440504 -0.010978073 0.09352537 -0.045163568 0.10954158
0.15408932 -0.022686876 0.12721173 -0.06496034 0.07227752 0.0028233945 0.08136552 0.01726377
0.060274947 0.043925542 0.055928692 0.14853269 0.09927395 0.13816038 0.05717464 -0.026105693
0.14838445 0.039548617 -0.00031354028 0.05056907 0.05131651 -0.077745415 -0.0059965965 0.08226726
0.01636314 0.08290233 -0.012587786 -0.031345304 0.06958287 0.025251063 0.073725134 -0.07050542

decoder.mlp.2.bias f4 [64]
00000000: f827 0b3e b4c6 c03d 5bf5 f53d d992 92bd
00000010: 87ea 95bd c4f9 0b3e 60ce 8c3c 1dfe ff3d
00000020: b10a 613d 4b54 2e3d 83c9 aebc 986e b6bd
00000030: 57ee 043d 4bb7 023e 6f73 c0bc 6edd e03d
00000040: 18f6 d2bc 8e20 b93d 4dfa 023e f73a 1ebd
00000050: 2dc4 2c3e 4f44 a03c b14e 2a3d ffbd 07bd
00000060: 0059 943d a9de 193d 4d21 aabc 11c9 433d
00000070: a2fb 4abd 4488 543d 0278 9ebc a633 e1bc
00000080: 46c6 103e e99d dd3d d260 183e b9dc 82bd
00000090: 7ef1 fe3d 9b65 cebc fcb4 0bbd 3357 f73d
000000a0: b706 7ebd 10a7 863d 4f66 99bd c690 5dbd
000000b0: e535 f73d 5b56 963d 641a 0dbd f9c1 e13c
000000c0: 298b c63d f58b 823d abaa 04bd 75ba 4cbd
000000d0: 9b9c bb3b f7b6 d63d 6cc4 073e a028 b7bb
000000e0: 265e df3d 7937 9ebd c783 8a3d e0b0 073d
000000f0: a785 f93d e898 1dbd dfa9 4cbd ff6c 11bd
0.13589466 0.094128996 0.120096885 -0.07156915 -0.07320123 0.13669497 0.017188251 0.1249964
0.054941837 0.042560857 -0.021336323 -0.08907813 0.03245386 0.12765233 -0.023492543 0.10979734
-0.025752112 0.090394124 0.12790795 -0.038630452 0.1687171 0.019563822 0.041578952 -0.03314018
0.07243538 0.03756586 -0.020767832 0.047799174 -0.049556382 0.051887766 -0.019344334 -0.027490448
0.14138135 0.108211346 0.14880684 -0.06389756 0.12448405 -0.025194934 -0.034108147 0.12077179
-0.062018123 0.065748334 -0.07490217 -0.054093145 0.120708264 0.0734069 -0.034448996 0.027558314
0.096945114 0.06374351 -0.032389324 -0.049982507 0.005725456 0.104841165 0.13258523 -0.0055895597
0.10906629 -0.07725424 0.06763416 0.033127666 0.12183695 -0.0384759 -0.04996669 -0.035504337
