prgnn1.pth (torch, 109858 bytes, 12 tensors)

encoder.conv1.lin_l.weight f4 [64, 7]
0	0xbeab630e	-0.3347401
1	0xbe56baf0	-0.20969748
2	0x3e809f6f	0.25121638
3	0x3e2c5e72	0.16832903
4	0xbe1748a0	-0.14773798
5	0xbea85a7d	-0.32881537
6	0xbe6bcb22	-0.23026708
7	0xbebeb012	-0.37243706
8	0x3b98d9b4	0.004664624
9	0xbe0d4766	-0.13796768
10	0x3dd0c590	0.10193932
11	0x3e94030d	0.28908578
12	0xbd9e0b57	-0.07717007
13	0xbe80db18	-0.25167155
14	0x3e3370f4	0.17523557
15	0xbe9cd120	-0.306283
16	0x3ef08bdd	0.46981707
17	0xbd6b6bb8	-0.057475775
18	0x3e78451a	0.2424511
19	0xbe79e1f5	-0.24402602
20	0xbdc6291c	-0.0967581
21	0x3db1bde2	0.086787954
22	0xbe9a6942	-0.3015843
23	0xbe5657b6	-0.20931897
24	0x3d8d34a8	0.06894809
25	0xbcb84b40	-0.02249682
26	0x3e807085	0.25085846
27	0x3db8beb8	0.09020752
28	0xbe9876ca	-0.2977813
29	0x3acc9100	0.0015607178
30	0xbdca49a0	-0.09877324
31	0x3e182502	0.14857867
32	0x3e635d4e	0.22203562
33	0xbe5b0502	-0.21388629
34	0x3e5ae2a2	0.21375516
35	0xbe11471f	-0.14187287
36	0x3c134e10	0.0089907795
37	0x3da40e52	0.08010544
38	0x3dc8a980	0.097979546
39	0xbd391370	-0.045184553
40	0xbc638593	-0.013886827
41	0x3e684292	0.22681645
42	0xbe983364	-0.29726708
43	0x3d628488	0.055302173
44	0x3e08219e	0.13294074
45	0xbd4b6428	-0.049656063
46	0x3df959b0	0.1217531
47	0x3cd945c0	0.026522517
48	0xbda911c8	-0.08255345
49	0xbe9a6917	-0.30158302
50	0x3e322cce	0.17399904
51	0x3eafbc79	0.3432348
52	0x3e83ed2d	0.25766888
53	0x3e11a9b2	0.1422489
54	0xbd80f2cf	-0.06296312
55	0xbe0f4667	-0.139917
56	0xbdc8c8a4	-0.09803894
57	0xbe4ed379	-0.20197858
58	0x3e0970ca	0.13421932
59	0xbebe2081	-0.37134174
60	0xbe62ca24	-0.22147423
61	0x3dd4c0f8	0.10388368
62	0x3e4b907a	0.19879332
63	0xbed41eda	-0.41429788
64	0xbec609e7	-0.3867943
65	0xbe0bc661	-0.13649894
66	0xbe80722a	-0.250871
67	0x3e93e83f	0.28888127
68	0x3d9135e2	0.070903555
69	0x3e7b256a	0.24525991
70	0x3e9d55e1	0.30729583
71	0xbe0d68a6	-0.13809451
72	0x3e51f302	0.20502856
73	0xbd984cd4	-0.07436529
74	0x3e1cf8ee	0.15329334
75	0xbeb4ec79	-0.35336664
76	0x3dcbbf74	0.09948626
77	0xbed11646	-0.40837306
78	0xbe687c13	-0.2270358
79	0x3d6905fc	0.056890473
80	0xbe21cf9b	-0.15801851
81	0xbe583dbd	-0.21117301
82	0xbd7395da	-0.05946908
83	0x3ebd523f	0.3697681
84	0xbe8d0644	-0.27543843
85	0xbe1de702	-0.15420154
86	0x3f073ee3	0.5283033
87	0xbe040e7d	-0.12896152
88	0xbeb7af40	-0.35875893
89	0x3eba11ad	0.3634161
90	0xbdc7de00	-0.0975914
91	0xbc2fb740	-0.010724843
92	0xbe910966	-0.28327483
93	0xbe82ac18	-0.25521922
94	0x3ebc48d3	0.3677431
95	0x3d471f40	0.048613787
96	0xbe62fe17	-0.2216724
97	0x3eb4b2af	0.35292575
98	0x3e479306	0.19489679
99	0x3c2c5751	0.010518865
100	0x3eae7f46	0.34081477
101	0xbdf904ec	-0.12159142
102	0xbd96a9b0	-0.07356584
103	0xbe3f1c29	-0.18663086
104	0x3ea34a0b	0.31892428
105	0xbe2e632f	-0.17030023
106	0x3df6dd31	0.12053908
107	0x3ee6f0d1	0.45105603
108	0xbd590258	-0.05298075
109	0xbe244b7f	-0.16044424
110	0xbd508f5d	-0.050917972
111	0xbead6c54	-0.3387171
112	0xbe63bb04	-0.2223931
113	0xbe97ff69	-0.2968705
114	0x3c625291	0.013813631
115	0x3eb54bbf	0.35409352
116	0x3cdb5790	0.026775151
117	0xbe0586f2	-0.13039759
118	0xbdcad8b4	-0.09904614
119	0xbe506fc9	-0.20355143
120	0xbe905379	-0.28188685
121	0x3d473b70	0.04864067
122	0x3dee0988	0.11622912
123	0x3e8c713b	0.27430138
124	0xbe0bd4a9	-0.13655342
125	0x3e6a605a	0.22888318
126	0xbec29756	-0.38006085
127	0xbc4912fc	-0.012272593
128	0x3ee18283	0.44044885
129	0x3d9b3d44	0.07580045
130	0xbeb6eb56	-0.35726422
131	0xbe779075	-0.241762
132	0xbe7cd6ce	-0.24691316
133	0xbf021b7b	-0.5082318
134	0x3e143a7d	0.14475437
135	0xbd92dcd5	-0.071710266
136	0xbe830ee8	-0.2559731
137	0xbdcb0fc4	-0.099151164
138	0x3e80c6f3	0.25151786
139	0x3e57e0a6	0.2108179
140	0x3db9355a	0.09043379
141	0xbe555dd6	-0.20836577
142	0x3ec26c60	0.3797331
143	0x3ea17559	0.31534842
144	0xbe210167	-0.15723191
145	0xbc81e8b2	-0.015858028
146	0xbde24760	-0.1104877
147	0x3d977ed0	0.073972344
148	0x3da7f1a0	0.08200383
149	0x3d4340a8	0.047669083
150	0xbe1f9931	-0.15585782
151	0xbea0a7a2	-0.31377894
152	0xbe281d9f	-0.1641755
153	0xbeb86c67	-0.36020204
154	0xbe7598d4	-0.2398408
155	0xbd996a5e	-0.07490991
156	0x3dc95893	0.09831347
157	0x3eb8347f	0.3597755
158	0x3e930b57	0.2871959
159	0x3eafbb38	0.34322524
160	0x3eaf56bb	0.34245858
161	0xbd23350f	-0.039845522
162	0xbec2a526	-0.38016623
163	0xbdce3d3a	-0.10070272
164	0xbe40d9bb	-0.18833058
165	0xbdbc4398	-0.0919258
166	0x3e95eecf	0.2928376
167	0x3e0f29ea	0.13980833
168	0x3c9ff01e	0.019523676
169	0x3ef797f5	0.48358122
170	0xbe4c9ade	-0.19980952
171	0x3e56420e	0.20923635
172	0xbe9746bf	-0.29546162
173	0x3eac82d0	0.33693552
174	0x3d390c00	0.04517746
175	0xbaa70a4d	-0.0012744159
176	0xbd82e16f	-0.06390654
177	0x3e8eb910	0.27875566
178	0x3e3762b2	0.17908743
179	0xbe726145	-0.23669918
180	0x3e9d0f3c	0.30675685
181	0x3e4cf036	0.20013508
182	0xbe3a74f1	-0.18208672
183	0x3ccb64c7	0.024828328
184	0x3f08ce6f	0.5343999
185	0x3cccbc10	0.024992019
186	0x3d3ddc48	0.046352655
187	0xbeaf151f	-0.34195802
188	0x3e12f1de	0.14350078
189	0xbc3caed8	-0.011516295
190	0x3d6a62d5	0.05722316
191	0x3e92bd69	0.28660133
192	0x3eab214f	0.3342385
193	0xbe16b508	-0.14717495
194	0x3de67439	0.112526365
195	0x3e91cc6d	0.28476277
196	0x3e5bc4d3	0.21461801
197	0xbea8218e	-0.328381
198	0xbda541c2	-0.08069183
199	0xbea6cb09	-0.3257678
200	0xbeb4e708	-0.35332513
201	0xbe3656c5	-0.17806537
202	0xbdb7c25c	-0.08972618
203	0x3e7cf34a	0.24702182
204	0x3e0198c2	0.12655929
205	0x3e65b2c2	0.22431472
206	0xbebbb905	-0.36664596
207	0xbe268c75	-0.16264518
208	0x3d711018	0.05885324
209	0x3e1dddee	0.1541669
210	0x3e1c1ac2	0.15244582
211	0x3e8e2aa9	0.27766922
212	0xbd104a54	-0.035227135
213	0xbe9a5528	-0.30143094
214	0xbe0d3945	-0.13791378
215	0xbe8682fc	-0.26271808
216	0x3df479dc	0.11937305
217	0x3de05ae8	0.10954839
218	0xbc45dce0	-0.0120765865
219	0x3ddd907c	0.10818574
220	0x3e4f3662	0.20235589
221	0xbe5fdfda	-0.21862736
222	0xbe3862dc	-0.18006462
223	0x3e435fe2	0.19079545
224	0x3dbc3ee8	0.09191686
225	0x3d8491be	0.064731106
226	0x3eb2b751	0.34905484
227	0xbda6bed4	-0.08141866
228	0x3de96060	0.11395335
229	0xbe45b49b	-0.19307177
230	0xbd591390	-0.052997172
231	0x3dc3c271	0.09558571
232	0x3dc8cdc9	0.098048754
233	0x3dfbcd94	0.1229507
234	0xbe47478b	-0.19460885
235	0xbebbdadc	-0.36690414
236	0xbdb3d17e	-0.08780192
237	0xbe7b42e4	-0.24537235
238	0x3e3c7771	0.18404938
239	0xbdc61522	-0.096719995
240	0x3eeb54ec	0.45963228
241	0x3de473f0	0.11154926
242	0xbdac9500	-0.08426857
243	0x3d2393b4	0.039935783
244	0x3e062e8a	0.1310369
245	0xbe755113	-0.23956709
246	0x3e2e3d1e	0.17015502
247	0xbe37e94c	-0.1796009
248	0x3e5513b2	0.20808294
249	0x3e918733	0.2842346
250	0xbe0c106a	-0.13678136
251	0x3e8ad36d	0.2711443
252	0x3d4b1a0e	0.049585395
253	0xbea9e659	-0.33183554
254	0x3eae88ac	0.34088647
255	0xbd63cad0	-0.05561334

encoder.conv1.lin_l.bias f4 [64]
0	0x3f149cdc	0.5805185
1	0x3eff4314	0.49855864
2	0x3df74705	0.12074093
3	0x3dd1f2fa	0.10251422
4	0xbeb09b17	-0.34493324
5	0xbd9c6fff	-0.07638549
6	0x3e97c8c2	0.29645354
7	0xbcee4798	-0.029086873
8	0x3e2effeb	0.17089812
9	0xbe816f9f	-0.25280473
10	0xbe19250a	-0.14955536
11	0x3e7e0256	0.24805579
12	0x3ef0fe8a	0.47069198
13	0xbd7beb8c	-0.061503932
14	0x3f201b44	0.62541604
15	0x3ee17062	0.44031054
16	0x3e74a351	0.23890425
17	0xbe98c3af	-0.29836795
18	0x3e2d4cd5	0.1692384
19	0x3efd4d48	0.49473023
20	0x3ef8da4c	0.48604047
21	0xbe96d929	-0.29462555
22	0x3ecd6554	0.4011637
23	0x3edc8d19	0.430764
24	0xbea786ed	-0.32720128
25	0x3eff1bd7	0.49825928
26	0x3ef90e34	0.4864365
27	0xbe39b14f	-0.18134044
28	0x3ef803d6	0.48440427
29	0xbec01c92	-0.37521797
30	0x3e157a04	0.14597327
31	0x3e8f1b2d	0.2795042
32	0x3ed2fb06	0.4120714
33	0xbd27a6f6	-0.04093071
34	0x3c52aecc	0.012859058
35	0xbea6cd68	-0.32578588
36	0x3e9255be	0.2858104
37	0x3ef25a83	0.4733468
38	0xbe8ddbfc	-0.27706897
39	0xbd631c1c	-0.05544673
40	0x3eb1397a	0.34614164
41	0x3f058e25	0.5217002
42	0x3f054ae3	0.52067393
43	0x3e0fd494	0.14045936
44	0xbe0e9aa1	-0.13926174
45	0x3ec3a17a	0.38209134
46	0xbea737c4	-0.32659733
47	0x3e2a4ead	0.16631575
48	0x3e41b259	0.1891569
49	0x3d844c51	0.06459869
50	0xbe1978a2	-0.14987424
51	0x3f1046ef	0.56358236
52	0x3e4afcc1	0.1982298
53	0x3e89a915	0.26886812
54	0x3e2be18a	0.16785255
55	0x3e8eebfa	0.2791441
56	0xbeb94cc5	-0.36191383
57	0x3c79df85	0.015251045
58	0xbe16ed17	-0.1473888
59	0x3ee31852	0.44354492
60	0x3eaf4c22	0.34237772
61	0xbe9f80fd	-0.31153098
62	0x3d8d7621	0.06907297
63	0x3f066b37	0.52507347

encoder.conv1.lin_r.weight f4 [64, 7]
0	0x3d98b6d5	0.074567474
1	0x3e1bfdcd	0.15233536
2	0x3eddb3bf	0.43301198
3	0x3d47e008	0.048797637
4	0xbe50629a	-0.20350114
5	0x3cf2da18	0.02964501
6	0xbe81bdb3	-0.25340042
7	0x3eb4eeeb	0.3533853
8	0x3eb34e2d	0.3502058
9	0xbe4dc845	-0.20095928
10	0xbdc56684	-0.09638694
11	0xbe821e80	-0.25413895
12	0xbdccc984	-0.099993736
13	0x3e9a0757	0.30083725
14	0x3ea2531f	0.3170404
15	0x3e6275b6	0.22115216
16	0xbd1809ca	-0.03711871
17	0xbebf4964	-0.3736068
18	0xbe318b4d	-0.17338295
19	0xbddf9c19	-0.10918445
20	0xbe3f6ae4	-0.1869312
21	0x3ec70ac3	0.38875398
22	0x3ea56ac1	0.3230801
23	0x3c135c2c	0.008994143
24	0xbe378924	-0.17923409
25	0x3e85010d	0.25977364
26	0xbe5ad9e7	-0.21372186
27	0x3e97cf79	0.29650477
28	0xbec3742d	-0.38174573
29	0x3f112aee	0.5670613
30	0x3c0b1ab0	0.0084902495
31	0xbe73da2c	-0.23813695
32	0x3e1ea906	0.15494165
33	0xbef1bb7a	-0.47213346
34	0xbd553048	-0.052047998
35	0x3e4b41f1	0.19849373
36	0x3e04dd13	0.12974958
37	0xbe1cc2f5	-0.15308745
38	0xbe8e3564	-0.2777511
39	0xbe91a7df	-0.28448388
40	0x3c875ba5	0.016523192
41	0x3ea387eb	0.31939635
42	0xbf20f737	-0.6287722
43	0xbef7c9ae	-0.48396057
44	0x3eff018f	0.49805877
45	0xbea1895d	-0.31550112
46	0xbeaffb04	-0.34371197
47	0x3ebe4503	0.37162027
48	0x3da432a4	0.080174714
49	0x3eb9c2fa	0.36281568
50	0x3de838e4	0.11338976
51	0xbecd6982	-0.4011956
52	0xbe17900f	-0.14801048
53	0xbeb085f4	-0.34477198
54	0xbc391d22	-0.01129845
55	0x3e5c225a	0.21497479
56	0xbebe97bf	-0.37225148
57	0xbe95fbe7	-0.2929375
58	0x3e983bbf	0.29733083
59	0x3a10e600	0.0005527437
60	0xbe195565	-0.14973982
61	0x3f0e2da3	0.55538386
62	0x3e410aca	0.18851772
63	0x3eb8c8e6	0.36090773
64	0x3de63b04	0.11241725
65	0x3e8fef5b	0.281123
66	0x3e2fffc6	0.17187414
67	0x3e2b80d6	0.16748366
68	0x3e3cf8f8	0.18454349
69	0x3e0c9b52	0.13731125
70	0x3ea69e29	0.32542542
71	0xbebd206c	-0.36938798
72	0x3edba0b5	0.42896047
73	0x3e0e133e	0.13874528
74	0x3eac61dd	0.33668414
75	0x3ebb97fc	0.36639392
76	0xbcca2550	-0.024675995
77	0xbe9f241b	-0.31082234
78	0x3e99d59e	0.3004579
79	0x3ddab212	0.106784955
80	0x3dbada44	0.09123662
81	0x3e4093e6	0.18806419
82	0x3e0fd94c	0.14047736
83	0x3e19b442	0.15010169
84	0x3e11b532	0.14229277
85	0x3e2a3c8a	0.16624656
86	0xbd600520	-0.054692388
87	0xbea03a90	-0.3129468
88	0xbda004a4	-0.07813385
89	0x3e9cbf3b	0.30614647
90	0xbe806e8d	-0.25084344
91	0x3ea63636	0.32463235
92	0xbec8db33	-0.39229736
93	0x3eeb620b	0.45973238
94	0xbd95e27c	-0.07318589
95	0xbc8234b0	-0.015894264
96	0xbd9f3630	-0.07774007
97	0xbebf2a82	-0.37337118
98	0xbdf1745b	-0.11789771
99	0xbe4513e8	-0.19245875
100	0x3e15a311	0.14612986
101	0xbe0c3a10	-0.13694024
102	0xbe0906c1	-0.13381483
103	0x3dfc0aac	0.12306723
104	0x3e8f5bdd	0.27999774
105	0x3ea18224	0.31544602
106	0xbe8f5a06	-0.2799837
107	0x3c8c2b39	0.017110454
108	0x3e879405	0.26480117
109	0xbe388021	-0.18017627
110	0x3e1d295c	0.15347809
111	0xbdb6eba4	-0.08931664
112	0x3d6ca865	0.05777778
113	0x3ec4c313	0.3843008
114	0xbeae9cba	-0.34103948
115	0x3d69be48	0.057066232
116	0x3dd75df4	0.10515967
117	0x3ed026e8	0.40654683
118	0xbe73e3d5	-0.2381738
119	0xbea8bdbe	-0.32957262
120	0xbe499cf1	-0.19688775
121	0x3ea779b5	0.32710043
122	0x3e578e3a	0.21050349
123	0xbe65400e	-0.22387716
124	0x3e75e7f9	0.24014272
125	0x3ea9502b	0.33068976
126	0x3e98023f	0.29689214
127	0x3ed59aea	0.41719753
128	0xbe20e3ea	-0.15711942
129	0xbe6f7e87	-0.2338811
130	0xbdd2fae8	-0.10301763
131	0xbdae3db2	-0.08507861
132	0xbe2b1d66	-0.16710433
133	0x3e0a19cf	0.13486408
134	0x3db96dfc	0.09054181
135	0x3b142aa2	0.002260842
136	0x3db81ca4	0.08989838
137	0x3d6d98c0	0.058007002
138	0xbdd1df9a	-0.10247727
139	0xbd616b40	-0.055033922
140	0x3c67cdcd	0.014148188
141	0xbdfbea02	-0.12300493
142	0xbca77ca1	-0.02044517
143	0x3ebc574d	0.36785355
144	0xbe5e196e	-0.21689388
145	0x3ea3abcd	0.3196701
146	0xbe1b5298	-0.15168226
147	0xbe06fbd7	-0.13182007
148	0xbe6d7f47	-0.23193084
149	0xbe5d5fe9	-0.21618618
150	0x3ebc2abd	0.36751357
151	0x3c479940	0.012182534
152	0xbe167917	-0.1469463
153	0x3d813c94	0.063103825
154	0xbbb4ce07	-0.0055177244
155	0x3e00382b	0.12521426
156	0x3ec34e47	0.38145658
157	0xbcd96880	-0.026539087
158	0x3e6b5f6e	0.22985622
159	0x3f1f8c88	0.6232381
160	0xbea585c0	-0.32328606
161	0xbe3fba75	-0.18723471
162	0xbd42a640	-0.04752183
163	0xbe317439	-0.17329492
164	0x3c9c03e0	0.019044816
165	0xbcef5b70	-0.029218405
166	0x3ed6d254	0.41957343
167	0x3dcce0b8	0.10003799
168	0xbdcdbd96	-0.10045926
169	0xbba3b617	-0.004996072
170	0xbeb57881	-0.354435
171	0xbdceb270	-0.10092628
172	0x3e82784d	0.25482407
173	0xbe0a71eb	-0.13520019
174	0xbc85c500	-0.016329288
175	0xbdece681	-0.11567403
176	0x3e96f0a1	0.2948046
177	0xbd94af4d	-0.072599985
178	0xbe922e3c	-0.285509
179	0x3e29c29e	0.16578147
180	0x3f0c263e	0.5474585
181	0xbdcac7f0	-0.09901416
182	0x3dd5fe88	0.104489386
183	0x3e90bd04	0.28269207
184	0xbcb43193	-0.021996295
185	0x3c8004d0	0.015627295
186	0x3e9ab8f1	0.30219224
187	0xbc899a00	-0.016797066
188	0x3eba60c7	0.3640196
189	0x3e1661d6	0.14685759
190	0xbe098b61	-0.13432075
191	0xbe830754	-0.25591528
192	0x3dc2cf04	0.09512141
193	0xbe10ab5b	-0.14127867
194	0xbe2bb92a	-0.16769853
195	0xbe3ddf4b	-0.18542211
196	0x3ebbc1da	0.36671335
197	0xbd10d74a	-0.035361566
198	0x3e53c4af	0.20680498
199	0x3eac50c9	0.33655384
200	0x3d8e6b00	0.069540024
201	0x3f13c839	0.5772739
202	0x3db14d6c	0.08657345
203	0xbe2828d3	-0.16421823
204	0xbea52c6a	-0.32260448
205	0x3edfbaab	0.43697104
206	0x3e926b61	0.2859755
207	0x3e2b0aba	0.1670331
208	0xbe0a751e	-0.13521239
209	0x3e17544a	0.14778247
210	0x3e25b03e	0.16180512
211	0xbe8ead27	-0.2786648
212	0xbe2734b8	-0.16328704
213	0x3e7a1dce	0.24425432
214	0xbd227128	-0.039658695
215	0xbdd7cee0	-0.10537505
216	0xbddda4b0	-0.10822427
217	0xbd5a520c	-0.053300902
218	0xbeb1b356	-0.34707135
219	0xbe1955e1	-0.14974166
220	0xbce53cf0	-0.027983159
221	0xbe8cacd8	-0.2747562
222	0x3e5963ba	0.21229449
223	0xbe63cbe7	-0.22245751
224	0x3e46b593	0.19405203
225	0x3d0cd864	0.034386054
226	0x3d31757b	0.04332493
227	0x3df13d8c	0.11779317
228	0x3e7e31d6	0.24823698
229	0x3ea2c5c9	0.31791523
230	0x3e4d9af6	0.20078644
231	0x3de25802	0.110519424
232	0x3e9644c5	0.29349342
233	0xbe668bb3	-0.22514229
234	0x3e9e48f5	0.30915037
235	0x3d86ef10	0.06588566
236	0x3f1389ac	0.57631946
237	0xbde11e9c	-0.109921664
238	0x3c6afb7b	0.014342184
239	0x3e48ee41	0.19622137
240	0x3efceddc	0.49400222
241	0x3eb0a5dd	0.34501544
242	0x3ea0680f	0.3132939
243	0x3ce9abd9	0.028524326
244	0x3e4ea5c6	0.20180425
245	0xbeae6e80	-0.3406868
246	0xbe29a4f8	-0.16566837
247	0xbee5d96d	-0.44892445
248	0x3ebdb573	0.37052497
249	0x3da79b2c	0.081838936
250	0xbd688468	-0.056766897
251	0x3ea1ba25	0.3158733
252	0xbe4592d7	-0.19294296
253	0x3e612dc6	0.21990117
254	0xbda31df2	-0.07964696
255	0xbdfa8514	-0.12232414

encoder.conv2.lin_l.weight f4 [64, 64]
0	0xbe763cf7	-0.24046694
1	0xbe0542ba	-0.13013735
2	0xbe3b9532	-0.18318632
3	0xbe30e219	-0.1727375
4	0xbe2431d5	-0.16034634
5	0xbe23e7b9	-0.16006364
6	0xbe3fa7a5	-0.18716295
7	0xbe0fd2c9	-0.14045252
8	0xbe91722e	-0.28407425
9	0xbe4d99ef	-0.20078252
10	0xbe2d70cc	-0.1693756
11	0xbe3cb607	-0.18428813
12	0xbe928055	-0.28613535
13	0xbdf07218	-0.11740512
14	0xbdd00113	-0.10156455
15	0xbe92b11a	-0.28650743
16	0xbe054371	-0.13014008
17	0xbe3cdbc2	-0.18443206
18	0xbe37b4c7	-0.17940055
19	0xbe992365	-0.29909816
20	0xbddedba0	-0.10881734
21	0xbe2279b4	-0.15866739
22	0xbe3df110	-0.1854899
23	0xbda5d41b	-0.080970965
24	0xbe915bea	-0.28390437
25	0xbe22f786	-0.15914735
26	0xbe156ea2	-0.14592984
27	0xbe974faa	-0.29552966
28	0xbe866fb4	-0.26257098
29	0xbe7736fb	-0.24142067
30	0xbe0ada8c	-0.13559932
31	0xbe651ec1	-0.22375013
32	0xbe985d01	-0.29758456
33	0xbe4c01d5	-0.19922574
34	0xbe6b0a5f	-0.22953175
35	0xbe797b11	-0.24363352
36	0xbe432f29	-0.19060959
37	0xbe42d646	-0.19027051
38	0xbe83e35b	-0.25759396
39	0xbe1f2a84	-0.15543562
40	0xbdcaee39	-0.099087186
41	0xbe8ed060	-0.27893353
42	0xbe59a763	-0.21255259
43	0xbe2ad606	-0.16683206
44	0xbdab51e0	-0.08365226
45	0xbe33a0b3	-0.1754177
46	0xbd945f71	-0.072447665
47	0xbe8c03c6	-0.2734663
48	0xbe11f6b7	-0.1425427
49	0xbe6fa185	-0.23401459
50	0xbe1624ec	-0.14662522
51	0xbe927ffd	-0.28613272
52	0xbe1b02ee	-0.15137836
53	0xbdcfff77	-0.10156148
54	0xbe7d9ff1	-0.24768044
55	0xbdfc4e99	-0.12319679
56	0x3d44ce04	0.048048034
57	0xbe3498a5	-0.17636354
58	0xbe69c170	-0.22827697
59	0xbe20feb4	-0.15722162
60	0xbe8eb284	-0.27870572
61	0xbd7191d6	-0.05897697
62	0xbe1e7ea2	-0.15477994
63	0xbe0d160d	-0.13777943
64	0xbe251638	-0.16121757
65	0xbda75720	-0.08170915
66	0xbe7b4a00	-0.24539948
67	0xbe83d54e	-0.25748676
68	0xbe72a44a	-0.23695484
69	0xbe85f59a	-0.26163942
70	0xbe420926	-0.18948802
71	0xbdf34d9c	-0.11880037
72	0xbe79385c	-0.24337906
73	0xbe4ffd6b	-0.20311515
74	0xbe06c145	-0.13159664
75	0xbe108e0c	-0.14116687
76	0xbe4ff1de	-0.20307109
77	0xbd97ad97	-0.074061565
78	0xbde43c8f	-0.11144363
79	0xbe224035	-0.15844806
80	0xbdf14520	-0.11780763
81	0xbe980aaa	-0.29695636
82	0xbe116721	-0.14199497
83	0xbe8f6fea	-0.2801507
84	0xbe8d9cc9	-0.2765868
85	0xbe3091be	-0.17243096
86	0xbe0ec4dc	-0.13942283
87	0xbdab37f0	-0.083602786
88	0xbe8116a6	-0.25212592
89	0xbe9c0db5	-0.30479208
90	0xbe346323	-0.17615943
91	0xbe96c683	-0.29448327
92	0xbe84ee7d	-0.25963202
93	0xbd90b44e	-0.070656404
94	0xbe135227	-0.14386807
95	0xbe0e159a	-0.13875428
96	0xbe4f6c7e	-0.2025623
97	0xbe2be0ab	-0.16784923
98	0xbe4eafca	-0.20184246
99	0xbe3f7b1f	-0.1869931
100	0xbdd9b6f4	-0.10630599
101	0xbdb8eb72	-0.09029283
102	0xbe2197a9	-0.1578051
103	0xbdf3208c	-0.11871442
104	0xbe2ba4f2	-0.1676214
105	0xbe2593da	-0.16169682
106	0xbe920d69	-0.28525856
107	0xbdcfbe70	-0.10143745
108	0xbe468c90	-0.19389558
109	0xbe9824be	-0.29715532
110	0xbd927a77	-0.071522646
111	0xbdebc4af	-0.11512124
112	0xbe99eac6	-0.3006193
113	0xbe3f6ffc	-0.18695062
114	0xbdffd3d6	-0.124915764
115	0xbe7c547e	-0.24641606
116	0xbe876669	-0.2644532
117	0xbe00d316	-0.12580523
118	0xbdc08756	-0.09400813
119	0xbe407fe6	-0.1879879
120	0x3d979e59	0.07403249
121	0xbe9599b5	-0.29218832
122	0xbde69a5a	-0.11259909
123	0xbe5025c9	-0.20326914
124	0xbdaa5ddd	-0.08318684
125	0xbe8c5513	-0.27408656
126	0xbdd0c1f3	-0.10193243
127	0xbe161d4d	-0.14659615
128	0xbe822476	-0.25418442
129	0xbe8f1659	-0.27946737
130	0xbe82c07c	-0.2553748
131	0xbe48a2aa	-0.19593301
132	0xbdc2a1da	-0.09503527
133	0xbe977da3	-0.2958804
134	0xbe7b4055	-0.2453626
135	0xbd820c3a	-0.06349988
136	0xbe0ff33f	-0.14057635
137	0xbe697392	-0.22797993
138	0xbe335207	-0.1751176
139	0xbe18b400	-0.14912415
140	0xbe6be672	-0.23037127
141	0xbe85e823	-0.2615367
142	0xbe690f6c	-0.22759789
143	0xbdbf950e	-0.09354602
144	0xbdb83037	-0.08993571
145	0xbe8268e5	-0.25470653
146	0xbe90df8c	-0.28295553
147	0xbe225814	-0.15853912
148	0xbe8ac318	-0.2710197
149	0xbe52bf9a	-0.20580903
150	0xbddd4356	-0.10803859
151	0xbda0f31b	-0.07858869
152	0xbe5048fa	-0.20340338
153	0xbdeaa823	-0.11457851
154	0xbe26a083	-0.16272168
155	0xbe2061e3	-0.15662341
156	0xbdad15f0	-0.0845145
157	0xbea0d14e	-0.31409687
158	0xbe2408f5	-0.16019042
159	0xbdb330f9	-0.08749575
160	0xbe15a82a	-0.14614931
161	0xbdf76946	-0.12080626
162	0xbe87b513	-0.26505336
163	0xbe64b3a0	-0.22334146
164	0xbe5f46be	-0.2180433
165	0xbd9fbb8b	-0.07799443
166	0xbe786ec7	-0.24261008
167	0xbdf52b0e	-0.11971103
168	0xbe0d1035	-0.13775714
169	0xbe429ee0	-0.19005919
170	0xbde23bb8	-0.11046547
171	0xbe12af37	-0.14324652
172	0xbe912ee5	-0.2835609
173	0xbe510c9f	-0.20414971
174	0xbe41642a	-0.18885866
175	0xbe161cb4	-0.14659387
176	0xbe0f7cf9	-0.14012517
177	0xbe85484b	-0.26031718
178	0xbdb7bbdd	-0.08971379
179	0xbe62d794	-0.22152549
180	0xbddb3614	-0.10703674
181	0xbe20e66c	-0.15712899
182	0xbdb9e567	-0.09076958
183	0xbe0021ae	-0.12512848
184	0xbdddd189	-0.10830981
185	0xbdce6f37	-0.10079806
186	0xbdd02647	-0.10163551
187	0xbe31e4e7	-0.17372476
188	0xbe50fc78	-0.20408809
189	0xbe24d48c	-0.16096705
190	0xbe8127a1	-0.25225547
191	0xbd9c8de2	-0.076442495
192	0xbe19cefc	-0.15020365
193	0xbe948645	-0.2900869
194	0xbe3a9394	-0.18220359
195	0xbe40e9a7	-0.18839131
196	0xbe2305e1	-0.15920211
197	0xbe896974	-0.26838267
198	0xbda4f624	-0.0805476
199	0xbe3c5d84	-0.18395048
200	0xbe4967b2	-0.19668463
201	0xbdcbc74f	-0.099501245
202	0xbdaf1cea	-0.08550437
203	0xbe9d0300	-0.3066635
204	0xbe033db2	-0.12816504
205	0xbdc92454	-0.09821382
206	0xbe8d8db0	-0.2764716
207	0xbe1a4acb	-0.15067594
208	0xbe0da035	-0.13830645
209	0xbe8dc151	-0.2768655
210	0xbe6bc653	-0.23024873
211	0xbe3356cc	-0.17513579
212	0xbe6f5ff9	-0.23376454
213	0xbe0bb112	-0.13641766
214	0xbe9d34d3	-0.30704364
215	0xbd94670a	-0.07246216
216	0xbe1458b8	-0.14486969
217	0xbd9a7232	-0.07541312
218	0xbe484d99	-0.19560851
219	0xbd6a879d	-0.057258237
220	0xbe899f45	-0.26879326
221	0xbdcf8673	-0.10133066
222	0xbe852d08	-0.2601092
223	0xbe2eb998	-0.17062986
224	0xbe52f3fd	-0.20600887
225	0xbe65c553	-0.22438554
226	0xbdfc72ff	-0.12326621
227	0xbe971c98	-0.29514003
228	0xbdc3900e	-0.095489606
229	0xbe0930a8	-0.13397467
230	0xbe02abb2	-0.12760809
231	0xbe678b13	-0.22611646
232	0xbe2c625f	-0.168344
233	0xbe49f9ab	-0.19724147
234	0xbe173261	-0.14765312
235	0xbe39e8e5	-0.18155248
236	0xbe84d2de	-0.2594213
237	0xbe900691	-0.2813001
238	0xbe8f90b2	-0.2804008
239	0xbe9029cd	-0.2815689
240	0xbe2f4654	-0.17116672
241	0xbd9ae523	-0.075632356
242	0xbe0e629d	-0.13904805
243	0xbe80c4fd	-0.2515029
244	0xbe953e96	-0.29149312
245	0xbd60fd97	-0.054929342
246	0xbe4fa127	-0.20276318
247	0xbe96b195	-0.2943236
248	0x3d30e3be	0.043185942
249	0xbe00070f	-0.12502693
250	0xbd9f2baf	-0.07772004
251	0xbe90f058	-0.28308368
252	0xbe8b7ddc	-0.2724446
253	0xbe7f884a	-0.24954334
254	0xbe6670ba	-0.2250394
255	0xbdb14915	-0.086565174

encoder.conv2.lin_l.bias f4 [64]
0	0x3e9cff4f	0.30663535
1	0x3e2f38d6	0.17111525
2	0x3e790bf7	0.2432097
3	0x3e667fb2	0.2250965
4	0x3e923e61	0.28563216
5	0x3e68a763	0.22720103
6	0xbd48c0c1	-0.04901195
7	0x3df4bc75	0.11950008
8	0xbda4b00e	-0.08041392
9	0xbe7a2672	-0.24428728
10	0x3e74e4a3	0.23915343
11	0xbdc1d0a6	-0.09463625
12	0xbe6cfd32	-0.23143461
13	0xbdcf552e	-0.101236686
14	0x3d73f03f	0.05955529
15	0x3e3e508b	0.18585412
16	0xbd05d9c8	-0.032678396
17	0xbdb3a900	-0.087724686
18	0xbdd7904f	-0.105255716
19	0xbe65005c	-0.22363418
20	0xbde08498	-0.1096279
21	0x3e451b0b	0.19248597
22	0x3e8fd601	0.2809296
23	0x3e810409	0.2519839
24	0xbdaf046c	-0.08545765
25	0x3e5185e8	0.20461237
26	0x3ead42f5	0.33840147
27	0x3e91e904	0.2849809
28	0x3e26affb	0.16278069
29	0x3e02b7c4	0.12765414
30	0xbccaaee4	-0.024741597
31	0x3e00a58c	0.12563151
32	0x3e762c35	0.24040301
33	0x3e721a9c	0.23642963
34	0x3dc7cce1	0.097558744
35	0x3e3639fc	0.17795557
36	0x3d75ee3d	0.060041655
37	0xbe5f6794	-0.21816856
38	0x3eacb310	0.33730364
39	0x3e812074	0.25220072
40	0x3bdcdd4e	0.0067402488
41	0x3e8729a3	0.26398954
42	0xbd1715eb	-0.036886137
43	0x3d01dc83	0.031704437
44	0x3e032684	0.12807661
45	0x3e92583e	0.28582948
46	0x3e378ba4	0.17924362
47	0xbe634093	-0.22192602
48	0x3e9fa034	0.31176913
49	0xbe27d3f8	-0.16389453
50	0x3eadce44	0.3394643
51	0xbdbd9bf2	-0.0925826
52	0x3ea04bec	0.31307924
53	0x3e961698	0.29314113
54	0x3de5d5af	0.112223975
55	0x3e9370d0	0.28797007
56	0xbd50a974	-0.050942853
57	0x3e836ce8	0.25669026
58	0x3e4001dc	0.1875071
59	0x3e836b26	0.25667685
60	0x3e315712	0.17318371
61	0x3e932e71	0.2874637
62	0xbe06d703	-0.13167958
63	0x3ea3b8b7	0.31976864

encoder.conv2.lin_r.weight f4 [64, 64]
0	0x3e661973	0.22470646
1	0x3d85c961	0.065325506
2	0xbc79afc5	-0.015239661
3	0x3df6e139	0.120546766
4	0xbe6e1ac9	-0.23252405
5	0x3d397ffe	0.04528808
6	0x3f0461bb	0.51711625
7	0x3e2ace5f	0.16680287
8	0xbd8ed9ac	-0.06975111
9	0x3d62b8f1	0.055352155
10	0x3e3fd26e	0.18732616
11	0x3e8d234b	0.2756599
12	0x3e777aec	0.24167985
13	0xbc2cf2b0	-0.010555908
14	0x3e988f96	0.29797047
15	0x3e52398c	0.20529765
16	0x3e3f6962	0.18692544
17	0xbefd1aca	-0.494345
18	0x3e467bde	0.19383189
19	0x3e5ee96f	0.21768735
20	0x3e33c9cd	0.1755745
21	0xbe4e01d4	-0.20117885
22	0x3ea30e2c	0.3184675
23	0x3d9a71f2	0.075412646
24	0x3dba5f54	0.09100214
25	0x3e04290e	0.12906286
26	0x3df9e47c	0.12201783
27	0x3d31da8b	0.04342131
28	0x3e10b4a3	0.14131407
29	0x3d861ca8	0.065484345
30	0x3e1dfbaf	0.15428041
31	0x3dd9c142	0.10632564
32	0x3e369653	0.17830782
33	0xbeac6277	-0.33668873
34	0x3d0ed5d1	0.03487188
35	0xbdaec2cd	-0.08533249
36	0x3e84ee79	0.2596319
37	0x3e492675	0.19643576
38	0xbca2fdcf	-0.019896416
39	0x3e4aee17	0.19817387
40	0x3e14b5ec	0.14522523
41	0x3dadd3dd	0.08487675
42	0x3e1d207f	0.15344428
43	0x3dba06b0	0.09083307
44	0xbe2ef683	-0.17086224
45	0x3df5ca93	0.120015286
46	0xbebab7a2	-0.36468226
47	0x3dd7e4e6	0.10541706
48	0x3d27540c	0.040851638
49	0xbe8b3ee2	-0.27196413
50	0xbe3eab5d	-0.18620057
51	0x3e5a6b46	0.21329984
52	0xbcd9d63f	-0.026591418
53	0x3e412692	0.1886237
54	0x3d67d338	0.05659792
55	0x3dea1152	0.11429085
56	0xbb5294aa	-0.0032132068
57	0x3df8ecb1	0.1215452
58	0x3e154538	0.14577186
59	0x3e24f3d8	0.16108644
60	0x3e6ba1e0	0.23010969
61	0x3e1eedbd	0.15520377
62	0x3e5d5960	0.21616125
63	0x3dffede4	0.12496546
64	0x3e6c6a9f	0.23087548
65	0xbc6b84e5	-0.014374946
66	0x3e467bc8	0.19383156
67	0x3e3bda65	0.1834503
68	0xbe98a2da	-0.29811746
69	0x3de8a5e4	0.11359766
70	0x3ee4ad4e	0.4466347
71	0xbd031f1d	-0.032012094
72	0xbe1117b1	-0.14169194
73	0x3dafb03e	0.085785374
74	0x3e12c863	0.14334254
75	0x3e9b75f8	0.3036344
76	0x3e79e783	0.24404721
77	0xba3b84b2	-0.0007153257
78	0x3e7d8b3a	0.24760142
79	0x3da18b6d	0.078879215
80	0xbbe85fbf	-0.007091492
81	0xbed3d69a	-0.41374665
82	0xbc28d2ea	-0.010304192
83	0x3de46526	0.11152105
84	0x3e0ec5d6	0.13942656
85	0xbe16f3ae	-0.14741394
86	0x3e920ec0	0.28526878
87	0x3dd86d9e	0.10567783
88	0x3dc9329d	0.09824107
89	0x3da1ae9e	0.07894634
90	0x3e4db672	0.20089129
91	0x3dcad505	0.099039115
92	0x3e13743a	0.14399806
93	0xbbfb0c54	-0.0076613817
94	0x3e3240ee	0.17407581
95	0x3e6d9f77	0.23205362
96	0x3e585cf9	0.21129216
97	0xbdf170b7	-0.11789077
98	0x3e104fda	0.14092961
99	0xbe07c396	-0.13258204
100	0x3d33071c	0.043707952
101	0x3e05a034	0.13049394
102	0x3e00e059	0.12585582
103	0x3e115f91	0.14196612
104	0x3e24bf9b	0.16088717
105	0x3dfb39b1	0.12266863
106	0x3da47b47	0.08031326
107	0x3dbea4ed	0.09308801
108	0xbe9c1193	-0.30482158
109	0x3e1c0934	0.15237886
110	0xbee2a01e	-0.44262785
111	0x3e7e9730	0.24862361
112	0x3e3c3a10	0.18381524
113	0xbe7a7a4f	-0.2446072
114	0xbe5cc299	-0.21558608
115	0x3e23a485	0.15980728
116	0xbbab84ed	-0.005234352
117	0x3e5a02f6	0.21290192
118	0x3d65128f	0.055925902
119	0x3e8f6054	0.2800318
120	0xbd087996	-0.03331908
121	0x3e238449	0.15968432
122	0x3e317194	0.17328483
123	0x3d5f6bf0	0.054546297
124	0x3d3d6a3d	0.046243895
125	0xbc8d1bc3	-0.017225152
126	0x3dc7316d	0.09726224
127	0x3b632270	0.0034657978
128	0x3e2796d5	0.16366132
129	0x3cbe64dc	0.023241453
130	0x3d102505	0.035191555
131	0x3dd9454d	0.10608921
132	0xbe928ec1	-0.28624538
133	0x3bb79ed8	0.0056036524
134	0x3e8daea4	0.27672303
135	0xbcd0492a	-0.025425512
136	0xbdc24975	-0.09486667
137	0xbc080fa6	-0.008304512
138	0x3dcc868e	0.09986602
139	0x3e742226	0.23841152
140	0x3ca0956d	0.019602502
141	0x3e5b3f83	0.21410947
142	0x3e829e0d	0.25511208
143	0x3d0dbe5b	0.034605365
144	0x3de45c9e	0.11150478
145	0xbe9f7fe7	-0.3115227
146	0x3def27dc	0.116775244
147	0x3e71f8ad	0.23630019
148	0x3e27628d	0.16346188
149	0xbe50476b	-0.20339744
150	0x3e85d805	0.26141372
151	0x3e9994c7	0.2999632
152	0x3e428339	0.1899537
153	0x3dd4a2c7	0.1038261
154	0x3e6ac15b	0.22925322
155	0x3e174dfd	0.14775844
156	0x3dbbcc1b	0.091697894
157	0xbe1c2922	-0.15250066
158	0x3d48414a	0.04889039
159	0x3e3ef7ff	0.1864929
160	0x3e809d5e	0.25120062
161	0xbe7a94ef	-0.24470876
162	0x3dc31a46	0.09526496
163	0x3c6e3c7a	0.014540786
164	0x3e16e17f	0.14734457
165	0x3d9e2c20	0.0772326
166	0x3def2125	0.11676244
167	0x3d6cc5f4	0.05780597
168	0x3df8e709	0.121534415
169	0x3dd22e5e	0.1026275
170	0x3d9206da	0.07130213
171	0x3e218210	0.15772271
172	0xbe551809	-0.2080995
173	0x3e1bbcea	0.15208784
174	0xbeb0f07c	-0.34558475
175	0x3d9bffe2	0.07617165
176	0x3dbc0a7b	0.091816865
177	0xbea2f4cb	-0.31827387
178	0xbe768f9d	-0.24078222
179	0x3e3dfc2b	0.18553226
180	0x3da837f5	0.08213798
181	0x3e2706a1	0.16311122
182	0x3e88f6e4	0.26750863
183	0x3e532836	0.20620808
184	0x3d6fc881	0.058540825
185	0x3e61422a	0.21997896
186	0x3d1104a4	0.035404816
187	0x3e8a4231	0.27003625
188	0x3e69bd76	0.2282618
189	0x3dfef4d0	0.12449038
190	0x3e0d5649	0.13802446
191	0x3e6c635f	0.23084782
192	0x3ea3562e	0.31901687
193	0x3bd0477a	0.006356177
194	0x3dbc24dd	0.091867186
195	0x3df2a848	0.11848503
196	0xbe9f14cf	-0.31070563
197	0xbcd027c0	-0.02540958
198	0x3ef2550b	0.47330508
199	0x3dc2c932	0.09511031
200	0x3b90e620	0.0044219643
201	0x3bc57728	0.0060261674
202	0x3d697dc9	0.057004724
203	0x3e609295	0.21930917
204	0x3e4d8e7d	0.20073886
205	0x3e14f5c0	0.14546871
206	0x3e637bfa	0.22215262
207	0x3e530244	0.20606333
208	0x3e1b5a97	0.15171276
209	0xbe882403	-0.26589975
210	0x3d340801	0.043952946
211	0x3e8ab7e8	0.27093434
212	0x3e6eed66	0.23332748
213	0xbe33b2b1	-0.17548634
214	0x3ea44aad	0.32088223
215	0x3ea24285	0.31691375
216	0x3dccae16	0.09994142
217	0x3e2857d7	0.16439758
218	0x3e733632	0.23751143
219	0xbd0a6866	-0.03379097
220	0x3e482b9b	0.19547884
221	0xbd7e22e5	-0.062044997
222	0x3ddd23cc	0.10797843
223	0x3e254dc4	0.16142946
224	0x3e59fd38	0.21288002
225	0xbe5c2a7e	-0.21500584
226	0x3e62b6d5	0.22140057
227	0xbd32253a	-0.043492533
228	0x3e849ceb	0.2590097
229	0x3d887718	0.0666334
230	0x3d82e275	0.063908495
231	0x3d643fd9	0.055724952
232	0x3e00b7a2	0.1257005
233	0x3e4b1962	0.19833902
234	0x3e14e82c	0.14541692
235	0x3d2a2ee7	0.041548636
236	0xbe35951e	-0.17732665
237	0x3dce99cb	0.100879274
238	0xbeac23ff	-0.33621213
239	0x3e9bbe3e	0.3041858
240	0x3cd65f09	0.026168363
241	0xbeae5315	-0.34047762
242	0xbdd8bf55	-0.10583369
243	0x38c01904	9.159933e-05
244	0xbc8dc54d	-0.017305994
245	0x3cee243c	0.029070012
246	0x3e283d4b	0.16429631
247	0x3e30a060	0.17248678
248	0xbd994da8	-0.07485515
249	0x3e56a3b5	0.20960887
250	0x3e0e689c	0.13907093
251	0x3e7c8d84	0.24663359
252	0x3e80cc7c	0.2515601
253	0x3dab005b	0.08349677
254	0x3e69568d	0.22786923
255	0x3dfe90f5	0.12429992

decoder.mlp.0.weight f4 [128, 64]
0	0x3c955cc8	0.018232718
1	0x3d142f18	0.036177725
2	0x3d42f3d2	0.047595806
3	0x3e751670	0.2393434
4	0x3da707c4	0.08155778
5	0x3e51f8b1	0.20505024
6	0xbb61761e	-0.0034402679
7	0x3cdda757	0.027057333
8	0xbde21130	-0.110384345
9	0xbe8407f5	-0.2578732
10	0x3dda24a1	0.10651518
11	0xbd892636	-0.06696741
12	0xbe8ba2c5	-0.2727262
13	0x3ce626cc	0.028094672
14	0x3ac6b697	0.0015160617
15	0x3e0353a5	0.12824877
16	0xbdb23864	-0.08702162
17	0xbe9b16b6	-0.30290765
18	0xbf025d2c	-0.5092342
19	0x3de1b97c	0.110217065
20	0x3d8b2b98	0.06795424
21	0x3d3bc77d	0.045844544
22	0x3c85708e	0.016289022
23	0x3e00f3c8	0.12592995
24	0xbd1637b4	-0.036674216
25	0x3dbe9b62	0.09306981
26	0x3df5efb1	0.12008608
27	0x3db62375	0.08893482
28	0x3e58bee6	0.21166572
29	0x3e6e875a	0.2329382
30	0xbebe08e0	-0.37116146
31	0x3e39693d	0.18106551
32	0x3d6221e0	0.055208087
33	0x3e77b579	0.2419032
34	0x3e67a96c	0.22623223
35	0x3e69eea8	0.22844946
36	0x3c86102d	0.016365135
37	0xbe4cea9b	-0.2001137
38	0x3d0b052e	0.033940487
39	0x3d64393a	0.055718638
40	0xbe7d7f2e	-0.24755546
41	0x3e60f7d9	0.21969546
42	0xbd659faf	-0.05606049
43	0xbec7f034	-0.39050448
44	0x3e1e9a55	0.1548856
45	0x3cfa1714	0.030528583
46	0x3e348c67	0.17631684
47	0xbe867b8e	-0.2626614
48	0x3e0a249a	0.13490525
49	0xc0933501	-4.60022
50	0x3e532c93	0.20622472
51	0x3dc7fd0f	0.09765064
52	0x3e7ce024	0.24694878
53	0x3dac56c5	0.084149875
54	0x3dd87eb4	0.10571042
55	0x3dff11c0	0.124545574
56	0x3d1031df	0.03520381
57	0x3df6d5d0	0.120525
58	0x3d028847	0.031868245
59	0x3cb3ba0d	0.021939302
60	0x3e220e7a	0.15825835
61	0x3d80d8f4	0.062913805
62	0xbe6b7da2	-0.22997144
63	0x3df06bae	0.11739288
64	0xbbf12ba0	-0.007359937
65	0xbc3d968f	-0.0115715405
66	0x3d0b6e9d	0.034041036
67	0xbdcf8572	-0.101328745
68	0x3c599f94	0.013282675
69	0x3d24e90a	0.040261306
70	0xbdfe6eac	-0.12423453
71	0xbbc35563	-0.0059611066
72	0xbd07c070	-0.033142507
73	0x3ea1b0ff	0.3158035
74	0x3db8ccca	0.090234354
75	0x3d3494d0	0.04408723
76	0x3e98cb61	0.29842666
77	0x3d562d98	0.052289575
78	0x3d68c309	0.056826625
79	0xbc17ca59	-0.009264552
80	0xbd486d88	-0.048932582
81	0x3d323460	0.04350698
82	0x3f089b14	0.5336163
83	0x3ebf8520	0.37406254
84	0xbd6dd5f8	-0.058065385
85	0xbdefd79d	-0.11711047
86	0xbd4e8723	-0.050421845
87	0xbe13e195	-0.14441521
88	0xbd2d487e	-0.042305462
89	0x3e0d80a4	0.13818604
90	0x3d09a385	0.03360321
91	0xbe09d1e6	-0.13458976
92	0xbcae5681	-0.021281483
93	0x3db5fe6a	0.08886416
94	0x3f1e8d87	0.61934704
95	0xbe218cd2	-0.15776375
96	0x3da03c93	0.078240536
97	0x3db3ce00	0.08779526
98	0x3d5e277c	0.054236874
99	0xbe0aebae	-0.13566467
100	0xbccddaf0	-0.025128812
101	0x3ea03ea1	0.31297782
102	0x3d61c70c	0.055121467
103	0x3d1cc378	0.03827235
104	0x3ef737a8	0.4828465
105	0x3d99628b	0.07489499
106	0xbd898d84	-0.06716445
107	0x3ee99a4f	0.4562554
108	0xbd90a367	-0.070624165
109	0x3cef0aba	0.02917992
110	0x3db22f17	0.08700388
111	0x3e7ca021	0.2467046
112	0xbde60fb0	-0.11233461
113	0x40a503b0	5.1567
114	0xbe06c28f	-0.13160156
115	0x3d6c6300	0.0577116
116	0x3e02bbbe	0.1276693
117	0xbd777f92	-0.060424395
118	0xbda576a1	-0.08079267
119	0x3d7f2647	0.062292363
120	0x3d2d96a7	0.04238
121	0x3cf5f14c	0.030022286
122	0x3e06438b	0.13111703
123	0xbdf788be	-0.120866284
124	0x3de42eba	0.11141725
125	0x3dbf446c	0.09339222
126	0x3e6476d6	0.22310957
127	0xb9f25e10	-0.0004622792
128	0x3d2f41f6	0.042787515
129	0xbe07fcea	-0.13280073
130	0xbdfc5bd7	-0.123222046
131	0x3d859977	0.06523412
132	0xbd14fe7c	-0.036375508
133	0xb9b71786	-0.00034922006
134	0x3b162400	0.0022909641
135	0x3c95e06a	0.018295486
136	0x3da0e46c	0.07856068
137	0xbd0044b6	-0.031315528
138	0xbd439f6c	-0.04775946
139	0xbcc3aa80	-0.023885012
140	0xbda8c6e5	-0.08241061
141	0xbc45a6e0	-0.012063712
142	0xbe0e5bf1	-0.1390226
143	0xbd9eff6d	-0.07763562
144	0xbdcbdf82	-0.0995474
145	0x3dfd9ea7	0.12383776
146	0x3eb113e5	0.3458549
147	0x3ce04f09	0.027381437
148	0x3dfe2ea8	0.12411243
149	0xbd92332f	-0.07138669
150	0xbda11497	-0.07865255
151	0xbb5ce262	-0.003370427
152	0x3c41892e	0.011812491
153	0x3dbfaca9	0.09359104
154	0x3da405c5	0.08008913
155	0xbddf2a93	-0.10896792
156	0xbdae5b53	-0.085135125
157	0x3ab41431	0.0013738928
158	0xbacaa795	-0.001546132
159	0xbfc7ba15	-1.5603663
160	0xbba892b2	-0.0051444406
161	0xbd220eb3	-0.0395648
162	0x3d98cb1f	0.07460617
163	0xbd511c0c	-0.05105214
164	0x3d377533	0.044789504
165	0xbeeb786f	-0.4599032
166	0xbd0a2a2e	-0.033731632
167	0xbde22951	-0.11043037
168	0xbdf8b433	-0.12143745
169	0x3dd31345	0.1030641
170	0xbdada674	-0.08479014
171	0xbda112b2	-0.07864894
172	0xbca92e7b	-0.020652046
173	0x3d35d85d	0.044395793
174	0x3c8c29ab	0.017109713
175	0x3fccad51	1.5990392
176	0x3bb00d03	0.005372645
177	0x3f5bc6b8	0.85850096
178	0xbd99aef0	-0.0750407
179	0x3f1f553d	0.6223944
180	0x3ca91ce6	0.020643663
181	0x3d9bba53	0.07603898
182	0xbda92e05	-0.08260731
183	0xbdeae771	-0.11469925
184	0xbd9bd928	-0.07609779
185	0xbd8ac951	-0.06776679
186	0xbd8887fd	-0.06666563
187	0x3dc80f82	0.09768583
188	0xbd594478	-0.053043813
189	0x3db36f1d	0.087614276
190	0xbec818be	-0.39081377
191	0xbddc856b	-0.10767635
192	0xbe01db2e	-0.12681267
193	0xbef6744c	-0.48135602
194	0xbcb8f74c	-0.022578858
195	0xbda7e245	-0.08197454
196	0xbda62de7	-0.08114224
197	0x3cca2266	0.024674606
198	0xbdde9ad2	-0.108693734
199	0xbe111b64	-0.14170605
200	0xbdac142a	-0.084022835
201	0x3ed71c6b	0.4201387
202	0x3e269dd5	0.16271146
203	0xbd0c3a70	-0.034235418
204	0x3efd5d85	0.49485412
205	0x3d22eda4	0.039777413
206	0xbdb7cddd	-0.08974812
207	0xbe51c2ea	-0.2048451
208	0x3dbdab5f	0.09261202
209	0x3ef4da58	0.47822833
210	0x3fbb5481	1.4635164
211	0x3fa461bb	1.2842325
212	0xbdeaff5a	-0.11474486
213	0xbe981ea3	-0.29710874
214	0xbecbb5f5	-0.3978726
215	0x3b92ec51	0.0044837375
216	0xbcfd14db	-0.030893734
217	0xbdcbb2e2	-0.099462286
218	0xbc924244	-0.017853864
219	0xbd5ac340	-0.05340886
220	0xbe36a754	-0.17837268
221	0xbdae6322	-0.08515002
222	0x3ef6b962	0.4818831
223	0x3f1d1fc1	0.6137658
224	0xbe063975	-0.13107856
225	0x3daa9f17	0.08331125
226	0x3dd18c51	0.10231841
227	0xbe9f35d1	-0.31095746
228	0xbdb0a75d	-0.08625672
229	0x3f29e9e5	0.6637252
230	0xbccf46d7	-0.025302334
231	0xbe5b289f	-0.21402214
232	0x3f2a9620	0.6663532
233	0x3c0de900	0.008661509
234	0xbd72baa2	-0.05926002
235	0x3f379e53	0.7172596
236	0xbc521557	-0.012822471
237	0xbe0e1138	-0.13873756
238	0x3dafb52f	0.0857948
239	0x3f3f95f1	0.7483817
240	0x3da375bf	0.07981443
241	0x3f9dd0d9	1.232936
242	0xbe1927e5	-0.14956625
243	0x3ebbcfe0	0.36682034
244	0xbe62950f	-0.22127174
245	0xbe9c6126	-0.30542868
246	0xbe21aa94	-0.15787727
247	0xbd2fa98c	-0.042886302
248	0xbaf3ab38	-0.0018590456
249	0x3cd9cf22	0.026588026
250	0xbee21726	-0.44158286
251	0xbd412bcb	-0.047160905
252	0xbf260745	-0.6485484
253	0x3e671d00	0.22569656
254	0x3e8425ea	0.25810176
255	0xbdbae1ad	-0.091250755

decoder.mlp.0.bias f4 [128]
0	0x3e9fc828	0.31207395
1	0xbe54e37f	-0.20789908
2	0xbdd8bb51	-0.10582603
3	0x3ef16c41	0.47152904
4	0xbd9008dd	-0.070329405
5	0x3e9453f4	0.289703
6	0x3c6fe13c	0.014641102
7	0xbdf342b9	-0.11877961
8	0x3ea41b47	0.3205206
9	0x3e98f6d9	0.2987583
10	0x3c329654	0.010900099
11	0x3e4b758b	0.19869058
12	0x3e952500	0.2912979
13	0x3e04940d	0.12947102
14	0x3e4fcb7a	0.20292464
15	0x3da9bed2	0.08288349
16	0x3eab9423	0.33511457
17	0xbda94b5f	-0.08266329
18	0x3e88b25c	0.26698577
19	0xbdc713dc	-0.09720585
20	0xbd8fac10	-0.0701524
21	0x3e1018d6	0.14071974
22	0xbc9d1940	-0.01917708
23	0xbe1c286f	-0.15249799
24	0x3e3b6c1b	0.18302958
25	0x3e78cf6d	0.24297877
26	0xbcc2d4eb	-0.023783168
27	0x3e601d4b	0.21886174
28	0x3e92a925	0.28644672
29	0xbda95a16	-0.08269136
30	0x3ea0d2a6	0.31410712
31	0x3e3c1ea0	0.18371058
32	0x3e3ddc45	0.18541057
33	0xbea7f168	-0.32801366
34	0x3e8fd77a	0.28094083
35	0xbe090f74	-0.13384801
36	0x3e252725	0.16128214
37	0xbdfadddc	-0.122493476
38	0x3db1d11e	0.08682464
39	0xbe004046	-0.12524518
40	0xbda1a5f7	-0.078929834
41	0xbe37312b	-0.1788985
42	0x3e654c7e	0.2239246
43	0x3d8b8614	0.06812683
44	0x3ea97358	0.33095813
45	0x3e9aa9bb	0.3020762
46	0x3e83204d	0.2561058
47	0xbc181cca	-0.009284208
48	0x3e09847f	0.1342945
49	0xbd6da9cc	-0.05802326
50	0xbe124de3	-0.14287524
51	0x3b581386	0.0032970621
52	0x3e9bdcdc	0.3044194
53	0xbdee50ee	-0.1163653
54	0x3d486425	0.04892363
55	0x3e7f611f	0.24939393
56	0x3e479aba	0.19492617
57	0xbe217e16	-0.15770754
58	0xbd752ebd	-0.059859026
59	0xbe6e3cd4	-0.23265392
60	0x3ff1389c	1.8845401
61	0xbe5eba1e	-0.21750686
62	0x3e36e657	0.17861305
63	0x3e255870	0.16147017
64	0xbcf0cd2a	-0.029394705
65	0x3e8bf5ca	0.2733596
66	0x3e231444	0.159257
67	0x3ea261c8	0.31715226
68	0x3e7f3834	0.24923784
69	0x3e2d1d5b	0.1690573
70	0x3e6f44b8	0.23366058
71	0xbc0d5494	-0.008626122
72	0xbc9b71af	-0.018975107
73	0x3d8b81da	0.068118766
74	0x3e4f2d4f	0.20232128
75	0x3d3868ce	0.045021825
76	0x3c9aeef2	0.018912766
77	0xbe07dd7b	-0.13268082
78	0x3d2eaad0	0.04264337
79	0xbdd0a3e6	-0.10187511
80	0xbd986e5e	-0.07442926
81	0x3dce4777	0.100722246
82	0x3e521ea5	0.20519502
83	0x3e73245d	0.2374434
84	0x3e9406ac	0.2891134
85	0xbe531d69	-0.20616688
86	0x3de35ffc	0.11102292
87	0x3e969ac9	0.29414967
88	0x3e57f260	0.21088552
89	0x3db496c7	0.08817821
90	0x3e9772e9	0.29579857
91	0xbe12ab1d	-0.14323087
92	0x3e40540d	0.18782063
93	0x3ea532d2	0.32265335
94	0xbdc01f93	-0.09381022
95	0x3e257554	0.16158038
96	0x3e96030f	0.2929921
97	0x3e6994c4	0.22810656
98	0x3d4bc94e	0.049752526
99	0x3e8a1cdd	0.26975146
100	0x3e95de84	0.29271328
101	0x3e955f68	0.29174352
102	0x3e8c68e9	0.2742379
103	0x3e978597	0.29594108
104	0x3d5f406f	0.054504808
105	0x3d591df7	0.053007092
106	0x3e8cd6bd	0.27507582
107	0x3d34d9b1	0.04415292
108	0xbb35a31d	-0.0027715631
109	0x3e67b883	0.2262898
110	0xbdb92b84	-0.09041503
111	0xbe039fae	-0.12853882
112	0xbe0397bc	-0.12850851
113	0x3d8a2a51	0.067463525
114	0xbc883da2	-0.016630951
115	0xbdeab3b7	-0.11460059
116	0x3c314e00	0.010821819
117	0x3e88bd70	0.2670703
118	0xbe118400	-0.1421051
119	0xbd25eb77	-0.04050776
120	0xbde13288	-0.10995966
121	0x3e3f48bf	0.18680094
122	0x3dd1d4ed	0.102456905
123	0xbd3b301e	-0.045700185
124	0x3d2c5bcc	0.04207973
125	0x3e08f808	0.13375866
126	0x3e92d501	0.28678134
127	0x3e6d8863	0.23196559

decoder.mlp.2.weight f4 [64, 128]
0	0x3de5d532	0.112223044
1	0xbe32f919	-0.17477836
2	0xbcd2e30b	-0.025743028
3	0x3d57d7be	0.052695982
4	0xbd9088dc	-0.07057354
5	0x3de1a02d	0.11016879
6	0x3a1745dd	0.00057706033
7	0xbce7e29e	-0.028306302
8	0x3d983c7e	0.07433413
9	0x3dbd912b	0.09256204
10	0xbd2a81cb	-0.041627686
11	0x3e113e22	0.14183858
12	0x3d2569bf	0.04038405
13	0x3dee9581	0.11649609
14	0x3e3604e4	0.17775303
15	0x3d4c75b1	0.049916927
16	0x3db76b7e	0.089560494
17	0xbf4ab0a3	-0.79175776
18	0x3dbfeb29	0.09371025
19	0xbd8cf2cf	-0.068822496
20	0x3b416134	0.00295074
21	0x3e2b895f	0.16751622
22	0xbf40726f	-0.7517461
23	0xbe0ec6b2	-0.13942984
24	0x3db23fe7	0.08703595
25	0x3e246606	0.16054544
26	0x3d5ee1be	0.054414503
27	0x3e1fadb9	0.15593614
28	0x3dd44445	0.10364584
29	0xbd10b057	-0.03532442
30	0x3d8445fd	0.06458662
31	0x3e0a279d	0.13491674
32	0x3e039826	0.12851009
33	0xbe38780a	-0.18014541
34	0x3e2c1156	0.16803488
35	0x3d231f25	0.039824624
36	0x3e149ea1	0.14513637
37	0x3d8f49a5	0.069964685
38	0x3dbaf47e	0.091286644
39	0xbde7d49b	-0.11319848
40	0x3b121576	0.0022290624
41	0xbe2234b0	-0.15840411
42	0x3db79bd5	0.089652695
43	0x3d9f25c5	0.07770876
44	0x3dc2e3ee	0.095161304
45	0x3e3a1a9b	0.18174212
46	0x3e265f37	0.16247259
47	0xbd98dd41	-0.07464076
48	0x3d8a9906	0.06767468
49	0xbebbce56	-0.3668086
50	0xbdb68a60	-0.08913112
51	0xbda4880f	-0.080337636
52	0x3d8d0565	0.068857946
53	0xbe7cbab8	-0.24680603
54	0x3d61ffee	0.055175714
55	0x3e2efb29	0.17087997
56	0x3e04c334	0.12965089
57	0xbf48d8e6	-0.7845596
58	0xbd3291f0	-0.043596208
59	0xbed471ac	-0.41492975
60	0xc033261b	-2.7992008
61	0xbe055aa1	-0.13022853
62	0x3e0fe3b7	0.1405171
63	0x3e44cda9	0.19219078
64	0xbf115ad4	-0.5677922
65	0x3d9b3c9f	0.07579922
66	0x3e042bf6	0.12907395
67	0x3e1acad7	0.1511644
68	0x3e4bca0a	0.1990129
69	0x3e4ec177	0.20190988
70	0xbe2246e2	-0.15847352
71	0x3d8a91a9	0.06766064
72	0xbecf3c4b	-0.40475687
73	0x3b984ded	0.0046479614
74	0x3d6e0327	0.058108475
75	0xbeb9f10a	-0.3631671
76	0x3db38d4f	0.08767187
77	0xbdab18aa	-0.08354314
78	0x3cad3fb4	0.02114854
79	0xbf99cd32	-1.2015746
80	0xbe1d4ca3	-0.15361266
81	0x3d5d7d35	0.054074485
82	0x3ddc8281	0.10767079
83	0x3d8257cf	0.063644044
84	0x3e4cb43c	0.19990629
85	0xbe42739f	-0.18989418
86	0x3d958e1c	0.07302496
87	0x3d42294a	0.047402658
88	0x3d9af01b	0.07565328
89	0xbd96969e	-0.07352947
90	0x3e08ea2f	0.13370584
91	0xbb757eba	-0.0037459568
92	0x3da9df40	0.08294535
93	0x3d924c98	0.07143515
94	0xbd76dd46	-0.060269617
95	0x3e36700e	0.17816183
96	0x3e082a58	0.13297403
97	0x3d602c52	0.054729767
98	0xbf337c28	-0.7011132
99	0x3e4ab470	0.19795394
100	0x3e1aa18c	0.15100688
101	0x3e39a9be	0.18131158
102	0x3e1e271a	0.15444604
103	0x3df18d9c	0.11794588
104	0x3e2c6545	0.16835506
105	0xbd84d2c8	-0.06485516
106	0x3db16634	0.08662072
107	0xbda0bb27	-0.078481965
108	0x3d6b59a2	0.057458527
109	0x3df162bf	0.117864124
110	0xbfe4cff6	-1.7875965
111	0xbd8e890c	-0.06959733
112	0xbf011658	-0.5042472
113	0xbd2b9603	-0.04189111
114	0x3d31bbc6	0.043391965
115	0xbf95db0d	-1.1707474
116	0xbd4ea924	-0.050454274
117	0x3d9dcbd0	0.0770489
118	0xbdc1c388	-0.09461123
119	0xbc8ac40e	-0.01693919
120	0xbe42be84	-0.19017988
121	0x3daaab62	0.0833347
122	0xbbae221f	-0.005314126
123	0xc06e7d26	-3.7263885
124	0x3d655b74	0.05599542
125	0x3dc2761f	0.09495186
126	0x3d95816c	0.07300076
127	0x3e251b40	0.16123676
128	0xbdd42c51	-0.10360015
129	0xbcd53de8	-0.026030496
130	0xbf690698	-0.91025686
131	0xbffaab6a	-1.9583561
132	0x3fb8fab0	1.4451504
133	0xbda3a921	-0.07991243
134	0x3ce9c63f	0.028536914
135	0x3cf3a00d	0.029739404
136	0x3d4e8dc9	0.050428186
137	0x3c9c33b1	0.019067617
138	0xc0139398	-2.3058834
139	0x3d185b6e	0.03719657
140	0xbabc5d0d	-0.0014370993
141	0xbdd19d00	-0.102350235
142	0x3d4f92fa	0.050677277
143	0x3ca1c9be	0.019749518
144	0xbc921cb5	-0.017835954
145	0x3e4364fe	0.19081494
146	0xbd2a78a4	-0.041618958
147	0x3c680717	0.014161847
148	0xbbde8589	-0.006790821
149	0xbdcb696b	-0.09932216
150	0x3e37f2e2	0.17963746
151	0x3d7a1cdf	0.06106269
152	0xbbfcbc19	-0.0077128527
153	0xbdf6de68	-0.120541394
154	0xbbd074e2	-0.0063615898
155	0x3d28cbb5	0.041209895
156	0xbd7c2af9	-0.06156442
157	0xbd8c2925	-0.06843785
158	0x3d2de097	0.042450514
159	0x3cea829d	0.028626734
160	0xbc9ca0df	-0.019119678
161	0xbcaf64ba	-0.021410335
162	0x3d4f1356	0.05055555
163	0x3dccd084	0.10000709
164	0xbb5ce11d	-0.0033703514
165	0xbe8bbae6	-0.2729103
166	0x3fc57914	1.5427575
167	0xbcd88b1a	-0.026433516
168	0x4007698a	2.1158166
169	0x3cbca6f5	0.02302883
170	0x3cdeaa9a	0.027180959
171	0x3d0cecfc	0.034405693
172	0xbc8b63f8	-0.017015442
173	0xbd6ee851	-0.058327023
174	0x3ccf15c6	0.025278937
175	0xbd8d9d75	-0.06914798
176	0xbd7e84ff	-0.062138554
177	0x3d3c3ae4	0.0459546
178	0x3da10e4a	0.078640535
179	0x3fca60ee	1.581083
180	0xbda6fa40	-0.081532
181	0x3d671515	0.05641659
182	0x3d1eba34	0.038751796
183	0xbdaf49e8	-0.085590184
184	0x3d7b73ed	0.061389852
185	0x3db778e8	0.08958608
186	0x3df3087f	0.11866855
187	0x3d3f9839	0.04677603
188	0x3f532425	0.8247703
189	0x3ce59b34	0.028028108
190	0xbda41ef9	-0.0801372
191	0xbd7a7f7b	-0.06115673
192	0x3e8056a9	0.25066116
193	0xbbcf61d4	-0.0063288007
194	0xbd9b8432	-0.07593574
195	0xbd845fde	-0.06463598
196	0x3cf987b5	0.030460218
197	0x3cb536cd	0.022120858
198	0xbf52c3b4	-0.8232987
199	0xbd7c1b6d	-0.061549593
200	0x3fbc250f	1.4698809
201	0xbb4644fc	-0.003025352
202	0xbdd9b8f0	-0.10630977
203	0x3fb3ef79	1.4057456
204	0xbbed7840	-0.007247001
205	0x3fce9991	1.6140615
206	0x3cfee9ad	0.031117285
207	0x3d255185	0.040360946
208	0x3d0fbf4b	0.03509454
209	0x3da11f6e	0.07867323
210	0xbbb8dbea	-0.00564145
211	0xbbdaf459	-0.0066819605
212	0xbcbcc466	-0.023042869
213	0x3c8c18c4	0.017101653
214	0xbda01bc2	-0.078177944
215	0xbdc39a22	-0.09550883
216	0xbd692223	-0.05691732
217	0x3cfc9aec	0.030835591
218	0x3c486d49	0.012233087
219	0x3cf77e90	0.030211717
220	0xbc986a9f	-0.018605528
221	0x3bea8370	0.007156782
222	0xbcfe211c	-0.031021647
223	0xbb86e936	-0.0041171564
224	0x3c2286cd	0.009919834
225	0xbdc6b0d0	-0.09701693
226	0xbf109e15	-0.56491214
227	0xbdde9e61	-0.10870052
228	0xbdc69486	-0.09696297
229	0xba5f993e	-0.000852961
230	0x3d301fd3	0.0429991
231	0xbd1a520e	-0.03767591
232	0xbd8d8564	-0.06910208
233	0x3d36b6d8	0.044607967
234	0xbce20654	-0.027590908
235	0x40045631	2.0677607
236	0x3da1ded4	0.07903829
237	0xbd95ed1b	-0.07320615
238	0x3f74c7a8	0.9561715
239	0x3d85c833	0.065323256
240	0x3dd2233f	0.10260629
241	0x3d91a6a7	0.071118645
242	0xbbd44d2c	-0.006478926
243	0x3fd0dfec	1.6318336
244	0x3ca2df93	0.019882
245	0xbd554f28	-0.052077442
246	0x3ca19154	0.019722618
247	0xbcf48e62	-0.02985305
248	0x3d41ec90	0.047344744
249	0xbcae08c3	-0.021244412
250	0x3d0bf68e	0.03417068
251	0x3fbbf0d7	1.4682873
252	0x3d13480e	0.03595739
253	0xbddb8b7e	-0.107199654
254	0x3cafaae4	0.021443792
255	0xbda64c2b	-0.08119997

decoder.mlp.2.bias f4 [64]
0	0x3e2d92c7	0.16950522
1	0x3d1755e0	0.03694713
2	0x3e88ebbf	0.2674236
3	0x3d0a99cb	0.033838075
4	0x3c16b3ee	0.009198172
5	0xbd977f07	-0.073972754
6	0x3e3b824b	0.18311422
7	0xbd60cb96	-0.054881655
8	0x3c426a13	0.01186611
9	0x3d5dd88c	0.054161593
10	0x3e30e615	0.1727527
11	0x3d37c847	0.044868734
12	0xbdc17a83	-0.094471954
13	0x3c40e151	0.01177247
14	0x3e62e59c	0.22157902
15	0x3d74d022	0.059768803
16	0xbd6bcf72	-0.057570882
17	0x3cfc8573	0.030825352
18	0x3dd36340	0.10321665
19	0x3d97cbb0	0.07411897
20	0x3f43c56e	0.7647313
21	0xba683eac	-0.00088594365
22	0xbc02f999	-0.007994079
23	0xbd9a632b	-0.07538446
24	0x3e8ee801	0.2791138
25	0x3e8f61a0	0.2800417
26	0xbd801d5c	-0.062556
27	0xbc8922d4	-0.01674024
28	0x3e85495f	0.2603254
29	0x3d62dad5	0.055384476
30	0xbd0918d8	-0.03347096
31	0xbdb32c6d	-0.08748708
32	0x3e67f3f2	0.22651652
33	0x3e8faee1	0.2806311
34	0xbb101287	-0.00219837
35	0xbd3bf4a1	-0.045887593
36	0x3ca0478e	0.01956537
37	0xbca9c48f	-0.02072361
38	0xbdf46e0c	-0.11935052
39	0x3e668dce	0.22515032
40	0xbd4e0185	-0.050294418
41	0xbc76988c	-0.015051018
42	0x3d424110	0.04742533
43	0x3d564aea	0.052317537
44	0xbda13b5e	-0.078726515
45	0x3e98cb3d	0.29842559
46	0x3f516f5b	0.8181054
47	0x3c1857fe	0.009298323
48	0x3e75d537	0.24007116
49	0x3e868379	0.2627218
50	0x3e668635	0.22512133
51	0x3e8ae588	0.27128243
52	0x3e6fc398	0.23414457
53	0x3d5535d7	0.0520533
54	0x3e6e63d9	0.23280276
55	0x3e9122f5	0.28346983
56	0x3ca893b1	0.020578237
57	0x3e8457fa	0.2584837
58	0x3e46d133	0.1941574
59	0xbc909de7	-0.017653419
60	0x3d170592	0.036870547
61	0xbd88e434	-0.06684151
62	0x3e73dfce	0.23815843
63	0x3e22a190	0.15881944
