prgnn.pth (torch, 109842 bytes, 12 tensors)

encoder.conv1.lin_l.weight f4 [64, 7]
0.03949988 -0.2309049 -0.039423227 0.087581426 0.14722309 0.10801256 0.21375868 0.0640015
0.14277396 -0.09262869 0.24625167 -0.36418608 -0.15708399 0.09387627 0.35976687 0.30160686
-0.26605928 0.10487327 0.33568427 -0.29903907 0.2521117 -0.18918566 -0.08376786 0.26137027
-0.064014345 -0.010325819 -0.2638678 -0.087405115 0.34543094 0.26560643 0.05533272 0.30964425
0.25014475 0.138778 0.10709122 0.014790863 -0.21534461 -0.023750395 -0.18314989 0.16191438
0.014679968 0.29852906 0.058723807 0.22547218 0.28581515 0.3386533 0.10000774 -0.12688434
-0.243812 0.3378971 0.20194343 -0.24646206 -0.2973076 0.07738477 0.3523158 0.18493584
0.09867966 0.07673615 -0.07172838 -0.3350407 0.09903088 -0.32568422 0.20263329 0.26290908
0.2634298 0.37195423 -0.36317205 0.12892464 0.30555323 0.32218835 0.30454376 -0.128871
-0.17921543 0.071369946 -0.28524554 0.29114416 0.12503329 0.0009659827 -0.32456067 0.07873815
0.33602062 -0.14994541 -0.21353696 0.10241553 -0.3156673 0.18074104 -0.081201136 0.24112311
-0.22508901 -0.21917841 -0.29366004 -0.05146244 -0.15372644 0.044789612 -0.34930995 -0.27593362
-0.0283328 -0.19550958 -0.1422028 -0.25479686 0.35619435 0.37666616 -0.21244465 0.14289579
0.0045775473 0.10646927 -0.10357511 0.21195337 -0.35366625 0.11860132 0.2894641 0.21847138
-0.32128423 -0.3162054 -0.077293396 -0.008760214 -0.30982137 0.05591032 -0.27576524 -0.15524445
0.08256894 -0.32780784 -0.05226183 -0.25381407 0.0015346706 -0.11165476 0.0014444888 0.022066861
-0.20281532 0.10896358 -0.111340374 0.10026893 -0.24429852 -0.00034207106 -0.029489547 0.14550552
0.30861804 0.10987422 -0.042180985 0.29546592 0.18121561 0.0128932595 -0.22031964 0.2810088
-0.0066819787 0.34772804 0.34136626 0.17331895 0.26535973 -0.10293847 0.3287075 0.23901597
-0.26369596 0.24898306 0.28446642 0.27732024 -0.07522151 -0.112125516 0.03902307 0.1841465
0.1937426 -0.3086583 -0.15087466 0.28739598 0.26895675 0.32997242 -0.15171921 0.12070671
-0.29768145 0.1928859 0.36564675 0.15259919 0.23114982 0.07377455 -0.19309926 0.13812938
-0.048159897 0.31691608 0.25088027 0.040650576 -0.20799214 -0.101673275 0.23887888 0.15330318
0.22583905 0.03300038 -0.33655575 -0.17949104 0.34283426 -0.021811932 0.37046358 0.24820855
0.24990645 0.020496339 -0.34746602 -0.21380627 0.055548996 -0.021060854 -0.15839803 -0.10599926
-0.084341705 -0.16850889 0.16157159 -0.15678012 0.10837084 0.19207951 0.234539 -0.28293195
0.14495274 0.29729506 0.08553553 -0.34709728 0.09253892 0.37214604 -0.038565934 -0.0048351884
0.043926567 0.35326102 0.020286411 -0.34538034 0.29927543 0.34484097 -0.14062954 -0.037720233
0.10959944 0.35272828 -0.13965045 -0.036415994 0.24239644 0.19046172 -0.1083594 0.25275442
-0.104879886 -0.06870538 -0.08833003 0.14150855 -0.18823028 -0.2597761 0.065984845 -0.2501005
-0.21647337 0.30477926 -0.35937667 -0.29199094 0.29036233 0.18871471 0.28951195 -0.11600122
0.14788511 -0.11811578 0.041837573 -0.21469872 -0.088846475 0.22261497 -0.3323553 -0.18014167
00000000: a0ca 213d 5672 6cbe 407a 21bd e45d b33d
00000010: a6c1 163e b035 dd3d 8ee3 5a3e 3813 833d
00000020: 5633 123e 1cb4 bdbd 6629 7c3e 9976 babe
00000030: a0da 20be 3442 c03d 5d33 b83e 376c 9a3e
00000040: ec38 88be ccc7 d63d cfde ab3e a61b 99be
00000050: c914 813e e3b9 41be 7c8e abbd 53d2 853e
00000060: f419 83bd a02d 29bc ae19 87be 7401 b3bd
00000070: 53dc b03e 91fd 873e 90a4 623d b189 9e3e
00000080: f912 803e d21b 0e3e a452 db3d 6055 723c
00000090: 4c83 5cbe 3090 c2bc a58b 3bbe e2cc 253e
000000a0: 4084 703c cdd8 983e 6088 703d 2ee2 663e
000000b0: 5d56 923e f763 ad3e dcd0 cc3d f8ed 01be
000000c0: daa9 79be d900 ad3e 42ca 4e3e 8d60 7cbe
000000d0: b438 98be e87b 9e3d bd62 b43e d25f 3d3e
000000e0: 9018 ca3d d827 9d3d 54e6 92bd 748a abbe
000000f0: b4d0 ca3d 15c0 a6be 1a7f 4f3e 059c 863e
00000100: 45e0 863e c970 be3e b0f1 b9be d204 043e
00000110: 7971 9c3e dff5 a43e 29ed 9b3e c2f6 03be
00000120: 4084 37be 682a 923d b40b 92be d910 953e
00000130: ba08 003e 003a 7d3a d12c a6be 7841 a13d
00000140: e50a ac3e 4a8b 19be 6fa9 5abe 3cbf d13d
00000150: 259f a1be 2e14 393e c84c a6bd fae8 763e
00000160: bc7d 66be 4e70 60be 9c5a 96be 48ca 52bd
00000170: 776a 1dbe 5075 373d c1d8 b2be 2c47 8dbe
00000180: 301a e8bc aa33 48be 9c9d 11be bc74 82be
00000190: 1b5f b63e 63da c03e 178b 59be 4653 123e
000001a0: 40ff 953b 900c da3d 301f d4bd 4e0a 593e
000001b0: be13 b5be 40e5 f23d a334 943e f6b6 5f3e
000001c0: 5e7f a4be ade5 a1be 004c 9ebd 0087 0fbc
000001d0: e8a0 9ebe 3802 653d 1a31 8dbe 67f8 1ebe
000001e0: e819 a93d 6ed6 a7be 8010 56bd ebf3 81be
000001f0: 0027 c93a 40ab e4bd 0055 bd3a 90c5 b43c
00000200: d2ae 4fbe 4c28 df3d 6c06 e4bd cc59 cd3d
00000210: 6429 7abe 0058 b3b9 1094 f1bc 66ff 143e
00000220: 2f03 9e3e bc05 e13d f8c5 2cbd 4f47 973e
00000230: 9690 393e 403e 533c 799b 61be 63e0 8f3e
00000240: 80f4 dabb 6909 b23e 8fc7 ae3e 867a 313e
00000250: 3bdd 873e 68d1 d2bd 594c a83e 9ac0 743e
00000260: 2803 87be 6af5 7e3e 95a5 913e ebfc 8d3e
00000270: bc0d 9abd 10a2 e5bd a8d6 1f3d e690 3c3e
00000280: 7664 463e 7608 9ebe e37e 1abe 9125 933e
00000290: b3b4 893e 25f2 a83e 485c 1bbe 1435 f73d
000002a0: b469 98be e283 453e 0d36 bb3e f642 1c3e
000002b0: 8ab2 6c3e 1c17 973d d0bb 45be ca71 0d3e
000002c0: 5043 45bd d342 a23e 6173 803e 3881 263d
000002d0: e4fb 54be 143a d0bd aa9c 743e 82fb 1c3e
000002e0: 5a42 673e 682b 073d 0951 acbe 80cc 37be
000002f0: f987 af3e f0ae b2bc 67ad bd3e 622a 7e3e
00000300: 7ae7 7f3e f0e7 a73c 11e7 b1be 08f0 5abe
00000310: 5887 633d d087 acbc 1833 22be 2416 d9bd
00000320: 58bb acbd 988d 2cbe 0673 253e f88a 20be
00000330: 88f1 dd3d 7eb0 443e fe2a 703e 75dc 90be
00000340: 7e6e 143e 0f37 983e 402d af3d bcb6 b1be
00000350: 0c85 bd3d ed89 be3e 50f7 1dbd 8070 9ebb
00000360: 58ec 333d a1de b43e b02f a63c b1d5 b0be
00000370: a13a 993e ff8e b03e 3101 10be 8880 1abd
00000380: ac75 e03d cd98 b43e 8700 0fbe f028 15bd
00000390: c636 783e 6608 433e 88eb ddbd 0769 813e
000003a0: 44cb d6bd 68b5 8cbd 60e6 b4bd 9ee7 103e
000003b0: 70bf 40be 5f01 85be 1023 873d 2c0d 80be
000003c0: 32ab 5dbe 070c 9c3e 3800 b8be d67f 95be
000003d0: 5faa 943e 6e3e 413e e93a 943e 0c92 edbd
000003e0: 326f 173e b0e6 f1bd e05d 2b3d fbd9 5bbe
000003f0: 24f5 b5bd 2ef5 633e 792a aabe 0f77 38be

encoder.conv1.lin_l.bias f4 [64]
-0.12321141 0.33470574 -0.2895089 0.18112484 0.034757555 -0.041178197 0.18558046 -0.3371605
0.31376436 -0.11733717 0.2638848 -0.1933865 0.252207 0.055932403 -0.09348008 0.35636058
-0.09272981 -0.039037287 -0.15419148 0.05221036 -0.030103177 -0.12537378 0.3351417 -0.26104066
0.015155971 0.1376808 0.06172964 0.22131702 -0.09429458 0.07047886 -0.014641196 0.111114025
-0.19852474 -0.3194859 0.2748666 0.28851596 0.34773615 -0.1034846 -0.24726154 -0.3012957
0.13266918 -0.011231542 -0.0102877915 0.2243245 0.21501824 -0.102262944 0.2984036 -0.2037025
-0.0021019876 0.3711742 0.26723668 -0.191614 -0.17638533 -0.12809463 0.34563896 0.2133309
0.079480946 -0.18140993 0.16036972 -0.028689027 0.07856509 -0.33378637 -0.07273963 -0.19850798
00000000: 4456 fcbd 8d5e ab3e 833a 94be ca78 393e
00000010: f05d 0e3d 78aa 28bd ce08 3e3e 4da0 acbe
00000020: b9a5 a03e 784e f0bd e91b 873e 1c07 46be
00000030: 4721 813e 6019 653d 7c72 bfbd e574 b63e
00000040: 20e9 bdbd 90e5 1fbd 5fe4 1dbe 88da 553d
00000050: f09a f6bc fc61 00be b197 ab3e 1fa7 85be
00000060: c050 783c 32fc 0c3e 38d8 7c3d eea0 623e
00000070: 841d c1bd 3857 903d a0e1 6fbc c08f e33d
00000080: 124a 4bbe a893 a3be 51bb 8c3e 5db8 933e
00000090: 790a b23e bcef d3bd 2132 7dbe 6e43 9abe
000000a0: 6eda 073e 8004 38bc 208e 28bc 52b5 653e
000000b0: be2d 5c3e 3c6f d1bd 5bc8 983e 6397 50be
000000c0: 80c1 09bb 8b0a be3e 3fd3 883e 7636 44be
000000d0: 5b9e 34be 3d2b 03be 97f7 b03e 6a73 5a3e
000000e0: e8c6 a23d 86c3 39be f637 243e 4005 ebbc
000000f0: bce6 a03d 0ce6 aabe 84f8 94bd ad45 4bbe

encoder.conv1.lin_r.weight f4 [64, 7]
-0.25704435 0.15738323 -0.028343707 -0.30837908 -0.12763077 0.042248428 0.24927953 0.30046198
0.19824389 0.36454627 0.2522116 0.35934976 0.20922491 0.28978845 -0.17489971 0.32848933
-0.36805043 -0.09477979 0.016426474 0.18790725 0.06559956 0.2510942 0.18954304 0.048552036
0.337774 0.29743603 0.26225862 -0.2841379 0.3422936 0.23741338 -0.18124042 0.062740654
-0.26512927 -0.065309346 -0.09827387 -0.2401978 0.3514246 0.14259079 0.35194793 0.044568986
0.06205553 -0.12998413 -0.34268475 0.20750865 -0.15831728 -0.19943042 0.040538132 0.3306583
-0.032688975 0.018241763 -0.050747752 0.18375966 -0.20513012 -0.13518977 0.29638258 -0.29879975
-0.19979611 -0.36674193 0.11566687 0.05775231 0.036594152 0.15476188 0.00015041232 0.36345688
0.058916062 0.060794294 0.1465933 0.2261317 0.065896004 0.06871012 0.13635966 0.23551258
-0.19825274 -0.36013559 -0.06888634 0.11332303 -0.110516936 0.006039828 -0.03497243 -0.02199316
-0.114469826 0.09654671 -0.3437582 0.091824144 -0.15997449 -0.06411725 0.3493187 -0.28070763
0.3665667 -0.231374 0.1494812 -0.2775605 -0.1870971 -0.1937511 -0.04766649 -0.35016704
-0.16830955 -0.095855296 -0.12136343 0.24906853 0.073807746 0.086661935 -0.24806134 0.30063364
-0.057500094 0.15099755 0.1874195 0.26163945 0.31575832 -0.3081255 0.28056255 -0.06265214
0.049928784 0.08864024 0.21634534 -0.13630106 -0.12415734 0.032224715 -0.33878365 -0.20773467
0.3039314 -0.09968433 -0.17417365 0.1749027 0.01787275 -0.3775259 -0.28133035 -0.26694894
0.2584212 -0.31586915 -0.32454014 0.14048383 -0.02923584 -0.19589333 -0.07195026 0.22851774
0.14028594 0.15986785 -0.17484212 0.26954088 -0.3657542 -0.08308217 0.15412304 -0.17811272
0.074700594 0.10989934 -0.32322243 0.20125994 -0.10027191 0.07689446 -0.19843291 -0.3208421
-0.018304497 0.23695633 0.19120768 -0.0236758 -0.16386199 -0.22551322 -0.21205825 -0.32825592
-0.119496465 0.04539281 0.36893424 -0.3704674 0.0503335 0.060025007 -0.18611787 -0.11500502
0.10306814 0.15751323 0.080830514 0.11210805 -0.16101354 -0.11933601 -0.19782473 0.07094404
-0.19114564 -0.07443404 0.022401005 0.00023108721 -0.31112486 -0.3765568 0.33124253 -0.25783616
0.26708695 -0.34555078 0.18433681 -0.10133916 0.09969118 0.07692164 0.3397359 0.3073837
0.118258834 0.1979352 0.21286312 0.22098157 -0.15690246 0.35725847 0.26796088 -0.15141083
-0.047451735 0.18121085 0.044527173 0.19745997 -0.044164926 0.3673359 -0.26172155 0.32165006
0.22689316 -0.08197978 0.17261383 -0.297395 -0.091041595 0.2508817 -0.29309183 0.33907184
0.106399685 0.11398515 0.024934083 -0.18971607 -0.26923034 0.32686755 0.11257622 0.26508316
0.34702793 0.30632564 0.10750076 -0.35716778 -0.29792765 -0.2287068 0.0321925 -0.037269384
-0.24473457 0.12466213 -0.1639758 0.093266785 0.245078 0.23278895 0.09704813 0.36706725
-0.23439038 0.09894678 -0.13572198 0.22698799 -0.23942219 0.12957677 -0.20335984 0.2768514
-0.06662965 0.24505886 -0.10889131 -0.23668687 -0.060707957 0.3070148 0.17215887 0.32557347
00000000: 519b 83be 1229 213e 1031 e8bc dde3 9dbe
00000010: a4b1 02be b00c 2d3d 2243 7f3e 27d6 993e
00000020: 7200 4b3e cfa5 ba3e e121 813e b1fc b73e
00000030: 0e3f 563e 275f 943e e918 33be c12f a83e
00000040: 1b71 bcbe e81b c2bd d090 863c c26a 403e
00000050: 1059 863d 6b8f 803e 9217 423e 80de 463d
00000060: b7f0 ac3e 8949 983e c346 863e 867a 91be
00000070: 1b41 af3e 7e1c 733e 1797 39be 2c7e 803d
00000080: 06bf 87be e8c0 85bd d043 c9bd 69f6 75be
00000090: eded b33e 5203 123e 8532 b43e f88d 363d
000000a0: f02d 7e3d 8f1a 05be 6074 afbe 267d 543e
000000b0: ed1d 22be 7d37 4cbe 500b 263d 0b4c a93e
000000c0: e0e4 05bd c06f 953c e0dc 4fbd 7e2b 3c3e
000000d0: a10d 52be 306f 0abe 75bf 973e 48fc 98be
000000e0: 5a97 4cbe 99c5 bbbe c0e2 ec3d b08d 6c3d
000000f0: c0e3 153d e679 1e3e 00b8 1d39 0517 ba3e
00000100: f851 713d 7003 793d 8e1c 163e 128f 673e
00000110: 7cf4 863d e4b7 8c3d dea1 0b3e 362a 713e
00000120: c402 4bbe b163 b8be 4814 8dbd e815 e83d
00000130: b456 e2bd c0e9 c53b 403f 0fbd 002b b4bc
00000140: 286f eabd 48ba c53d 1301 b0be 4c0e bc3d
00000150: 5ad0 23be e84f 83bd e7d9 b23e e9b8 8fbe
00000160: a1ae bb3e 4eed 6cbe 9a11 193e 691c 8ebe
00000170: 6296 3fbe b066 46be f03d 43bd 1849 b3be
00000180: 5759 2cbe c84f c4bd 648d f8bd d20b 7f3e
00000190: 8428 973d d07b b13d cb03 7ebe a7ec 993e
000001a0: 3885 6bbd 1a9f 1a3e e6ea 3f3e 9bf5 853e
000001b0: 13ab a13e a0c2 9dbe e5a5 8f3e c44f 80bd
000001c0: 2082 4c3d 0489 b53d a289 5d3e 8192 0bbe
000001d0: 3446 febd 10fe 033d 0d75 adbe 66b8 54be
000001e0: e59c 9b3e 4c27 ccbd 945a 32be b219 333e
000001f0: e069 923c 134b c1be 880a 90be 88ad 88be
00000200: c94f 843e 9ab9 a1be 202a a6be feda 0f3e
00000210: 0080 efbc 4398 48be a85a 93bd 8e00 6a3e
00000220: 1ea7 0f3e 66b4 233e d009 33be 4301 8a3e
00000230: 2244 bbbe fc26 aabd 6ed2 1d3e 2e63 36be
00000240: a0fc 983d e812 e13d 697d a5be 1617 4e3e
00000250: 5c5b cdbd d87a 9d3d ff31 4bbe 6a45 a4be
00000260: 50f3 95bc aea4 723e f2cb 433e c0f3 c1bc
00000270: 70cb 27be f0ec 66be cc25 59be 2911 a8be
00000280: 90ba f4bd d0ed 393d f3e4 bc3e e7ad bdbe
00000290: 802a 4e3d c8dc 753d af95 3ebe c087 ebbd
000002a0: 6415 d33d 264b 213e 788a a53d e898 e53d
000002b0: bce0 24be 7066 f4bd 9192 4abe 1c4b 913d
000002c0: afbb 43be e070 98bd 5082 b73c 0050 7239
000002d0: c24b 9fbe 0ecc c0be 9f98 a93e 1a03 84be
000002e0: 9fbf 883e 08ec b0be cac2 3c3e e88a cfbd
000002f0: e42a cc3d 1889 9d3d ddf1 ad3e 6561 9d3e
00000300: b031 f23d 86af 4a3e caf8 593e fe48 623e
00000310: 0aab 20be 95ea b63e 2b32 893e 710b 1bbe
00000320: c05c 42bd 568f 393e 2062 363d f232 4a3e
00000330: 48e6 34bd 7313 bc3e 5e00 86be 51af a43e
00000340: ae56 683e 04e5 a7bd aec1 303e 2844 98be
00000350: 0474 babd 9173 803e 2210 96be d39a ad3e
00000360: 14e8 d93d 0c71 e93d 9042 cc3c ee44 42be
00000370: 8fd8 89be 2f5b a73e 5c8e e63d fbb8 873e
00000380: a5ad b13e b7d6 9c3e 5c29 dc3d b2de b6be
00000390: f989 98be 1e32 6abe 48dc 033d c8a7 18bd
000003a0: b39b 7abe dc4e ff3d 46e9 27be a802 bf3d
000003b0: baf5 7a3e 3a60 6e3e 2cc1 c63d 3df0 bb3e
000003c0: 0804 70be 9ca4 ca3d b4fa 0abe 8a6f 683e
000003d0: 172b 75be c6af 043e 903d 50be 77bf 8d3e
000003e0: 2075 88bd b6f0 7a3e 6802 dfbd 0b5e 72be
000003f0: e8a8 78bd 0b31 9d3e 6a4a 303e 91b1 a63e

encoder.conv2.lin_l.weight f4 [64, 64]
0.031693354 -0.06729142 0.118611485 -0.07328862 -0.105043575 0.033107683 -0.060552806 0.11717455
-0.06528993 -0.012846842 0.080117926 0.011756256 0.11547868 0.11686273 -0.05681148 -0.06435016
-0.016326368 -0.04417114 0.058561295 0.048975557 -0.08375041 0.08124255 0.09467496 0.0653193
-0.11029275 0.004817754 -0.09218709 0.006925091 0.024395928 -0.02290167 -0.09891713 -0.03207265
-0.045257464 -0.079856515 0.098890856 -0.08579624 -0.09197241 -0.07778253 0.07978031 -0.042517573
-0.006355226 -0.054101095 0.08846015 0.022172675 0.0820393 -0.049974456 -0.04601787 -0.020540848
0.08553369 0.113608465 0.124772504 -0.066286504 -0.004011601 0.074710876 0.09581488 -0.12202896
0.01872231 -0.11739889 -0.07132931 -0.029484287 0.021488339 0.02521722 0.07497628 -0.103917435
-0.03333783 0.11795099 0.019406214 -0.064730525 -0.10825625 -0.042675093 0.049259275 -0.12300733
0.04956962 0.008670166 0.021570355 0.010510564 -0.06667353 0.08434746 -0.008231327 0.0387962
0.04498376 0.08926225 0.02318734 0.06559043 0.08091672 -0.024561718 0.09789123 0.047681525
-0.012761891 0.0940506 0.030422524 0.038855806 -0.12334345 0.0024204701 -0.067205295 0.089404985
-0.050585136 0.095110685 0.02352281 -0.0049613714 0.083223864 0.1122164 -0.061103895 -0.015697867
-0.026140407 0.004366219 -0.08828853 0.0933772 0.049074978 0.05816531 0.04399903 -0.044972867
0.07548557 0.062004298 0.11706181 -0.1002412 -0.011550769 -0.025365919 0.046217382 0.062906936
0.03475508 -0.062150225 -0.09934306 0.1053084 -0.11968197 0.11736414 -0.05549994 -0.092032775
0.06002742 0.019147307 -0.043658346 0.017390445 0.12387653 0.08397624 0.092517704 -0.094525054
-0.026832074 0.037031323 -0.11430852 -0.122092366 -0.07640469 0.032936454 0.105911374 -0.04682356
-0.0608553 0.0020767301 -0.03963688 -0.09938058 0.089016065 -0.11763981 0.07894981 -0.081364706
0.115572765 -0.068771064 -0.03373918 -0.10717626 0.018399745 -0.015571967 0.019681036 -0.08567189
0.0034599602 0.058542997 -0.11869636 -0.029744878 -0.113395125 -0.11891398 -0.11260508 -0.09399089
0.052886426 -0.124411434 0.12330598 0.06784469 -0.0426227 0.07871066 0.111383095 -0.04567173
-0.018687576 0.048014835 0.0123529285 0.06187363 -0.031000108 0.047123402 -0.014970973 -0.011483103
0.011560425 -0.05603394 0.123199254 0.12161721 0.05246252 -0.079358205 -0.08759625 0.0999596
0.06855911 -0.111846134 -0.08474448 -0.10672097 -0.04612209 -0.008428231 -0.028076455 -0.060188368
0.084835544 -0.10060997 0.051006705 0.0028737634 -0.115272135 -0.10247962 0.07742114 0.05376084
-0.11702965 0.087601915 -0.12218805 -0.067462236 -0.116137534 0.10207899 -0.024492368 -0.071336195
-0.0051407367 0.11949955 0.12074703 0.0887468 -0.05060467 -0.021830618 -0.118832216 -0.028187737
0.018871322 0.07094288 0.0043033957 0.111094296 0.057203963 0.121037945 0.020811051 0.102608696
0.041132182 0.0758113 -0.08127044 -0.01640825 -0.038463816 -0.0765897 0.113129154 -0.025439888
0.10303298 -0.099279255 0.09374106 0.06792234 -0.026995227 -0.04104483 0.09710337 0.04187891
-0.040093213 -0.036701888 0.04438092 0.038470656 0.08741814 -0.0799118 0.11314647 -0.045498222
00000000: e4d0 013d 16d0 89bd 94ea f23d 5818 96bd
00000010: 1621 d7bd ec9b 073d 3806 78bd 36f9 ef3d
00000020: bab6 85bd 907b 52bc de14 a43d 509d 403c
00000030: 1680 ec3d ba55 ef3d 28b3 68bd 04ca 83bd
00000040: e0be 85bc ccec 34bd f8dd 6f3d 989a 483d
00000050: 5685 abbd 7e62 a63d f2e4 c13d 20c6 853d
00000060: 2ae1 e1bd 40de 9d3b 96cc bcbd e0eb e23b
00000070: f8d9 c73c 489c bbbc 1095 cabd 9c5e 03bd
00000080: e45f 39bd d08b a3bd 4a87 ca3d f0b5 afbd
00000090: 085c bcbd 724c 9fbd dc63 a33d e826 2ebd
000000a0: 803f d0bb 1c99 5dbd 982a b53d 78a3 b53c
000000b0: 3804 a83d 04b2 4cbd 3c7d 3cbd 4845 a8bc
000000c0: 4a2c af3d 8eab e83d ba88 ff3d 38c1 87bd
000000d0: c073 83bb 0402 993d 983a c43d 52ea f9bd
000000e0: 885f 993c d46e f0bd 1a15 92bd 0889 f1bc
000000f0: 5008 b03c 5894 ce3c 2a8d 993d aad2 d4bd
00000100: 408d 08bd 4a90 f13d c8f9 9e3c 7091 84bd
00000110: 74b5 ddbd 14cc 2ebd 18c4 493d 44eb fbbd
00000120: 8409 4b3d 500d 0e3c 50b4 b03c 8034 2c3c
00000130: 228c 88bd 5cbe ac3d b0dc 06bc c4e8 1e3d
00000140: e440 383d 20cf b63d 60f3 bd3c 4654 863d
00000150: aab7 a53d a835 c9bc 327b c83d b44d 433d
00000160: 4017 51bc 9a9d c03d a838 f93c 4427 1f3d
00000170: 7e9b fcbd c0a0 1e3b eea2 89bd f619 b73d
00000180: 5c32 4fbd 64c9 c23d e8b2 c03c 0093 a2bb
00000190: 4671 aa3d b6d1 e53d 1448 7abd d098 80bc
000001a0: 6824 d6bc 8012 8f3b 9ed0 b4bd 8c3c bf3d
000001b0: d802 493d c03e 6e3d 5438 343d 7835 38bd
000001c0: 2e98 9a3d 38f8 7d3d 1abe ef3d 424b cdbd
000001d0: 703f 3dbc 30cc cfbc 704e 3d3d 5ad5 803d
000001e0: 585b 0e3d 3c91 7ebd 6074 cbbd eeab d73d
000001f0: d21b f5bd 9c5c f03d e853 63bd ae7b bcbd
00000200: 50df 753d d0da 9c3c 18d3 32bd 6876 8e3c
00000210: fab2 fd3d bcfb ab3d ec79 bd3d 5a96 c1bd
00000220: f0ce dbbc 28ae 173d 961a eabd 900b fabd
00000230: 107a 9cbd 60e8 063d 10e8 d83d 10ca 3fbd
00000240: 6843 79bd c019 083b 485a 22bd 0c88 cbbd
00000250: 0e4e b63d 24ed f0bd 70b0 a13d 8aa2 a6bd
00000260: 6ab1 ec3d d8d7 8cbd 1832 0abd 3a7f dbbd
00000270: 10bb 963c 9021 7fbc 203a a13c be74 afbd
00000280: 80c0 623b c8ca 6f3d 1417 f3bd 88ab f3bc
00000290: b43b e8bd 2c89 f3bd 7e9d e6bd 4c7e c0bd
000002a0: 709f 583d 6ccb febd d887 fc3d 28f2 8a3d
000002b0: 2495 2ebd 0e33 a13d d21c e43d 4812 3bbd
000002c0: b016 99bc 34ab 443d f063 4a3c 346f 7d3d
000002d0: f0f3 fdbc 7804 413d d048 75bc a023 3cbc
000002e0: f067 3d3c d883 65bd e44f fc3d 7212 f93d
000002f0: f0e2 563d 8e86 a2bd aa65 b3bd 9eb7 cc3d
00000300: b868 8c3d 960f e5bd 848e adbd 8690 dabd
00000310: 84ea 3cbd 9016 0abc 9800 e6bc 1488 76bd
00000320: 42be ad3d 9a0c cebd 68ec 503d c055 3c3b
00000330: cc13 ecbd d6e0 d1bd fa8e 9e3d 5434 5c3d
00000340: 3ead efbd a268 b33d ba3d fabd a429 8abd
00000350: 84d9 edbd ca0e d13d 38a4 c8bc b618 92bd
00000360: a073 a8bb 2ebc f43d 384a f73d e2c0 b53d
00000370: d846 4fbd 20d6 b2bc 4e5e f3bd f8e9 e6bc
00000380: 0898 9a3c 804a 913d 8003 8d3b 6885 e33d
00000390: b44e 6a3d bee2 f73d f07b aa3c 8224 d23d
000003a0: 387a 283d f442 9b3d 1e71 a6bd 986a 86bc
000003b0: 3c8c 1dbd 10db 9cbd 42b0 e73d 5067 d0bc
000003c0: f402 d33d ec52 cbbd 50fb bf3d de1a 8b3d
000003d0: 1825 ddbc a01e 28bd 22de c63d 3889 2b3d
000003e0: c838 24bd b854 16bd c4c8 353d 6893 1d3d
000003f0: 4808 b33d cca8 a3bd 56b9 e73d 585c 3abd

encoder.conv2.lin_l.bias f4 [64]
0.09698905 0.12140876 0.10279855 0.04192041 0.09971425 -0.08526255 -0.013931841 -0.084844366
-0.10427056 0.078726605 0.037600145 -0.00034324825 0.035348102 0.015385449 0.051998094 -0.064220846
0.064573854 -0.09469168 0.04795648 0.12318027 -0.09991263 -0.100699484 -0.09002654 -0.040320233
-0.08343394 0.067791805 -0.08160932 0.081333965 -0.024552807 0.11219481 0.036358327 0.090916544
0.04497589 0.06139484 -0.0058352053 0.072568655 -0.065678 0.09289889 0.10630718 0.12320754
0.09757243 0.030780345 -0.037835106 0.123821765 0.018012807 0.09486662 0.01510413 -0.0904962
0.0293203 -0.10395311 -0.08359711 -0.123473525 -0.050131366 0.032362208 -0.09384942 -0.070340246
0.10866113 -0.031137913 -0.12400207 -0.10310124 0.08762583 -0.08160062 -0.083630815 0.04759544
00000000: 32a2 c63d 28a5 f83d 0c88 d23d bcb4 2b3d
00000010: fc36 cc3d 229e aebd 6042 64bc e2c2 adbd
00000020: ce8b d5bd 6a3b a13d 9c02 1a3d 00f6 b3b9
00000030: 2cc9 103d 4013 7c3c f4fb 543d 3886 83bd
00000040: 4c3f 843d b6ed c1bd 046e 443d f045 fc3d
00000050: fe9e ccbd 883b cebd d65f b8bd d426 25bd
00000060: 6adf aabd 6ed6 8a3d ca22 a7bd 6c92 a63d
00000070: f822 c9bc 64c6 e53d 78ec 143d 7432 ba3d
00000080: a438 383d 2879 7b3d 4035 bfbb e09e 943d
00000090: 3082 86bd c641 be3d 94b7 d93d 3c54 fc3d
000000a0: 0ed4 c73d 1027 fc3c fcf8 1abd 4496 fd3d
000000b0: 988f 933c 6e49 c23d 5077 773c 1256 b9bd
000000c0: 2031 f03c 5ee5 d4bd f634 abbd b0df fcbd
000000d0: 8c56 4dbd 3c8e 043d 2034 c0bd 8c0e 90bd
000000e0: ba89 de3d f014 ffbc ccf4 fdbd be26 d3bd
000000f0: 2c75 b33d 3a1e a7bd a246 abbd 70f3 423d

encoder.conv2.lin_r.weight f4 [64, 64]
-0.093525976 -0.12316601 -0.08439334 0.08672899 -0.08055836 0.009299174 -0.03323044 -0.09191051
0.04601781 0.075207785 -0.021082357 -0.010880277 -0.00029820204 0.05120489 0.09359339 -0.020828277
0.005235225 0.030123875 -0.056219995 0.11961512 -0.0932048 -0.03137736 0.021312684 0.05687633
-0.109671354 0.099890575 0.034861863 -0.089150906 -0.012450576 -0.049171418 0.0017386675 -0.0694377
0.07348509 0.09045109 -0.07622492 0.08213793 -0.03518881 0.08414784 -0.008695528 0.054731503
0.031280473 -0.030744955 -0.06698528 0.026149929 0.03977622 0.09038024 -0.013934925 0.105731964
0.080277756 -0.08555168 0.111315295 0.1157849 -0.0003248453 -0.059488386 -0.12262562 0.11045025
-0.020043775 0.04024625 0.12289643 0.120483354 0.0695844 -0.055564225 0.106312096 -0.062460795
-0.11853482 -0.058676764 -0.014255047 0.057984978 -0.055175245 -0.014064953 -0.075161725 -0.119291306
-0.053488642 -0.053468257 -0.07640031 0.113771126 -0.028583437 -0.03039077 0.08218579 0.033486336
0.04076405 0.024153352 0.002610594 -0.06933391 -0.045143828 0.08058514 -0.016978458 0.008772731
-0.09931211 0.015152484 -0.086026534 -0.08513005 -0.08112325 -0.040654823 0.031488135 -0.120603636
0.018192843 -0.12124774 0.11497602 0.09773572 0.08976862 0.01851733 -0.027285218 -0.050768122
-0.01729159 -0.07477385 -0.019741938 -0.02273202 -0.053561285 -0.016581506 -0.086399704 -0.002648294
-0.084935844 -0.0887634 -0.027271092 -0.060499176 0.055274352 -0.07795605 0.03155099 0.040028587
-0.008441314 0.048288032 0.11524691 -0.09042072 -0.06594716 0.05140014 -0.04952833 0.05141291
0.021190003 -0.044230565 -0.025513873 0.020591572 -0.0054130256 -0.0044890344 0.033984452 -0.004241705
0.03220983 -0.035255 -0.04813093 -0.038561076 0.02643402 -0.08696428 0.0054869056 0.035541847
-0.06471591 0.123099014 0.087689936 0.0074623674 0.006489739 -0.06859967 -0.057189807 -0.103216365
-0.07844739 -0.03872338 0.045029595 0.076633066 0.061049595 0.04066558 0.0566058 -0.06181577
-0.11217572 -0.0491395 -0.043567315 -0.097459435 0.058923587 0.059238076 -0.10154703 -0.105137214
-0.039260015 -0.11821006 0.00865604 -0.051861078 0.06507182 0.080776736 0.06354375 0.015229687
0.12231167 -0.0038600862 -0.10853125 0.07173388 -0.102137685 -0.10199697 0.056035325 0.014790401
-0.06607166 -0.08072694 0.124176994 0.05483423 0.003927797 0.108511075 -0.056399897 -0.06800744
0.06830713 0.10285674 -0.022511363 0.10176867 -0.05446425 -0.010419041 -0.07693641 0.07668038
0.05698839 -0.010651901 0.09169711 -0.04097441 -0.02312757 0.03169802 -0.019916296 -0.04759574
0.074456275 0.01003629 -0.09471044 -0.0052447915 0.1037028 -0.022934213 -0.019330472 0.069213316
0.025696859 0.112002194 0.08172032 0.023089215 0.02834794 -0.09663302 -0.014436156 0.068313256
-0.052206993 -0.030134588 0.061942995 -0.066548064 -0.03569971 -0.12102236 -0.07637289 -0.029278025
0.115253046 -0.03090626 -0.089863494 0.066731825 -0.1041632 0.07577965 -0.031763434 0.04036595
0.09968126 -0.085530326 0.026506677 -0.06941025 -0.003601402 0.056519747 -0.0273135 0.021896854
0.07685374 0.01890172 0.010164082 -0.0021544695 -0.10400918 0.11053175 -0.005022764 -0.0997559
00000000: 8c8a bfbd 763e fcbd 6ad6 acbd f89e b13d
00000010: c8fb a4bd 905b 183c a41c 08bd 943b bcbd
00000020: 2c7d 3c3d 8a06 9a3d e8b4 acbc 3043 32bc
00000030: 0058 9cb9 38bc 513d e4ad bf3d 10a0 aabc
00000040: 408c ab3b 58c6 f63c f046 66bd c6f8 f43d
00000050: 28e2 bebd 8c85 00bd f097 ae3c 28f7 683d
00000060: 609b e0bd 6e93 cc3d 50cb 0e3d c094 b6bd
00000070: 80fd 4bbc f867 49bd 00e4 e33a 5a35 8ebd
00000080: 5a7f 963d 6c3e b93d d01b 9cbd ee37 a83d
00000090: 2422 10bd b455 ac3d b077 0ebc 242e 603d
000000a0: f41f 003d d8dc fbbc 942f 89bd 6038 d63c
000000b0: 64ec 223d 4619 b93d 504f 64bc 008a d83d
000000c0: aa68 a43d b835 afbd 46f9 e33d a220 ed3d
000000d0: 0050 aab9 18aa 73bd 2423 fbbd be33 e23d
000000e0: d832 a4bc 40d9 243d 20b1 fb3d fabf f63d
000000f0: 4482 8e3d 5097 63bd 28ba d93d e4d6 7fbd
00000100: 62c2 f2bd 0c57 70bd 008e 69bc a881 6d3d
00000110: 70ff 61bd b070 66bc 64ee 99bd 004f f4bd
00000120: e816 5bbd 8801 5bbd c477 9cbd d600 e93d
00000130: d027 eabc 10f6 f8bc 0651 a83d f828 093d
00000140: 34f8 263d 40dd c53c 8016 2b3b f0fe 8dbd
00000150: bce8 38bd d209 a53d 6816 8bbc 80bb 0f3c
00000160: 2664 cbbd 2042 783c ae2e b0bd aa58 aebd
00000170: f223 a6bd ac85 26bd b4f9 003d 0aff f6bd
00000180: 2809 953c bc50 f8bd 8c78 eb3d aa29 c83d
00000190: 9cd8 b73d a8b1 973c 4085 dfbc 3cf2 4fbd
000001a0: 18a7 8dbc 0823 99bd d8b9 a1bc 8038 babc
000001b0: 1463 5bbd f0d5 87bc 54f2 b0bd 008f 2dbb
000001c0: d8f2 adbd 96c9 b5bd a067 dfbc fccd 77bd
000001d0: 5c67 623d 6ca7 9fbd 9c3b 013d 04f5 233d
000001e0: 704d 0abc acc9 453d 9206 ec3d 802e b9bd
000001f0: 4e0f 87bd f488 523d 38de 4abd 5896 523d
00000200: a896 ad3c 1c2b 35bd 7802 d1bc a8af a83c
00000210: c05f b1bb c018 93bb 4833 0b3d 00fe 8abb
00000220: 74ee 033d 8c67 10bd f024 45bd 38f2 1dbd
00000230: 288c d83c 541a b2bd 80cb b33b 5494 113d
00000240: c689 84bd 561b fc3d c896 b33d e086 f43b
00000250: e0a7 d43b fc7d 8cbd dc3f 6abd 1a63 d3bd
00000260: 06a9 a0bd 689c 1ebd f470 383d ccf1 9c3d
00000270: 240f 7a3d f490 263d 7cdb 673d 8832 7dbd
00000280: 62bc e5bd 8046 49bd a473 32bd d098 c7bd
00000290: dc59 713d a0a3 723d e4f7 cfbd 2e52 d7bd
000002a0: 1ccf 20bd 1e18 f2bd 10d2 0d3c 486c 54bd
000002b0: 6044 853d 466e a53d 3a23 823d f085 793c
000002c0: 8a7e fa3d 80f9 7cbb a245 debd 36e9 923d
000002d0: 902d d1bd cae3 d0bd 4c85 653d 7053 723c
000002e0: 9450 87bd 2a54 a5bd 8250 fe3d dc99 603d
000002f0: c0b4 803b 0e3b de3d 9403 67bd 7c47 8bbd
00000300: 9ce4 8b3d 8ea6 d23d c069 b8bc 186c d03d
00000310: e815 5fbd a0b4 2abc d690 9dbd 9a0a 9d3d
00000320: a86c 693d 5085 2ebc b2cb bb3d c8d4 27bd
00000330: 0876 bdbc c8d5 013d 8027 a3bc c0f3 42bd
00000340: 887c 983d 406f 243c 8cf7 c1bd 80dc abbb
00000350: 2262 d43d 88e0 bbbc f05a 9ebc b6bf 8d3d
00000360: 3882 d23c 6861 e53d fc5c a73d 9825 bd3c
00000370: f039 e83c 88e7 c5bd a085 6cbc d2e7 8b3d
00000380: 00d7 55bd d0dc f6bc f0b7 7d3d 5a4a 88bd
00000390: dc39 12bd 92da f7bd 6469 9cbd 78d8 efbc
000003a0: ca09 ec3d 202f fdbc 5a0a b8bd b2aa 883d
000003b0: 8453 d5bd 5c32 9b3d 601a 02bd c456 253d
000003c0: b025 cc3d 862a afbd 8824 d93c f626 8ebd
000003d0: 8005 6cbb 4081 673d 90c0 dfbc 0861 b33c
000003e0: 7e65 9d3d c8d7 9a3c 4087 263c 0032 0dbb
000003f0: c402 d5bd 785e e23d 0096 a4bb d24c ccbd

decoder.mlp.0.weight f4 [128, 64]
-0.061954483 -0.09714438 -0.03733982 -0.066307545 0.048733756 -0.01176849 0.08111358 -0.07403293
0.09528361 0.09372537 0.027174398 -0.05174102 -0.04295358 -0.0073988736 0.09870736 0.09250091
0.034187376 0.04929009 0.04736267 -0.0140681565 -0.10461894 -0.08227484 -0.112058 -0.07765949
-0.08540964 -0.06842254 -0.06658183 -0.11391999 0.074837446 0.013731569 0.0103741735 0.0836277
-0.06808989 0.03549835 -0.037891358 -0.09523834 -0.055814654 0.01955469 0.04732135 0.026000947
-0.1219417 -0.064967215 0.09531239 0.028173983 0.076319814 -0.040058747 0.076008454 0.11211972
0.06264165 0.012310803 0.124767855 -0.11728343 -0.11894111 -0.07679336 0.09782556 -0.028042287
-0.057824984 0.02703908 -0.07530829 0.08048366 -0.025855795 0.10974975 0.0930773 -0.08820635
0.018206567 0.036828622 -0.08210266 -0.03576164 0.094088376 0.06352742 0.09446049 -0.03159499
0.041534662 -0.11358687 -0.11032154 0.10336155 -0.07856284 0.107444614 0.08164339 -0.044671103
0.040985614 -0.027238399 0.12464261 -0.027956843 -0.12081514 -0.0707719 0.03231089 0.079022795
0.08290543 0.011541039 -0.08225457 0.040585846 -0.0054931194 0.05552271 0.042627394 -0.005683854
0.08101927 -0.040912867 -0.02756241 0.036614835 -0.07076065 -0.06101413 0.046960622 0.12062533
-0.049220398 -0.013822123 0.05878356 -0.019906104 0.052748427 0.07810706 0.03848523 0.023290873
-0.040661097 0.051623836 0.105550736 -0.073396906 -0.06613238 -0.05929084 0.07764652 0.051075205
-0.049390107 0.028720453 0.05117373 0.045643672 -0.087577045 -0.08518942 -0.0881394 0.00048488379
-0.07422377 -0.11447224 0.09619191 -0.06030065 0.080037266 -0.07739551 -0.12459423 -0.064332455
0.011404946 0.11050326 0.010039255 0.00263457 0.0075267106 0.11722405 0.10774961 0.08115536
-0.022265494 -0.058302388 -0.059994727 -0.0062573403 0.06840393 -0.0056355894 -0.006579891 0.07348849
0.03588347 -0.07948679 0.014905438 -0.12341614 -0.052963182 -0.023727462 -0.08574323 0.0045558363
0.066023916 -0.032739058 -0.0338483 0.0227876 0.096658275 -0.003686875 -0.10952635 -0.036746368
0.1094242 -0.11000039 -0.10062578 -0.03697948 0.108169645 0.11187856 0.10802786 -0.05497639
0.03250657 -0.038425654 0.11199263 0.059679896 -0.001445666 0.0589623 -0.01082702 0.05840969
-0.097511694 0.08221555 -0.05804062 -0.09713614 0.015437171 0.03924769 -0.10883242 -0.047463715
0.04495254 -0.12120946 0.123984694 0.11399056 0.047670558 0.03350097 0.05840294 0.021522269
-0.087362275 0.068732485 0.058346882 -0.11562057 -0.11042784 0.011092737 -0.004891008 0.03154859
-0.052594244 -0.051590204 -0.06273289 -0.03401716 -0.05193536 0.079249814 -0.050905526 0.07604711
-0.08900529 0.09375304 -0.051522598 -0.0569759 -0.040830567 0.01117602 0.02470848 -0.034194097
0.095342234 -0.12079702 -0.048192963 0.009799436 -0.06670658 -0.10248572 0.056576416 0.058097944
0.09750369 0.01216279 -0.007574454 -0.06178628 -0.05153382 -0.05431539 0.0574252 -0.08165993
0.02604422 -0.11119425 -0.095280066 -0.013981745 -0.053996354 0.10670142 0.119954586 0.015569031
0.08698824 -0.11055097 0.08377266 -0.10358231 -0.043365866 0.07145871 -0.026113808 -0.037351057
00000000: fcc3 7dbd a2f3 c6bd a4f1 18bd 40cc 87bd
00000010: 0c9d 473d a0d0 40bc e01e a63d 949e 97bd
00000020: 0e24 c33d 16f3 bf3d d89c de3c 64ee 53bd
00000030: 18f0 2fbd 4072 f2bb 1627 ca3d 1e71 bd3d
00000040: 1008 0c3d 68e4 493d 5cff 413d 207e 66bc
00000050: 7442 d6bd b67f a8bd aa7e e5bd f00b 9fbd
00000060: 40eb aebd 1e21 8cbd 0e5c 88bd e24e e9bd
00000070: 6044 993d 60fa 603c 70f8 293c 0045 ab3d
00000080: b672 8bbd b866 113d f833 1bbd 520c c3bd
00000090: e89d 64bd 2831 a03c 08d4 413d f0ff d43c
000000a0: 92bc f9bd 880d 85bd 2433 c33d 20cd e63c
000000b0: 904d 9c3d a414 24bd 52aa 9b3d 069f e53d
000000c0: 444a 803d 40b3 493c 4a86 ff3d 4c32 f0bd
000000d0: 6697 f3bd d645 9dbd c458 c83d f0b8 e5bc
000000e0: e4d9 6cbd 1081 dd3c 3c3b 9abd 9ed4 a43d
000000f0: 88cf d3bc 7ac4 e03d 509f be3d 88a5 b4bd
00000100: f025 953c 9cd9 163d 7025 a8bd cc7a 12bd
00000110: 68b1 c03d aa1a 823d 8074 c13d c069 01bd
00000120: 4020 2a3d 3ca0 e8bd 42f0 e1bd 38af d33d
00000130: 8ee5 a0bd ec0b dc3d a634 a73d 0cf9 36bd
00000140: 88e0 273d 1023 dfbc a044 ff3d c005 e5bc
00000150: ee6d f7bd dcf0 90bd 6c58 043d b4d6 a13d
00000160: 52ca a93d a016 3d3c 1675 a8bd 583d 263d
00000170: a0ff b3bb c86b 633d 109a 2e3d a03f babb
00000180: 6eed a53d 4094 27bd 90ca e1bc 70f9 153d
00000190: f6ea 90bd f4e9 79bd c859 403d 6a0a f73d
000001a0: 549b 49bd 3076 62bc 08c7 703d 2012 a3bc
000001b0: bc0e 583d 98f6 9f3d b0a2 1d3d 80cc be3c
000001c0: 408c 26bd 8473 533d fc2a d83d 1e51 96bd
000001d0: 6a70 87bd f4da 72bd 2405 9f3d 3c34 513d
000001e0: 484d 4abd 2847 eb3c 8c9b 513d dcf4 3a3d
000001f0: 985b b3bd ca77 aebd 6e82 b4bd 0038 fe39
00000200: a202 98bd 6c70 eabd 4400 c53d d0fd 76bd
00000210: 94ea a33d 8a81 9ebd 422b ffbd bcc0 83bd
00000220: d0db 3a3c 884f e23d b07b 243c c0a8 2c3b
00000230: a0a2 f63b 2a13 f03d d4ab dc3d c834 a63d
00000240: 2066 b6bc 7cce 6ebd 08bd 75bd 600a cdbb
00000250: 5c17 8c3d c0aa b8bb 209c d7bb 2281 963d
00000260: 8cfa 123d f8c9 a2bd f035 743c 9ac1 fcbd
00000270: ecef 58bd 1860 c2bc 269a afbd 2049 953b
00000280: 8c37 873d 6419 06bd 84a4 0abd 10ad ba3c
00000290: c6f4 c53d 809f 71bb 5a4f e0bd 5c83 16bd
000002a0: cc19 e03d e247 e1bd e414 cebd cc77 17bd
000002b0: 0c88 dd3d 9620 e53d b63d dd3d ec2e 61bd
000002c0: 9c25 053d 3864 1dbd 645c e53d e872 743d
000002d0: 807c bdba 7482 713d d063 31bc 003f 6f3d
000002e0: 36b4 c7bd a060 a83d 00bc 6dbd 50ef c6bd
000002f0: 30ec 7c3c 30c2 203d 88e3 debd 5069 42bd
00000300: 2820 383d aa3c f8bd b0eb fd3d e273 e93d
00000310: 3442 433d 5038 093d ec37 6f3d 784f b03c
00000320: feea b2bd 9ec3 8c3d 24fd 6e3d 7aca ecbd
00000330: fe27 e2bd 50be 353c c044 a0bb 1839 013d
00000340: 106d 57bd 4050 53bd 1a7a 80bd 9455 0bbd
00000350: 2cba 54bd ba4d a23d 5082 50bd 96be 9b3d
00000360: 6848 b6bd 9801 c03d 5c09 53bd 905f 69bd
00000370: f43d 27bd a01b 373c 7069 ca3c 1c0f 0cbd
00000380: ca42 c33d 6e64 f7bd fc65 45bd d08d 203c
00000390: 769d 88bd 08e4 d1bd acbc 673d 1cf8 6d3d
000003a0: 04b0 c73d 7046 473c 2033 f8bb 9c13 7dbd
000003b0: 2015 53bd d079 5ebd b036 6b3d 523d a7bd
000003c0: b05a d53c d0b9 e3bd 3222 c3bd b013 65bc
000003d0: 482b 5dbd 4686 da3d c0aa f53d 4015 7f3c
000003e0: e426 b23d 8c68 e2bd 0091 ab3d f622 d4bd
000003f0: 68a0 31bd f258 923d a0ec d5bc 6cfd 18bd

decoder.mlp.0.bias f4 [128]
-0.045151547 -0.0432415 0.11070855 -0.029704764 0.0074524283 -0.12310088 -0.11349493 -0.06953697
0.10906081 -0.11468743 0.09981446 -0.121780485 0.0028487593 0.09845951 0.041043982 -0.06722519
0.022842139 0.008050472 -0.045982912 -0.061884806 0.06409748 0.0029712021 -0.016698152 0.112746954
0.07114568 0.025714427 -0.00041164458 -0.02012813 -0.05599232 -0.061435804 0.027466163 -0.008073464
-0.08035985 0.109196424 -0.055465937 -0.06439811 -0.06900932 -0.078743964 -0.063784435 0.0669671
-0.06810345 -0.0034028292 0.074307635 -0.0137658715 -0.052003875 0.02141568 0.02805321 -0.06078908
0.054673746 -0.062548235 0.11602917 -0.021854162 0.009757251 0.07211998 -0.098278925 0.11092241
0.123960644 -0.062674776 0.04808806 0.09624924 -0.11440891 0.022261143 0.10329099 -0.04192719
0.09942524 0.035650954 0.085975006 -0.014931962 0.05679241 0.011734247 0.025447607 0.03969036
0.023728147 -0.04241377 0.011379257 0.044927582 -0.0025072694 0.11583823 0.005291119 0.050778255
-0.11014831 0.0009226501 0.011119559 0.08519894 -0.10945591 0.010738105 0.07855977 -0.08766483
-0.008761093 -0.059279367 -0.03957303 -0.008475199 -0.04819277 -0.10691041 -0.09428108 -0.07714571
0.049398407 -0.0012931675 -0.03135015 -0.02449514 0.11135098 -0.09456386 0.0086559355 -0.05510497
0.015630305 0.08978216 0.10751361 0.06504181 -0.048325107 0.052161545 -0.07756153 -0.12323454
0.12409185 -0.049630314 0.072774455 0.024136811 -0.022688955 -0.07243821 -0.012613162 -0.08513743
-0.06501284 0.10427266 0.020748898 -0.109549806 0.05672373 0.1199422 0.07601461 -0.055141434
00000000: d4f0 38bd 001e 31bd 2abb e23d 6857 f3bc
00000010: 8033 f43b 501c fcbd 0870 e8bd 6669 8ebd
00000020: 465b df3d 3ee1 eabd 866b cc3d 0c68 f9bd
00000030: 40b2 3a3b 24a5 c93d bc1d 283d 5cad 89bd
00000040: 701f bb3c 20e6 033c 9458 3cbd ec7a 7dbd
00000050: 8a45 833d 80b8 423b 90ca 88bc e0e7 e63d
00000060: d4b4 913d 10a7 d23c 00d2 d7b9 c0e3 a4bc
00000070: 3458 65bd 1ca4 7bbd b800 e13c 9046 04bc
00000080: b493 a4bd 60a2 df3d 4030 63bd 28e3 83bd
00000090: c254 8dbd 8444 a1bd 6aa1 82bd 0c26 893d
000000a0: d279 8bbd 0002 5fbb 9a2e 983d 408a 61bc
000000b0: 0402 55bd f06f af3c d8cf e53c f8fd 78bd
000000c0: 94f1 5f3d 4a19 80bd b4a0 ed3d 8007 b3bc
000000d0: e0dc 1f3c a4b3 933d 7646 c9bd 4a2b e33d
000000e0: 14df fd3d a25b 80bd fcf7 443d 521e c53d
000000f0: 384f eabd 005d b63c 3a8a d33d d8bb 2bbd
00000100: 769f cb3d bc06 123d aa13 b03d 30a5 74bc
00000110: 289f 683d 0041 403c 8077 d03c 5c92 223d
00000120: 8861 c23c 10ba 2dbd 1070 3a3c fc05 383d
00000130: 0051 24bb 983c ed3d 2061 ad3b dcfc 4f3d
00000140: 7095 e1bd 00de 713a d02e 363c c87c ae3d
00000150: 6c2a e0bd e0ee 2f3c f2e3 a03d 9e89 b3bd
00000160: b08a 0fbc ecce 72bd 5417 22bd 90db 0abc
00000170: c865 45bd d8f3 dabd 7016 c1bd 92fe 9dbd
00000180: fc55 4a3d 807f a9ba 0469 00bd 08aa c8bc
00000190: fc0b e43d b2aa c1bd a0d1 0d3c c0b5 61bd
000001a0: 200b 803c b6df b73d 1830 dc3d a434 853d
000001b0: 8cf0 45bd 58a7 553d 94d8 9ebd 6462 fcbd
000001c0: de23 fe3d 2849 4bbd c60a 953d 90ba c53c
000001d0: 30de b9bc 7c5a 94bd 70a7 4ebc 885c aebd
000001e0: 7425 85bd e88c d53d 98f9 a93c a65b e0bd
000001f0: 2457 683d 42a4 f53d 8cad 9b3d fcdb 61bd

decoder.mlp.2.weight f4 [64, 128]
-0.02492541 -0.011228934 -0.044047818 0.08587628 -0.01449807 -0.059557334 0.003695175 -0.030382745
0.069341816 -0.05099541 0.03200289 -0.008994266 -0.039480574 0.010891378 -0.037750553 -0.028807856
0.02886922 0.0323333 0.06408963 0.023391448 -0.029029738 -0.029417299 0.0117409825 0.027830206
-0.018238634 -0.07612457 0.0876495 -0.08601318 0.0017930344 0.078134276 0.017797738 0.06974039
0.06686271 -0.06497342 -0.0018670335 -0.036665145 0.079290695 -0.05223267 0.06712227 -0.06891999
0.007519819 -0.075441465 -0.026628211 -0.012988649 -0.08303957 -0.05069484 -0.024907753 -0.009185106
0.06178657 -0.01653938 -0.033503097 0.077153616 -0.08706207 -0.031826783 0.011684269 0.026720144
-0.04056532 0.01706434 -0.0077155903 0.043142892 -0.036678683 -0.019797184 -0.03173527 -0.080495566
0.005186178 -0.008793436 0.076522045 -0.028573688 -0.019892164 -0.08368185 0.007964723 -0.03593298
-0.0877236 0.08755993 0.03344673 0.0062149614 -0.08274236 -0.04811049 -0.003642805 -0.032632884
-0.06362878 -0.07522957 -0.0053402483 -0.05730871 0.032024585 0.018695384 -0.017568015 0.056037165
-0.005523421 0.079559706 0.03638018 0.045789056 0.0755404 -0.03243751 -0.05919355 -0.036570072
-0.012042575 -0.086716644 -0.043543804 0.0044293404 0.055475853 -0.07401058 0.0006285906 0.040768437
0.012669809 0.013387971 -0.07989189 0.0066988617 0.01199615 0.054544993 0.031448543 -0.080944054
0.008112095 -0.049876254 0.0017896742 0.011224888 0.035323106 0.05579654 -0.0881112 0.071334295
0.07479546 -0.07751081 0.013865136 -0.058603305 0.06433926 0.04867559 0.08563534 0.07336136
0.033135302 0.013961062 0.019156143 0.011282057 0.04293946 0.03862398 0.045706816 0.08669367
0.02314075 0.039940543 -0.050033607 -0.006465949 -0.04570342 -0.08230356 -0.076362744 -0.08274078
0.026278086 -0.07148169 0.059889264 0.08836826 -0.026658714 -0.011758737 -0.0341449 -0.03388673
0.05727718 -0.08036487 -0.0027555898 0.08835264 0.087740265 0.038848512 -0.02304887 -0.050973937
0.02483774 0.001320228 0.033553854 -0.06267126 -0.0026395544 0.050034486 0.08353723 0.022061601
-0.07040517 0.04352618 0.06891335 -0.013713077 -0.08464979 -0.07564925 -0.07933801 -0.043703564
0.050223432 0.04849366 0.07499411 -0.019238353 -0.05453213 0.032482207 -0.040178526 0.007880673
-0.017858587 0.04596279 0.044846065 0.06693032 0.068887524 0.078880556 -0.026710175 0.064993046
-0.053348742 0.071167774 0.002532266 0.029460423 0.08169121 0.0053398237 0.03743673 0.037540354
-0.006625846 -0.048221484 0.044751607 0.0010891035 -0.055286106 0.021753393 -0.02055955 0.012036838
0.067082815 0.004001446 0.0011713654 0.04335592 0.0071847737 -0.055374615 -0.028837591 0.083330415
-0.011105359 -0.08036216 -0.085274115 -0.04635596 0.0018369704 -0.030744482 -0.037384402 -0.08487011
0.004347436 -0.073840395 0.04869046 0.075513 -0.08728426 0.061639003 0.049305715 -0.036114085
-0.043319628 0.08800801 0.018769845 0.061601885 0.0015879422 -0.0047709495 -0.047725763 -0.035463613
-0.0055884495 0.00880792 -0.0061842725 -0.025541373 0.077800445 0.024549134 -0.04526349 -0.07519046
0.019962348 0.055186234 -0.044586193 0.06855597 0.07136703 0.0029967055 0.07863147 0.017502956
00000000: 6030 ccbc 90f9 37bc 7c6b 34bd e7df af3d
00000010: 5089 6dbc 64f2 73bd c02a 723b 3ce5 f8bc
00000020: 1503 8e3d 90e0 50bd 7615 033d b05c 13bc
00000030: 62b6 21bd c071 323c 53a0 1abd 74fe ebbc
00000040: 247f ec3c ec6f 043d 6d41 833d 6c9f bf3c
00000050: c6cf edbc 8cfc f0bc 405d 403c 2cfc e33c
00000060: 3069 95bc 33e7 9bbd 9581 b33d ae27 b0bd
00000070: 4004 eb3a dd04 a03d 90cc 913c 0dd4 8e3d
00000080: 51ef 883d c910 85bd 40b7 f4ba 312e 16bd
00000090: 2963 a23d edf1 55bd 6777 893d ec25 8dbd
000000a0: d068 f63b 0e81 9abd 6823 dabc 58ce 54bc
000000b0: a610 aabd 64a5 4fbd 580b ccbc 207d 16bc
000000c0: ea13 7d3d 987d 87bc 8b3a 09bd b702 9e3d
000000d0: 994d b2bd cd5c 02bd 606f 3f3c 34e4 da3c
000000e0: d227 26bd 84ca 8b3c 10d3 fcbb 9ab6 303d
000000f0: 633c 16bd b42d a2bc d8fc 01bd dcda a4bd
00000100: d0f0 a93b 5812 10bc 97b7 9c3d 5e13 eabc
00000110: e4f4 a2bc 6461 abbd 787e 023c 762e 13bd
00000120: 6ea8 b3bd 9f52 b33d 70ff 083d e0a6 cb3b
00000130: d474 a9bd 810f 45bd 20bc 6ebb 0faa 05bd
00000140: ce4f 82bd f611 9abd 40fd aebb 8abc 6abd
00000150: 362c 033d 1027 993c ccea 8fbc 3a87 653d
00000160: d0fd b4bb 33f0 a23d 6203 153d 4e8d 3b3d
00000170: edb4 9a3d 32dd 04bd f074 72bd 80ca 15bd
00000180: 384e 45bc 7f98 b1bd fd5a 32bd 0024 913b
00000190: a63a 633d dc92 97bd 00c8 243a cefc 263d
000001a0: 0895 4f3c 3859 5b3c 5c9e a3bd 2082 db3b
000001b0: 808b 443c 926a 5f3d 30d0 003d ffc5 a5bd
000001c0: 98e8 043c 0b4b 4cbd 8093 ea3a 98e8 373c
000001d0: f6ae 103d ea8a 643d a573 b4bd b717 923d
000001e0: 5d2e 993d fdbd 9ebd 982a 633c 050a 70bd
000001f0: 4dc4 833d 0e60 473d 9561 af3d 7b3e 963d
00000200: e2b8 073d f0bc 643c 58ed 9c3c 60d8 383c
00000210: 4ae1 2f3d 2e34 1e3d 1237 3b3d 738c b13d
00000220: ac91 bd3c b298 233d 0af0 4cbd 50e0 d3bb
00000230: 8233 3bbd c58e a8bd 1264 9cbd 0074 a9bd
00000240: 2445 d73c fe64 92bd 724e 753d 6bfa b43d
00000250: 6063 dabc b8a7 40bc 86db 0bbd d0cc 0abd
00000260: 7a9b 6a3d 5696 a4bd 2097 34bb 3bf2 b43d
00000270: 2bb1 b33d 9e1f 1f3d fcd0 bcbc 0cca 50bd
00000280: 8478 cb3c 800b ad3a c46f 093d ca59 80bd
00000290: 60fc 2cbb f6f0 4c3d 9115 ab3d 88ba b43c
000002a0: 9630 90bd 8248 323d 7122 8d3d d0ac 60bc
000002b0: de5c adbd feed 9abd f77b a2bd 8202 33bd
000002c0: 16b7 4d3d 4aa1 463d 8396 993d c099 9dbc
000002d0: 155d 5fbd 100c 053d 3d92 24bd f01d 013c
000002e0: 2c4c 92bc 7a43 3c3d 82b0 373d c312 893d
000002f0: e714 8d3d 218c a13d 4ccf dabc 131b 853d
00000300: 3684 5abd 69c0 913d 60f4 253b fc56 f13c
00000310: b94d a73d b0f9 ae3b 4257 193d eac3 193d
00000320: a01d d9bb e483 45bd 764d 373d 40c0 8e3a
00000330: af73 62bd 2c34 b23c 806c a8bc 2836 453c
00000340: b762 893d 901e 833b 8088 993a fa95 313d
00000350: 406e eb3b 7ed0 62bd d03c ecbc 23a9 aa3d
00000360: 40f3 35bc eb94 a4bd 32a4 aebd bfdf 3dbd
00000370: 80c6 f03a dadb fbbc 6320 19bd 61d0 adbd
00000380: f074 8e3b a239 97bd a66f 473d 8fa6 9a3d
00000390: 17c2 b2bd 2e79 7c3d caf4 493d 5dec 13bd
000003a0: ec6f 31bd 8b3d b43d 38c3 993c 4252 7c3d
000003b0: 8022 d03a a055 9cbb 177c 43bd 4b42 11bd
000003c0: 501f b7bb 184f 103c 70a5 cabb 243c d1bc
000003d0: d755 9f3d 441b c93c 3666 39bd 75fd 99bd
000003e0: 1488 a33c f60a 623d 03a0 36bd 1367 8c3d
000003f0: e128 923d 6064 443b 8909 a13d 5c62 8f3c

decoder.mlp.2.bias f4 [64]
0.0127139315 0.054239772 0.019171335 0.0440206 0.07862561 -0.040288236 0.076216646 0.015157536
-0.05798357 -0.042186256 -0.0438331 -0.063821465 -0.020583719 0.019728422 -0.08440403 -0.071231775
0.0724533 0.044735275 -0.04864875 0.024303667 0.08113154 0.0015417337 0.015005417 0.05409538
-0.042669006 0.0057202205 -0.046703722 0.05206614 -0.0060411617 0.014189348 0.020881362 0.04717613
-0.01308278 0.0009810627 -0.044247594 0.08077886 -0.056629907 0.08374146 -0.008004338 0.052682288
0.0784907 -0.010204524 -0.032979857 -0.027410783 -0.012624063 -0.012070909 0.03692221 0.010867797
-0.043070294 -0.048567783 0.0026366934 -0.03247757 -0.060164414 0.00042507052 0.041648574 -0.08641627
-0.042927694 -0.0051422715 -0.03913005 0.05947102 0.04488028 0.04902271 -0.029723916 0.084238835
00000000: 184e 503c 862a 5e3d 340d 9d3c f24e 343d
00000010: 7706 a13d 4705 25bd 7917 9c3d 5057 783c
00000020: 2e80 6dbd 7fcb 2cbd 568a 33bd d4b4 82bd
00000030: 309f a8bc 809d a13c 05dc acbd f7e1 91bd
00000040: 6562 943d 563c 373d e943 47bd 7c18 c73c
00000050: 4b28 a63d 0014 ca3a 48d9 753c 1e93 5d3d
00000060: b2c5 2ebd b070 bb3b 674c 3fbd 4e43 553d
00000070: f0f4 c5bb 707a 683c 640f ab3c c23b 413d
00000080: 2859 56bc 0097 803a f73c 35bd 636f a53d
00000090: c3f4 67bd a580 ab3d a024 03bc 62c9 573d
000000a0: bbbf a03d e030 27bc e315 07bd 948c e0bc
000000b0: 28d5 4ebc 10c5 45bc be3b 173d d80e 323c
000000c0: 7a6a 30bd 03ef 46bd 60cc 2c3b 3307 05bd
000000d0: f66e 76bd 00dc de39 b297 2a3d 03fb b0bd
000000e0: f3d4 2fbd 8080 a8bb d546 20bd e297 733d
000000f0: 62d4 373d 0acc 483d 927f f3bc 6985 ac3d
