prgnn.pth (torch, 109842 bytes, 12 tensors)

encoder.conv1.lin_l.weight f4 [64, 7]
000000 aa fd 82 be 7e fd 03 3d 64 2c 5b be eb f9 5c be
       -0.25584155 0.03222417 -0.21403652 -0.21579711
000010 b1 3d 4e be d7 37 9b 3e 5b 60 b3 be b7 38 db be
       -0.20140721 0.3031604 -0.3503445 -0.42816707
000020 33 65 34 3d 08 db 3b 3e 83 fc b3 3e 62 21 08 3e
       0.044041824 0.18345273 0.3515359 0.13293985
000030 cf 26 f9 bd b8 ca c0 3d 01 89 03 bd 1d 8f 30 bd
       -0.12165605 0.094136655 -0.03211308 -0.043105233
000040 fc b9 83 bc 1f 7e a0 3e 6e 05 0d 3e 79 0b 98 3e
       -0.016079895 0.31346223 0.13771603 0.29696253
000050 37 37 82 3e 5f e0 d2 be b8 22 81 be 65 b2 e7 3e
       0.2543275 -0.41186807 -0.252218 0.45253292
000060 e2 21 26 be 00 53 ec 3c c7 25 c7 3d bb 92 ae be
       -0.16223863 0.028848171 0.09724002 -0.3409632
000070 f6 30 cd 3e 5a 41 76 be 9a 40 a6 be c0 a5 b1 bd
       0.40076417 -0.24048367 -0.32471162 -0.086741924
000080 28 a4 05 bd ee 77 b7 be 96 dc 8e be 2b fa 10 be
       -0.032627255 -0.35833687 -0.2790267 -0.14157932
000090 bc eb 5b 3e ae 5b f3 3e eb 01 a4 be 34 26 a4 bd
       0.21476644 0.47530884 -0.32032713 -0.08015099
0000a0 66 5b 25 bd 18 97 93 be 6d 0b 88 3e b9 0c 6c be
       -0.040370367 -0.28826213 0.26571217 -0.23051728
0000b0 b8 4f 84 be 74 b2 89 bd a6 07 0a be 7c 9d 90 3e
       -0.2584207 -0.0672349 -0.1347948 0.2824515
0000c0 d2 af 26 be ad 82 b6 3e 68 1a 70 3e 12 88 20 bd
       -0.16278008 0.35646573 0.23447573 -0.039192267
0000d0 b6 65 13 3e 7e 9b 3f 3e dd 52 e1 bd 78 d6 0e be
       0.14394268 0.1871166 -0.11002133 -0.13949001
0000e0 9f a9 4c be 60 6c c2 bd 24 2b 21 be 40 68 93 bb
       -0.1998658 -0.09493327 -0.15739113 -0.0044985116
0000f0 c6 ea 10 3e 83 66 04 bd 00 3e 3c 3d 78 b2 4a bd
       0.14152059 -0.032324325 0.045957565 -0.049486607
000100 65 88 04 be a2 0c e0 3e f8 0b 78 3d d1 0b a8 be
       -0.12942655 0.43759638 0.06055829 -0.32821515
000110 f3 f4 2b bd f8 98 b1 bd 5c be 80 bd 5c f5 88 3d
       -0.04198165 -0.086717546 -0.06286308 0.066874236
000120 18 b0 0c bd 8b f6 b1 3e fb bf 9c be fe 1a 22 3e
       -0.034347624 0.3475841 -0.3061522 0.15830609
000130 df a6 8f 3e b3 ad 5b be ba 17 24 be 5f cc a3 3e
       0.28057 -0.2145298 -0.16024676 0.3199186
000140 71 bc a5 be 02 b3 34 3e 80 1c d1 3c 6f 27 a3 3e
       -0.32370332 0.17646411 0.025526285 0.31866023
000150 0c 15 4c 3b 45 83 22 be 21 f5 36 3e 90 34 68 bd
       0.0031140475 -0.15870388 0.17866947 -0.056690753
000160 12 ef 2a 3e 5c 7b 84 be 40 c9 07 bc 4f 4d b7 bd
       0.1669276 -0.25875366 -0.008287728 -0.08950292
000170 66 b6 90 3d 33 c4 b7 3e f9 8f 90 be 48 5b 10 bd
       0.0706604 0.35891876 -0.28234842 -0.035243303
000180 2b 1e 7d 3e ac ac a2 bd 32 48 16 bd ac e8 cb bc
       0.2471854 -0.07943091 -0.036689945 -0.02489122
000190 55 cf b9 3d 7e db 77 3e c0 68 41 3c a0 b4 4d 3e
       0.090727486 0.24204823 0.0118047595 0.20088434
0001a0 c9 f3 ba 3e 04 aa 19 be 51 97 1d bd 21 20 eb bd
       0.36514118 -0.15006262 -0.038474385 -0.114807375
0001b0 aa c0 06 be 79 9e a0 3e 6d 28 79 3e d0 87 c7 3d
       -0.13159433 0.31370905 0.24331827 0.09742701
0001c0 31 10 82 3e 1c 28 6d be ee b3 82 be 9c 32 b8 3d
       0.25402978 -0.23159832 -0.255279 0.08994028
0001d0 c8 8e 66 bd b8 10 ad bd 20 f0 77 3c 9a bc 31 be
       -0.05628851 -0.084504545 0.015132934 -0.17357102
0001e0 ea ef 53 3e 45 29 8c 3e 38 1e af bd 57 21 98 be
       0.20696989 0.27375236 -0.08550686 -0.29712936
0001f0 ef b1 0f be 85 cf a5 3e c5 73 b3 3e b0 4c ff bd
       -0.1403272 0.32384887 0.35049263 -0.12465799
000200 27 b4 8b 3e c6 2a 0b 3e 02 53 a0 be 35 f0 9e be
       0.27285883 0.13590536 -0.3131333 -0.31042638
000210 06 2e 57 3e d9 b8 b9 3e 6a b1 0a 3e 37 4f 86 bd
       0.2101365 0.3627384 0.1354424 -0.06558078
000220 4c 03 84 bd 6e e8 33 3e df 4d e8 bc f8 91 b7 bd
       -0.06445941 0.17569134 -0.028357444 -0.08963388
000230 a5 9f da be 18 23 ce 3d e7 e4 bb 3e 34 ed e0 bd
       -0.42699924 0.10065287 0.36698076 -0.10982743
000240 09 ec 0f be f5 72 84 3b 43 79 9e 3e c5 a1 8d 3e
       -0.14054884 0.0040420243 0.3095189 0.27662483
000250 4c 1f a3 be 88 09 9a bd 6f d8 57 be 1e 2a 9c be
       -0.31859815 -0.07521349 -0.21078657 -0.30500883
000260 bf 06 81 3e aa 92 50 3e 67 2f 2c be 50 a8 af be
       0.2520046 0.20368448 -0.16814958 -0.343081
000270 14 39 18 bc 9a 51 19 be fe 4d 51 be 50 57 5f 3e
       -0.009290952 -0.14972535 -0.20439908 0.21810651
000280 b6 57 17 3e 27 6e 70 be e7 d0 78 bd 10 8c d3 3e
       0.14779553 -0.2347952 -0.0607461 0.41317797
000290 a8 d0 34 bd 0e 6a ab be da 7d 85 3e aa 36 11 3e
       -0.044144303 -0.3347935 0.2607258 0.14181009
0002a0 5b 82 f4 bb 53 20 20 3e 9f 9c b0 39 a8 9e 90 bd
       -0.0074618286 0.1563733 0.00033686028 -0.07061511
0002b0 b7 31 9b 3e db 30 be be a8 72 80 be f1 cd 9c be
       0.30311367 -0.3714665 -0.25087476 -0.3062587
0002c0 91 24 9c bc 5e 86 a6 be 90 59 8c 3c c2 12 34 3e
       -0.019060405 -0.3252439 0.01713255 0.1758528
0002d0 c4 48 0e be d6 f3 67 be fc ab 9f be 8d 9a 46 be
       -0.13894945 -0.2265161 -0.311859 -0.19394894
0002e0 d6 73 0a 3e 40 af b2 bb e0 7c d1 bc b5 c2 9a be
       0.1352075 -0.0054530203 -0.02557224 -0.30226675
0002f0 50 9a 0e 3d e9 65 8f 3e da 0a 25 be f0 c9 dd bc
       0.034815133 0.2800744 -0.16117421 -0.02707383
000300 85 b5 75 be 40 55 43 3c c3 c9 ab be e6 e5 21 3e
       -0.23995025 0.011922181 -0.3355237 0.15810356
000310 39 c7 d6 3b b9 17 1b be 83 d6 a9 bc 40 e2 2e 3c
       0.006554511 -0.15145768 -0.02073217 0.010674059
000320 b8 2b 32 bd 0a 05 ab be 32 80 0a be 1f 4b e0 be
       -0.043498725 -0.33402282 -0.13525465 -0.43807313
000330 fb 05 af bd ca f0 41 be 82 fe 2d 3e 68 d1 94 3d
       -0.085460626 -0.1893951 0.16991618 0.072665036
000340 98 67 9f 3e ad f6 83 3e d6 1d 6a 3e 90 6b 1c be
       0.31133723 0.25774136 0.22862944 -0.15275407
000350 b4 e1 de 3d 1c 60 39 be f4 12 f1 bd 9e 55 2e be
       0.10882893 -0.18103069 -0.11771193 -0.17024848
000360 f4 28 fc bd a0 0d 6a 3d f2 cd 57 be 00 98 14 bd
       -0.12312499 0.0571419 -0.21074656 -0.03627777
000370 42 12 1f be f1 50 99 3e 38 40 6c 3d ee 84 97 be
       -0.15534309 0.29944566 0.05767843 -0.29593605
000380 80 a3 c3 3c 6e 83 b0 be bd 08 b8 be f8 da 69 bd
       0.023881674 -0.34475273 -0.35944167 -0.05709359
000390 00 70 22 3c ea 7b 2c 3e 04 74 ae be 4e 07 03 bd
       0.009914398 0.16844144 -0.34072888 -0.03198939
0003a0 d1 ee 69 be d0 c2 c8 bd 9a c4 97 be e2 9f 7c be
       -0.22845007 -0.098027825 -0.29642183 -0.24670365
0003b0 b7 b9 96 3d e0 e1 c0 3c 20 5b ca bc 34 35 b6 bd
       0.07359641 0.023545206 -0.024701655 -0.088968664
0003c0 d6 cd b7 be c4 ca bc 3d 20 5c d5 3c dd 09 66 be
       -0.35899228 0.09218362 0.026044905 -0.224647
0003d0 92 0c 35 3e 09 e5 79 be c3 55 29 3d c1 3f e7 be
       0.17680576 -0.24403776 0.041341554 -0.45165828
0003e0 09 a4 9e 3e 61 3a 17 be 6d 9d bc 3c 30 1c c7 3d
       0.30984524 -0.14768364 0.023024285 0.09722173
0003f0 c1 90 85 bd ba 12 d3 bd c2 3f bd bb d0 f0 2f 3d
       -0.0652175 -0.10306306 -0.005775423 0.042954266

encoder.conv1.lin_l.bias f4 [64]
000000 d3 4c d2 3e b4 5f 3b 3d e6 77 64 3e a1 21 d6 3e
       0.41074237 0.045745566 0.22311363 0.41822532
000010 7c 80 a7 bd 80 2c d5 bd 02 53 b6 3e be 6a 96 bd
       -0.08178803 -0.10408878 0.35610205 -0.07344578
000020 25 7b 7f be a2 b2 c6 3d 83 51 98 3d 94 e4 8b bd
       -0.2494932 0.0970204 0.07437422 -0.06830707
000030 ce 9c 0a 3f dd 58 19 3f 8d 9e 91 be 23 ba d7 3e
       0.54145515 0.5990122 -0.28441277 0.421342
000040 ba f7 ff 3e dc 36 7d bd 91 d7 56 be 0c 75 b4 bd
       0.49993688 -0.061819896 -0.2098067 -0.088113874
000050 42 7d 0b 3f d9 0b 34 3e b5 51 c1 3e 99 c0 14 3f
       0.54488003 0.17582645 0.3775765 0.5810638
000060 d1 24 d9 bd 20 58 84 3e 5b 54 b4 bc c3 b7 c4 3e
       -0.10602725 0.25848484 -0.02201288 0.3842145
000070 9a c5 cb 3e e8 b8 02 bd fe 60 c6 3d ca e9 f6 3e
       0.39799196 -0.03191462 0.096864685 0.48225242
000080 76 88 9a bd 7c 61 b0 3e e2 e3 bc bd 80 26 5d bd
       -0.07545559 0.34449375 -0.09223153 -0.053991795
000090 4f 26 5a be d2 10 c4 be 5b a9 c3 3e 78 dc 6f 3c
       -0.21303676 -0.38294083 0.38215145 0.014639966
0000a0 d2 6a 12 3f 6d 41 4f bc e3 e6 89 3e 76 44 42 3e
       0.57194245 -0.012649876 0.26933965 0.18971428
0000b0 88 63 03 3d fb 24 cc 3d dd e4 48 be fc 24 e5 3e
       0.032077342 0.09967991 -0.19618554 0.4475478
0000c0 48 91 86 bd 0d 60 b6 3e c3 03 2c be 8d 01 04 3f
       -0.06570679 0.35620156 -0.1679831 0.51564866
0000d0 b8 8f ce 3d a4 0f 9f bd 44 4b 0c 3f 81 85 8f 3e
       0.10086006 -0.07766655 0.54802346 0.28031543
0000e0 fa a6 0e 3d 5f 24 86 3e fd 2c 4c bd 56 e8 8e 3e
       0.03482721 0.26199624 -0.04984759 0.27911633
0000f0 55 50 89 bd 03 c8 ef 3d 1d dc bb bd 19 6e 4a bd
       -0.06704775 0.11708071 -0.09172843 -0.049421404

encoder.conv1.lin_r.weight f4 [64, 7]
000000 77 f3 a4 3d 19 f0 bf bd 73 6d 18 be 56 9d 18 be
       0.0805425 -0.09371967 -0.14885502 -0.14903769
000010 2b 06 b9 3e 61 84 e3 3e f8 90 ed bd 6e 54 b4 3e
       0.36137518 0.44436935 -0.11599916 0.35220665
000020 2f 96 9f 3e 81 8b be 3c 83 9a 84 be 80 c9 33 bd
       0.31169268 0.02325988 -0.25899133 -0.043893337
000030 b0 77 9c 3c 94 1c 02 be 81 c7 ef 3e 7d 01 04 be
       0.01910004 -0.12706214 0.46831897 -0.12891193
000040 da 6d 96 be d6 77 84 be 97 27 94 be 5e 1e db 3e
       -0.29380685 -0.25872678 -0.28936455 0.42796606
000050 29 da 71 be ca 5d f7 bd ec ab 0c 3e c8 e1 8d 3e
       -0.23618378 -0.12078436 0.13737458 0.2771132
000060 89 cc a9 be b6 fc 24 3e 34 dc 15 be 05 3d 74 be
       -0.3316386 0.16112027 -0.14634782 -0.23851402
000070 f1 08 07 be 4e a9 af 3e 9c cb 23 be 1c e1 d7 bd
       -0.13187005 0.34308857 -0.1599564 -0.10540983
000080 39 06 8b 3e 84 ac b9 be 76 f1 5f be 49 ee 91 3e
       0.27153185 -0.3626443 -0.21869454 0.2850211
000090 5d b2 23 be 6b 70 c8 be 84 53 c3 bd fd 4a b7 be
       -0.15986009 -0.39148268 -0.09537414 -0.357994
0000a0 e0 c2 59 be 41 a3 36 be 34 76 d4 bd 7d 80 0d 3e
       -0.21265745 -0.17835714 -0.10374108 0.13818546
0000b0 f5 4b 8e bd 8f 04 47 be 72 af 31 be e1 19 31 3e
       -0.069480814 -0.19435333 -0.17352083 0.17295028
0000c0 41 73 26 be f9 d6 b8 bd 75 c3 b4 3e e3 e8 b5 be
       -0.16254903 -0.09025378 0.35305372 -0.3552924
0000d0 d8 f4 30 3d 6e 54 74 3e 7b 85 57 3e 9e 51 60 be
       0.04320225 0.23860332 0.21047013 -0.21906134
0000e0 cd 7e 12 3e 12 02 ab 3d dd e6 aa be 72 3a 25 3e
       0.14306183 0.08350004 -0.3337926 0.16135576
0000f0 c6 8d 66 3e 5e d3 b6 be d8 db d9 3d e8 11 a7 bb
       0.2251502 -0.35708135 0.10637635 -0.00509857
000100 b4 dc d4 3e db 5c d6 3e b0 2a aa 3c 21 23 ac 3e
       0.41574633 0.41867718 0.020772308 0.3362055
000110 93 41 45 3d 29 d8 aa 3e a0 98 a3 be 04 b9 05 be
       0.04815824 0.33368042 -0.3195238 -0.13058859
000120 4f f9 eb 3e 2b fd 7a be db 75 b8 3e 73 a5 12 be
       0.46088645 -0.24510638 0.36027417 -0.14320926
000130 f4 09 8b be fe 06 4a be 3b 9e 3e be 36 6e 81 be
       -0.2715603 -0.1972923 -0.18615048 -0.25279397
000140 8a dd 34 3e 80 37 d6 3b 02 7a 22 bc d6 92 7a 3e
       0.17662635 0.006537378 -0.009916784 0.24470076
000150 d1 4b 17 be 58 92 fe bd 11 1f f8 3d c8 bd 15 bd
       -0.14775015 -0.124302566 0.121153004 -0.036557943
000160 db 95 92 3e 05 d4 9f bd 4a d4 ba be 53 b4 00 be
       0.28629956 -0.078041114 -0.3649009 -0.12568788
000170 ee e1 9d 3e ca 5d 32 3d a4 4d aa be ba 16 7f be
       0.30836433 0.043546475 -0.3326236 -0.24911013
000180 43 c0 d8 3e ec 4c 81 3d 7a de 30 bd 5b 1f a3 3e
       0.42334184 0.063135 -0.04318092 0.3185986
000190 f5 8c 8d 3d 00 dc 66 bc 80 59 66 bb ab 37 7d bd
       0.06911651 -0.014090538 -0.003514856 -0.061820667
0001a0 6b 96 bf be b7 6c d6 3d 5d 73 1d be 1a 30 e8 bc
       -0.37419447 0.104699545 -0.15376039 -0.02834325
0001b0 7c b7 9e 3d d1 69 33 be 22 b8 e9 3e a2 64 3f 3e
       0.077498406 -0.17520835 0.45648295 0.18690732
0001c0 68 a2 19 3e dc 50 95 3e 24 03 82 be 74 34 9f bd
       0.1500336 0.29163253 -0.2539302 -0.077736765
0001d0 d5 ea 91 be 73 42 b0 3e 58 a2 95 be 9a e9 75 be
       -0.28499475 0.34425697 -0.2922542 -0.24014893
0001e0 32 a7 0d 3e 82 43 87 be bd 52 37 be 23 8d 95 3e
       0.13833311 -0.26418692 -0.17902656 0.2920924
0001f0 82 c7 9e 3e 26 b4 1b 3e 0f ea 9c 3e 46 57 e0 be
       0.31011587 0.1520544 0.30647323 -0.43816584
000200 29 63 aa be 36 e0 67 3e a1 dd a8 3e a0 59 ac 3d
       -0.33278778 0.22644123 0.3298159 0.08415532
000210 c3 c0 ad be c8 88 b5 3e 69 a5 e7 3e 37 b2 2c be
       -0.33936128 0.35455918 0.45243385 -0.16864859
000220 31 54 39 be 67 3c bf be 49 f3 a2 3e 62 05 72 3e
       -0.18098523 -0.3735077 0.31826237 0.23634866
000230 ba c3 8e 3e 01 eb c4 bc d5 c5 44 be 56 32 29 3e
       0.27883703 -0.02403784 -0.19216092 0.16523108
000240 9c d6 df 3d e1 ca 68 3e a3 c1 71 be cb a0 c9 3d
       0.10929605 0.22733642 -0.23609023 0.09845122
000250 45 65 c8 be 48 f7 76 bd 40 a4 6d bd 50 c0 1d 3d
       -0.39139763 -0.06029442 -0.05801797 0.03851348
000260 ea a9 9a 3e bc 20 b0 3d 30 cb be bc 0a 2d 85 3e
       0.3020776 0.085999936 -0.023290247 0.26010925
000270 70 3c 88 bd 00 f8 f1 bd 58 3b a8 3d 08 aa d9 3e
       -0.066521525 -0.1181488 0.08214444 0.42512536
000280 fa 25 7f 3e 65 55 67 3e fe 55 cc 3e 8c 41 65 3e
       0.2491683 0.22591169 0.39909357 0.22388285
000290 30 57 e8 bd ab 23 99 3e ed d6 2a 3d 04 73 0f be
       -0.11344755 0.29910025 0.041708875 -0.14008719
0002a0 9e 3c 18 3e 0a 51 7d 3e 41 00 35 3e f8 ae 8a be
       0.14866874 0.24737945 0.17675878 -0.27086616
0002b0 f2 58 66 3e e0 93 a7 be 69 b0 ac 3e 00 af a4 3e
       0.22494867 -0.32730007 0.3372834 0.32164764
0002c0 4b fb bc be a6 11 02 3f 60 a4 ff bd a0 9a 80 3c
       -0.3691047 0.5080818 -0.12482524 0.015698731
0002d0 e3 ce d4 3e 50 67 ba be af 2b b1 be 31 79 cc be
       0.41564092 -0.36406946 -0.3460364 -0.39936212
0002e0 d4 c7 cc 3e 52 dc 60 be 2a 1b 40 3e ef 41 c5 3e
       0.39996207 -0.21959046 0.18760362 0.38526866
0002f0 52 26 11 3e fd 2c 82 be db f5 78 be 08 46 c0 be
       0.14174774 -0.25424948 -0.24312536 -0.3755343
000300 97 b8 90 be 68 e8 9b bd 5a d6 6f 3e 34 d6 fe 3d
       -0.2826583 -0.07612687 0.23421612 0.124432
000310 91 90 f3 bd 84 f6 00 bd 7e 2c 3a be 73 74 ad 3e
       -0.11892808 -0.031485096 -0.18181035 0.33877906
000320 b5 24 09 be 8d 64 fa 3e 94 68 b8 be 3f 5f 75 3e
       -0.13392909 0.4890484 -0.36017287 0.23962115
000330 c8 f4 93 3e c4 2c e8 3e e1 4e b7 3e 10 c8 74 bd
       0.2889769 0.45346653 0.35802367 -0.059761107
000340 2f 56 0e 3e 80 0b df 3c 72 f8 6e 3e 97 83 d1 be
       0.13900064 0.027227163 0.23336962 -0.40920708
000350 de 94 98 3e 68 b3 82 be 06 b9 14 3e 20 00 5e 3e
       0.29801077 -0.255275 0.14523706 0.21679735
000360 78 19 20 3d 05 a7 3c be ef dd 22 be b9 35 82 bd
       0.03908679 -0.18423088 -0.15904973 -0.06357903
000370 a5 31 6c be 3b da 71 be 82 5a e1 3e 80 c9 ea 3b
       -0.23065813 -0.23618405 0.44014364 0.007165134
000380 c2 69 06 bf c8 38 07 bf 03 6c af be 25 65 6d be
       -0.52505124 -0.52821016 -0.34262094 -0.23183115
000390 98 58 0f be 5b a5 b8 3e cb 99 2c be 48 c5 84 3e
       -0.1399864 0.36063656 -0.16855542 0.25931764
0003a0 96 4e e7 3b ee 3a 26 3e 56 58 8a be 28 84 6e 3d
       0.0070589287 0.16233417 -0.2702052 0.058231503
0003b0 92 68 3e bd 22 61 08 be 78 f4 2c bc a5 63 bc be
       -0.046486445 -0.13318303 -0.010556333 -0.36794773
0003c0 73 d9 a7 be 40 28 1a 3d d0 2d cf bd 04 a9 d4 be
       -0.32783088 0.03763604 -0.1011616 -0.415352
0003d0 11 90 84 3e 54 34 31 3e 72 e0 96 3e 60 99 1e 3f
       0.25891164 0.17305118 0.29468113 0.6195278
0003e0 a1 eb a5 3e 4a 35 8e be c9 82 74 3e e8 50 37 be
       0.32406333 -0.2777503 0.23878016 -0.17901957
0003f0 81 53 7a 3e a6 bc 21 be 2a f2 aa be c3 aa 7a be
       0.24445917 -0.1579462 -0.33387882 -0.24479203

encoder.conv2.lin_l.weight f4 [64, 64]
000000 2c 21 9d 3d 5b 26 86 3e 1b fd 21 3e 35 1f 14 3e
       0.07672343 0.26201138 0.15819208 0.1446503
000010 ed 27 53 3e 6c bf 22 3e 1e cb 16 3d c3 19 90 3d
       0.20620699 0.15893334 0.0368148 0.07036164
000020 bf d6 21 3e 91 0a 71 3e a5 5b 64 3e bf 7c 79 3e
       0.15804575 0.23539187 0.22300585 0.24363993
000030 2e ee 53 3d 81 82 c6 3d a0 0e 03 3d a0 29 bc 3d
       0.051740818 0.096928604 0.03199637 0.09187627
000040 90 bd 35 3e c0 4d 92 3e 2f 87 6c 3e 35 92 16 3d
       0.17748094 0.28574944 0.23098443 0.036760528
000050 6a 6c 84 3e 50 7f d3 3d 4f 81 bc 3d 84 80 5e 3e
       0.25863963 0.10327017 0.09204351 0.21728712
000060 f2 0c 9f 3d c0 7a 43 3e c4 3c 78 3e 96 63 4d 3e
       0.07766141 0.19089794 0.2424193 0.2005752
000070 25 fb 6d 3d e3 49 41 3e 10 fd e2 3d d5 df 49 3e
       0.05810084 0.18875842 0.11083424 0.19714291
000080 ab aa 7d 3d d9 52 7d 3d f7 bb 54 3e 0c 22 f7 3d
       0.06193034 0.061846588 0.20774828 0.12067041
000090 cf 6e 8c 3d 9b fb 2d 3e d3 ab 70 3e c6 8b 5b 3e
       0.068570726 0.16990511 0.23503046 0.21440038
0000a0 0b a0 64 3e 80 50 43 3d cf 6e 1b 3e 3e fe 80 3e
       0.22326677 0.047684193 0.15178989 0.2519397
0000b0 50 4a d7 3d 53 a8 12 3d 26 e2 4a 3e 78 e1 79 3d
       0.10512221 0.035805058 0.19812831 0.06100604
0000c0 e0 f8 3a 3e f8 57 63 3e 6f da 13 3e fd 78 4d 3d
       0.18259001 0.22201526 0.14438795 0.05016421
0000d0 8f c8 d8 3d da 79 f5 3d 24 bf 84 3e 8f 52 49 3d
       0.105851285 0.11986132 0.2592708 0.049151
0000e0 82 00 94 3d 99 66 86 3e cb 98 72 3e c8 8a 6c 3e
       0.07226659 0.2625015 0.23691098 0.23099816
0000f0 c3 0e 43 3d cd c8 85 3e a7 fa 2f 3e 2d 1f cc 3b
       0.0476215 0.2612976 0.1718546 0.0062293024
000100 dd 1a 82 bd 92 f3 e2 bd 33 cb 0a be ad ef 20 be
       -0.0635278 -0.110816136 -0.13554077 -0.15716429
000110 92 09 f4 bd 08 a9 2c be 3b c7 6d be 21 4f 13 bd
       -0.11915888 -0.16861355 -0.23220532 -0.035964135
000120 61 93 5d be 2e 4b ee bd 58 53 14 be 34 58 ed bc
       -0.21638252 -0.11635433 -0.14484918 -0.028972723
000130 28 a8 86 bd 2f b1 e3 bd 45 34 46 be 76 91 5a bd
       -0.06575042 -0.111177795 -0.19355877 -0.05336138
000140 e3 a3 18 bd 4f b1 be bd 67 e6 15 be c5 32 a6 bd
       -0.03726567 -0.09311163 -0.14638673 -0.08115152
000150 b4 59 69 be 26 c4 0e bd 54 fc 00 be 42 01 14 bd
       -0.22788125 -0.03485503 -0.12596256 -0.036134012
000160 e7 15 40 be 42 92 34 be fb 66 c1 bc c2 02 7a be
       -0.18758355 -0.17633918 -0.023608675 -0.24415115
000170 60 f9 7a be ed 01 13 bd d9 e5 c9 bd d1 b2 89 be
       -0.24509192 -0.03589051 -0.09858293 -0.2689424
000180 3b bc 20 be e2 de 23 bd c3 a6 00 bd fc 07 35 be
       -0.15696804 -0.04000748 -0.031409036 -0.17678827
000190 37 6f 85 bc 4f ad 01 be ad 28 3a be 88 8b fa bd
       -0.016288383 -0.12663768 -0.18179579 -0.12233645
0001a0 4c 24 6d be 1d 7b 2d be 02 9a 18 bd 93 ab 49 be
       -0.23158377 -0.16941495 -0.03725625 -0.19694357
0001b0 e2 ba 21 be 1f 95 98 be 3b 54 0c be 63 6a 35 be
       -0.15793946 -0.2980127 -0.13704006 -0.17716365
0001c0 34 ea 78 bd 17 be a7 bd 03 3b 6f be e6 71 7c be
       -0.06077023 -0.08190554 -0.23362355 -0.24652824
0001d0 58 87 9e bd 17 d2 3e bd 1e 25 4b bd 4a 54 a6 bd
       -0.077406585 -0.046587076 -0.049595945 -0.081215456
0001e0 ee 22 73 be b5 b0 80 be 1c a2 68 be 76 7a 86 3a
       -0.23743793 -0.25134817 -0.2271809 0.0010259885
0001f0 55 34 14 bd 0c 1c 85 be d9 e0 54 be 2d 0e c4 bd
       -0.03618272 -0.2599796 -0.20788898 -0.09573016
000200 bc b0 e5 3d a6 46 ce 3d 38 25 8f 3c 00 51 41 bb
       0.1121535 0.10072069 0.017473802 -0.0029497743
000210 fa d7 f6 bd 42 40 a8 bd c0 77 62 bc b0 80 fd 3d
       -0.12052913 -0.08215381 -0.013822496 0.12378061
000220 44 5e d0 bd a0 5f bb bb 56 f1 b3 bd b0 80 6f 3c
       -0.1017423 -0.0057181865 -0.087862656 0.014618084
000230 78 47 57 bd 2c 7b a8 bd 00 25 4f bc c4 cb a5 3d
       -0.052558392 -0.08226618 -0.012643099 0.08095506
000240 8a ed e9 3d f0 21 62 bc 16 24 95 3d 4e 9f c5 bd
       0.1142226 -0.013802037 0.072822735 -0.096495256
000250 1e f2 b1 bd 50 a0 b6 3c 62 2e d6 bd 56 5c a3 3d
       -0.08688758 0.02229324 -0.104580656 0.07976596
000260 6c 0c d3 3d 34 04 28 3d b2 54 af bd 0c bf 08 bd
       0.10305104 0.041019633 -0.08561076 -0.03338532
000270 de 51 ad 3d 70 0b c8 bd e0 dc c4 3b b8 4e 36 bd
       0.084628806 -0.097678065 0.0060077757 -0.044508666
000280 8c 20 e5 bd 02 12 dd bd 4c 38 6c 3d cc 21 58 3d
       -0.111878484 -0.1079445 0.057670876 0.052766606
000290 9e c8 f7 bd 44 97 95 bd c8 b9 82 bc 30 0a 21 3d
       -0.120988116 -0.07304242 -0.015957728 0.039316356
0002a0 f8 51 3c bd 22 b4 c2 3d 90 76 7d bc 00 83 bc 3a
       -0.04597661 0.09507014 -0.015470162 0.0014382303
0002b0 d4 a0 17 bd ac 2a 80 3d 7a df c4 bd 16 3d fe bd
       -0.037018612 0.06258139 -0.09612937 -0.12413995
0002c0 e8 13 a7 bd a0 7c 2b bc 02 fe ba 3d 60 a0 ba 3d
       -0.08158094 -0.010466725 0.091304794 0.0911262
0002d0 50 a9 08 bc ac e9 1c 3d d8 88 5b 3d 04 f5 d1 bd
       -0.0083411485 0.038308784 0.0535973 -0.10251811
0002e0 c6 f3 cd bd bc 08 59 bd 40 e9 eb 3c d0 11 94 3c
       -0.10056262 -0.052986845 0.028797746 0.0180749
0002f0 0e 59 c7 3d 8c 6c e6 3d 14 da 3b 3d 00 cc fb 3a
       0.09733783 0.112511724 0.045862272 0.0019210577
000300 6d de 80 bd da 2e 14 be c6 09 82 3b f7 42 82 be
       -0.06292424 -0.14470997 0.0039684502 -0.25441715
000310 eb 46 9d bd 82 31 f9 bd c5 48 aa bc 01 e8 b6 bd
       -0.07679542 -0.12167646 -0.020786652 -0.0893097
000320 aa 4a fb bd 27 46 74 be f5 3d cb bd 82 6b c8 bd
       -0.122701004 -0.23854886 -0.09923927 -0.097861305
000330 2e 32 11 bd 1a 08 34 bc 83 bc 4d be 41 f0 5d be
       -0.035448246 -0.01098826 -0.20091443 -0.21673681
000340 62 26 97 bd 9b 75 1d be fa 4f 6b be ea 17 d9 bd
       -0.07380368 -0.15376894 -0.22979727 -0.10600264
000350 d1 e0 45 bd e8 90 33 be 6b 65 63 be a7 26 5d be
       -0.048310105 -0.17535746 -0.22206657 -0.21596776
000360 b4 1b 10 3c b9 f8 38 bd c7 2b 82 be e1 00 51 be
       0.008795667 -0.045159075 -0.25424024 -0.20410492
000370 01 80 48 be 1c 58 ef bc dd 3c 0c be ca 83 30 be
       -0.1958008 -0.029216819 -0.13695092 -0.17237774
000380 fd 7c b2 bd de 53 19 be 2a 8d 2e be 7c 1c 3c be
       -0.08715246 -0.14973399 -0.17046037 -0.18370241
000390 23 9e ac bc fb 8a 44 bd 78 9f 6f be 12 eb 03 be
       -0.0210715 -0.047984105 -0.23400676 -0.12882641
0003a0 d0 7f 15 be 61 ee 7e bd 09 4f 66 be e7 10 6c be
       -0.14599538 -0.062239055 -0.22491087 -0.23053323
0003b0 cf c2 af bd da 49 25 be a8 7f c3 bd 91 96 79 bd
       -0.08582079 -0.16141453 -0.09545833 -0.060934607
0003c0 bd bb 25 be 5b e1 a7 b9 b6 a3 26 be 23 39 b6 bd
       -0.16184898 -0.00032020625 -0.16273388 -0.08897617
0003d0 fa f4 68 be 8e 80 60 be f9 66 6a be 85 1a 17 be
       -0.22749701 -0.2192404 -0.22890843 -0.1475621
0003e0 cf da 5d be 67 f4 54 be ff e1 b0 bc 0f fe 9c bb
       -0.216655 -0.20796357 -0.021592138 -0.0047910283
0003f0 fc 8d 98 bd 6d 8b 43 be c9 8e c2 bd 67 c1 36 be
       -0.07448956 -0.19096155 -0.0949989 -0.17847215

encoder.conv2.lin_l.bias f4 [64]
000000 c6 12 92 3e d3 a5 90 3e 02 f0 da bd 47 c4 65 3e
       0.28529948 0.28251514 -0.10690309 0.22438155
000010 38 16 19 be 70 e0 25 3e ac 4e 22 3c 25 de b7 bc
       -0.14949882 0.16198897 0.009906452 -0.022444794
000020 3d d6 94 3e 31 b2 3b 3e db fc 6d 3e 63 b5 ee 3d
       0.290697 0.18329693 0.23240988 0.116556905
000030 7a ad 2e 3e 84 c0 2d be c6 ba 9f 3e 51 4f 12 3e
       0.17058364 -0.1696797 0.31197184 0.1428807
000040 e9 6c e5 3d e9 b7 58 3e 43 90 8d 3e cc fb cb bd
       0.112024136 0.21163906 0.27649125 -0.09960136
000050 98 26 1f 3e d1 8f 4a bd 63 e2 03 be 45 68 b4 3e
       0.15542066 -0.04945356 -0.12879328 0.352358
000060 b1 3e 21 3e 26 a8 73 3e 64 8e d0 3d dd c4 b8 bd
       0.15746571 0.23794612 0.10183409 -0.09021924
000070 91 2c 07 be 49 ae 94 3e de 66 20 3e 7d cf 01 bc
       -0.13200594 0.2903922 0.1566424 -0.007923004
000080 50 28 8a 3e ce ca 3e 3e a8 d8 39 3e 41 a8 23 3c
       0.2698388 0.18632051 0.18149054 0.009988845
000090 b8 8a a0 3e df c0 a6 3c 33 09 1f 3e ce 4a 07 bd
       0.31355834 0.02035564 0.15530853 -0.033030324
0000a0 6f 9f a4 3e ba 9a be bd ab 00 d1 bd ce 47 5e 3e
       0.32152888 -0.093068555 -0.102052055 0.21707079
0000b0 b3 53 f5 bd 71 5c 18 3e 4b 8b 1e 3e f3 66 59 3d
       -0.11978855 0.14879014 0.15482824 0.053076696
0000c0 b2 df 90 bd c4 17 8f 3e b6 87 e8 bd 66 ef c4 bd
       -0.070739165 0.2794782 -0.1135401 -0.09615974
0000d0 f1 8f 02 3d f0 45 5f 3e 38 40 63 bd f1 27 a7 bd
       0.031875554 0.21804023 -0.055481166 -0.08161915
0000e0 46 48 0a be e4 c3 01 3e 91 7e 6f 3e b0 ef 9b be
       -0.13504133 0.12672383 0.23388125 -0.30456305
0000f0 c9 d3 59 3e 8b 25 fd bc 21 4f 24 3e 3b 41 40 3e
       0.21272196 -0.030901691 0.1604581 0.18774883

encoder.conv2.lin_r.weight f4 [64, 64]
000000 76 6d 81 3e dc 7e 8c 3e c8 81 f9 3d e8 7c 80 3e
       0.25278825 0.27440536 0.12182957 0.25095296
000010 12 8e c5 3e c5 86 a0 3e 7c 0b a5 3e 8b 4f 7f 3e
       0.38584954 0.3135282 0.32235324 0.24932687
000020 91 c8 2a 3e b6 68 73 3e d4 7f fe 3e 52 01 8b 3e
       0.16678073 0.23770413 0.497069 0.27149445
000030 1d b7 c9 3e 4b ac 8c 3e e2 fc f7 3e d5 67 9e 3e
       0.39397517 0.274752 0.48435122 0.30938593
000040 1c 4e b1 3e e0 5c 97 3e 90 a5 50 3e 28 ae a2 3e
       0.34629905 0.29563046 0.20375657 0.31773496
000050 71 05 f7 3d 94 11 a8 3e ec 6f 22 3e 45 75 a2 3e
       0.12061585 0.3282591 0.15863007 0.31730095
000060 b1 89 19 3e 10 fe c4 3e 8a ac 0b 3f 42 6d 83 3e
       0.14993931 0.38475084 0.5456015 0.25669295
000070 4b cd 74 3e f9 2e 1c 3e 1c 76 93 3e 3e 28 8d 3e
       0.23906438 0.15252294 0.28801048 0.27569765
000080 52 cd c9 3e 96 92 93 3e d4 5c c0 3e db 20 90 3e
       0.3941446 0.28822774 0.37570822 0.28150067
000090 42 51 03 3e a3 18 fb 3e 63 6f 65 3e c0 25 09 3f
       0.12823966 0.49042234 0.22405772 0.53573227
0000a0 78 3d 0b 3e 97 c7 40 3e 10 36 b5 3e ac 51 02 3f
       0.13597667 0.18826137 0.3539281 0.5090587
0000b0 5b fe 6a 3e be 7a b5 3e 16 9e e8 3e ad fb 41 3e
       0.22948591 0.35445207 0.4543311 0.18943663
0000c0 92 b1 b3 3e 99 e7 17 3e 2e 9d a5 3e 22 ea 08 3e
       0.35096413 0.14834441 0.3234648 0.13370565
0000d0 d9 b5 df 3e 56 9f d9 3e 50 76 92 3e ec f6 74 3e
       0.43693426 0.42504376 0.2860589 0.23922318
0000e0 fc 2a b2 3e 25 a3 24 3e bf e6 1a 3e af 0b 9b 3e
       0.3479842 0.1607786 0.15127085 0.3028235
0000f0 4d fe 65 3e ec 7c 99 3e 82 c0 2c 3e 2e 38 88 3e
       0.2246029 0.2997812 0.16870311 0.26605362
000100 37 83 67 3e 0d 12 d4 3d 7c f3 34 3e 2a 11 aa 3e
       0.22608648 0.103550054 0.17671007 0.3321622
000110 a4 5f 05 be 3d d7 c5 3c 97 2b 68 3e 92 d1 a0 3d
       -0.13024765 0.024150485 0.22672878 0.07852472
000120 11 41 fd bc 65 f8 28 3e d6 2f 65 3e 70 91 87 3d
       -0.030914815 0.16501005 0.22381529 0.06619537
000130 6d 02 b4 3e cf d9 7e 3e e7 f7 f7 bc 07 de 66 3e
       0.351581 0.24887775 -0.030269576 0.22545634
000140 1b ef 57 3d a3 79 96 bd 15 6e 23 3e 6e ce 8e be
       0.052718263 -0.07347419 0.15959962 -0.27891868
000150 65 04 84 3e 47 85 ee 3d eb a2 02 3e d5 43 63 3e
       0.25784603 0.116465144 0.12757461 0.22193845
000160 45 e5 22 bd b1 f9 34 3e 92 9b 16 3d 79 5c 80 3e
       -0.03976943 0.17673375 0.036769457 0.2507055
000170 aa d7 17 3e 1b 08 5c 3e bb d5 8f 3c 1f 7e 16 3e
       0.14828363 0.21487467 0.01755797 0.14696549
000180 7f 93 4d 3e 24 c1 41 3e 64 77 1b 3e 2f 95 ba be
       0.20075797 0.18921334 0.15182263 -0.36441943
000190 f1 f1 86 bd 0d ca 53 be c7 c8 d7 3d 96 92 31 3e
       -0.065891154 -0.20682545 0.10536342 0.17341074
0001a0 c3 c2 39 3e ac 60 32 3d 64 e3 61 3e 02 ef 4e 3e
       0.18140702 0.043549225 0.22059399 0.20208362
0001b0 60 c3 c2 3d 30 a6 54 be f3 c2 b6 bd 7b 89 50 3e
       0.09509921 -0.2076652 -0.08923902 0.20364945
0001c0 97 40 c1 3d bd f4 8e 3d b2 6c be bc 94 88 cb 3d
       0.09436148 0.06980274 -0.02324519 0.099381596
0001d0 d2 26 49 3d db ac 46 bd 19 07 c2 3e 55 ee 13 3e
       0.049109288 -0.04850469 0.3789604 0.14446385
0001e0 b4 a3 fa b9 0e 06 37 3e bf 73 7d 3c 34 00 82 3d
       -0.00047805684 0.17873403 0.015469491 0.06347695
0001f0 6d 0f d8 3d 60 eb 3b 3e 79 c7 90 3d f8 ee b4 3d
       0.10549817 0.18351507 0.070692964 0.08834642
000200 03 45 e3 bd 7d 2d bb bd 44 da 0a bd 04 ae 37 3d
       -0.11097147 -0.091395356 -0.03389956 0.04484369
000210 31 48 54 bd c3 67 5f bc 34 a4 20 3d 05 91 3e bc
       -0.05182666 -0.013635579 0.039219096 -0.011631255
000220 c2 65 c8 3d 35 46 73 bc 48 c7 46 bd 47 7b 5f 3c
       0.09785034 -0.014848282 -0.048529893 0.013640231
000230 59 46 03 3b 5a 9f ad 3d eb eb a2 3d ac c6 90 bd
       0.0020030944 0.084776595 0.07955154 -0.07069144
000240 20 91 3a 3d 01 37 1b be a8 a4 af 3d 74 ef 7d bd
       0.04554856 -0.15157701 0.085763276 -0.06199594
000250 b3 47 02 be df ee e1 bd 87 14 01 be 2c 44 53 3c
       -0.12722664 -0.11031889 -0.12605487 0.012894671
000260 70 4a f4 bd c4 fd 00 be 71 97 a8 3c 93 2c 37 3b
       -0.1192826 -0.12596804 0.020580025 0.0027950152
000270 ae 1d 37 3c a3 cd fc 3c 02 24 ee bd 2a 5b 15 bd
       0.01117651 0.030859774 -0.11627962 -0.036463894
000280 3e ba cc bd b8 f0 04 bc 0d 4f c9 3d de fd cb 3d
       -0.099964604 -0.008114032 0.09829531 0.09960531
000290 ef fc 88 bc 52 c3 1c bd b1 78 08 bd 8f e8 f4 bd
       -0.01672217 -0.03827221 -0.033318225 -0.119584195
0002a0 15 5b 31 3c 25 50 d0 bd cd 47 e8 3c 55 cf ec bc
       0.010824938 -0.10171536 0.02835455 -0.028907457
0002b0 36 ce c5 bd f4 44 c4 bd 9e c6 4b 3c b2 4a f3 bd
       -0.09658472 -0.09583464 0.012437491 -0.118794814
0002c0 aa 4b 43 bd 3c 56 80 bd 9e c6 9a 3c ba 3f be bb
       -0.04767958 -0.06266448 0.018893536 -0.0058059366
0002d0 d6 32 81 3d 49 f8 02 be 74 f0 39 3d 53 36 65 bd
       0.06308524 -0.12790026 0.04539533 -0.05596001
0002e0 fb fc 43 bd 53 c4 f1 bd bf 13 ee 3d 0e fa dc bd
       -0.047848683 -0.11805024 0.1162486 -0.10789882
0002f0 3d 46 d8 bd fe d3 a4 bd d5 14 56 3d b9 43 29 b9
       -0.10560272 -0.08048247 0.05226596 -0.00016142325
000300 8c 0d 12 3e d4 d5 67 3d 92 fb 6b 3e c4 8a d4 3e
       0.1426298 0.056600407 0.23045185 0.4151212
000310 e7 4c cb bd b9 ae 21 3e d4 2d 9d 3e bc 59 82 bc
       -0.09926777 0.15789308 0.30699027 -0.01591193
000320 0c b2 a4 bd f6 46 02 3e 56 37 a6 3d 4d b9 f2 3d
       -0.08041772 0.12722382 0.08116023 0.118517496
000330 23 4e 84 3e 0d 04 27 3e 47 19 c9 3d 75 ca 4b 3e
       0.25840864 0.16310139 0.098192744 0.1990145
000340 47 78 91 3e cf aa 9e bd 23 01 3a 3e d1 bc c3 be
       0.28412077 -0.07747423 0.18164496 -0.38229993
000350 d4 80 74 3e b5 62 7c 3e 07 67 09 3e 16 a0 86 3e
       0.23877269 0.24647029 0.13418208 0.2629401
000360 92 a2 99 ba eb fd 3f 3e bb b0 bf 3d 02 1b a3 3d
       -0.0011721423 0.18749206 0.093598805 0.07964136
000370 dc 13 cb 3d 1e 0f 98 3d 0f 21 78 3d dc b8 77 3e
       0.09915897 0.074247584 0.060578402 0.24191612
000380 db c9 a0 3d a3 fe 21 3e 97 0d 01 3e 6e d0 b5 be
       0.07851001 0.15819792 0.1260284 -0.35510582
000390 2a cc 0c 3d c8 32 8c be 2f fb d9 3d 7b 9a 08 3e
       0.034374394 -0.27382493 0.106436126 0.1334018
0003a0 cb 10 95 3e cf 3a 5e bd 27 54 86 3e 0e ef 82 3e
       0.29114375 -0.054255303 0.26236078 0.2557301
0003b0 b0 17 2c 3c 4d f4 c2 be 22 fa b4 bd 9a f5 da 3d
       0.010503694 -0.38077012 -0.088367715 0.10691376
0003c0 f7 f9 46 3e 64 7d 4c 3e 92 bb 88 3b 89 f8 a8 3e
       0.19431292 0.19969708 0.0041727507 0.33002117
0003d0 94 8c 2d 3d a1 61 a4 bd 8e 92 61 3e 43 f2 44 3e
       0.042370394 -0.08026434 0.22028562 0.1923304
0003e0 d2 3b a9 3d 01 01 80 3d db d6 c2 3d 9f 4d 01 3e
       0.08263363 0.062501915 0.09513637 0.12627266
0003f0 95 ef 13 bd 05 67 a1 3d 33 a2 bd 3c d9 70 c7 3d
       -0.036117155 0.078809775 0.023148632 0.09738321

decoder.mlp.0.weight f4 [128, 64]
000000 56 b9 1c be 93 86 4e 3e 3c cc 01 bb 91 44 30 3e
       -0.15305075 0.20168523 -0.001980557 0.17213656
000010 d4 35 0a 3e 08 ff 70 3e b1 3a 43 3d f2 04 d6 bc
       0.13497096 0.23534787 0.047663394 -0.026125405
000020 9c 8f 7c 3e 92 f8 bd 3d 35 73 05 3e 31 4b 8c 3e
       0.24664158 0.09275927 0.13032229 0.27401116
000030 34 f0 21 3e 54 fa 18 3d 44 09 fe 3d 08 1c 44 3d
       0.15814286 0.037348107 0.12404111 0.047878295
000040 95 09 d8 bc e5 10 23 3e 67 64 0c 3e 77 a7 1e bd
       -0.026371757 0.15924414 0.13710175 -0.038733926
000050 70 c7 dc 3d b6 3e f7 ba 64 a4 02 be e8 b6 13 3e
       0.10780227 -0.0018863294 -0.12758023 0.14425242
000060 b5 d2 25 3e 46 b5 79 3e 21 bd 9d 3d 56 73 f3 bc
       0.1619366 0.24385557 0.07702089 -0.029718082
000070 b0 5d 43 3d 0f 37 42 3d 53 44 3b 3b e5 f7 50 3d
       0.04769677 0.04741579 0.002857466 0.05101766
000080 f4 ba 22 3e 0f 56 33 3e 1a 17 15 3e 5b 70 42 bd
       0.1589163 0.17513297 0.14559594 -0.04747043
000090 9e d2 02 3d ca 23 55 3e 12 c2 cd 3d ab 4b 6f be
       0.03193914 0.20814434 0.100467816 -0.23368709
0000a0 7e f9 5d 3e 76 75 03 bd 3f 6d 1c bf 96 06 4e be
       0.21677205 -0.03209444 -0.61104196 -0.201197
0000b0 e2 c4 a4 3d b4 df 45 3e 50 4f 89 3d d8 5b 61 3e
       0.08045365 0.19323617 0.06704581 0.22007692
0000c0 f8 6b 61 3d d3 37 89 3d a0 6a 36 be 54 12 7c 3d
       0.055034608 0.06700101 -0.17814112 0.061540917
0000d0 5f 41 dc bd 19 dc 14 3e 1e bd d1 bd 80 e9 f6 bc
       -0.10754656 0.14537086 -0.10241149 -0.030140638
0000e0 65 7e ec bc 66 73 04 3e 35 6a 6a 3e 88 8b fa be
       -0.028868863 0.12934646 0.22892077 -0.4893458
0000f0 d2 19 7b 3e 98 5e ef bd 28 67 1c bc 1f fc 8f 3e
       0.24521568 -0.11687964 -0.009546079 0.2812204
000100 c3 97 43 be f9 ba 7f 3e 00 c9 d7 bd 2d 7b 52 3e
       -0.19100861 0.24973668 -0.105363846 0.205548
000110 4a 78 fb 3d cd 2b 57 3c 58 85 42 3e 0c 4d 4b 3d
       0.12278803 0.0131330015 0.18996179 0.049634025
000120 a0 11 69 3e 16 9e 5a 3d 3f d9 9b 3d c3 01 38 3d
       0.2276063 0.05337342 0.07609796 0.044923555
000130 df 9d 21 3e ed 8e ff 3b 2b 8d 62 3e ba ec 00 3e
       0.1578288 0.0077990205 0.22124164 0.12590304
000140 ea cf a8 3d fe 89 3d 3e 90 14 26 3e 48 d3 a2 bd
       0.082427815 0.18509671 0.16218781 -0.07950455
000150 4b 2a 23 3e 5d 72 e2 3d 9e ee 7f 3d 73 c6 47 3e
       0.15934102 0.11056969 0.062483422 0.19509296
000160 31 73 82 3d 04 4e 8a 3e bb c2 76 3e bf 12 6d 3b
       0.06369627 0.27012646 0.24097721 0.0036174504
000170 5d 79 47 3e bd 03 6b 3e 6b 31 fc 3d fa 9a e5 3d
       0.1947989 0.22950645 0.12314113 0.112112
000180 29 09 11 bc 9d 43 bf 3c 1c 74 96 3e 93 d9 14 bd
       -0.008852282 0.02334767 0.2938546 -0.036340307
000190 f8 24 4c 3e b3 c7 2c 3e 12 87 a1 3d ae cb 8d be
       0.19935977 0.16873054 0.07887091 -0.27694458
0001a0 b9 55 24 3e 23 e3 92 bd e2 9b f3 be 68 32 a3 bd
       0.16048326 -0.07172229 -0.47579867 -0.079685986
0001b0 ca 79 1d 3d 4c a1 04 3e 13 6d 91 3d 6c bd ef 3c
       0.038446225 0.12952155 0.071008824 0.029265128
0001c0 65 e1 74 3d a8 9b 61 3d 17 61 26 bd 62 b7 80 bd
       0.059785265 0.055080086 -0.040619936 -0.062849775
0001d0 a1 4a 4f 3e 7a 8e 35 3d c9 79 99 bd e4 cb 4d 3e
       0.20243312 0.04432533 -0.07493932 0.2009731
0001e0 8b d4 96 3a 70 ff 1a 3e c8 e1 27 3e 5b 8c 61 be
       0.0011507435 0.15136504 0.16394722 -0.22026198
0001f0 75 50 2e 3e fd ec b5 3d 72 8e 2a 3e 75 19 2d 3e
       0.1702288 0.088830926 0.16655901 0.16904242
000200 41 2d 4c be 81 5f 27 3e a7 0b aa bd 0a 0c b6 3d
       -0.19939138 0.16345026 -0.08303004 0.08889015
000210 d9 3f 94 bd 59 32 86 3e 81 69 4c 3e 2c 05 ce 3c
       -0.072387405 0.26210287 0.19962122 0.02514895
000220 f1 71 a1 3e c3 52 32 3e 89 6e 09 3e fc 0b 94 3d
       0.31532243 0.17414384 0.13421072 0.07228848
000230 57 a6 83 3e f4 4f ef bd f2 74 46 3e d8 14 3e 3e
       0.25712845 -0.11685172 0.19380549 0.18562639
000240 b2 06 3a b9 88 40 72 3e b6 05 89 3e 31 9e 2e 3d
       -0.00017740836 0.23657429 0.2676217 0.04263133
000250 f3 6d 54 3e c0 5d d3 3d 9a a9 8f bd 44 9d 74 3e
       0.20745067 0.10320616 -0.07014771 0.23888117
000260 d8 f0 13 3e 2c 92 6b 3e f6 a2 a4 3d d9 c9 f8 3d
       0.14447343 0.23004979 0.08038895 0.121478744
000270 d1 2f 83 bc a4 4c 25 3e 39 c1 27 3e 7d 79 01 3e
       -0.016014012 0.16142517 0.16382302 0.12644
000280 61 62 1a 3e 08 12 b6 3d 8b 5f 4d 3e c1 ba c3 bd
       0.15076591 0.08890158 0.20055978 -0.09557105
000290 5a 01 bb 3d a5 2b e4 3d 47 57 9a 3e d5 26 bc be
       0.09131117 0.11141137 0.30144712 -0.36748376
0002a0 97 5c 40 3d 88 07 4a 3d e6 90 d3 be 0e cf 3b be
       0.0469633 0.04932359 -0.41321486 -0.18340704
0002b0 0d c3 b7 3d 2e 6b 44 3e d7 a8 30 3e ee 88 77 3d
       0.0897275 0.19181511 0.17251907 0.06043332
0002c0 7a 3e d8 bd b3 46 6c 3e 70 c3 96 be cc 1f 05 3d
       -0.105587915 0.23073845 -0.29445982 0.032501027
0002d0 d1 95 e2 3d d3 fa 82 3e 6a 23 e5 bd 8a d8 4c bb
       0.110637315 0.2558199 -0.11188395 -0.0031256997
0002e0 57 e9 30 3e fd 38 8d 3d 6f 55 55 3e 7f 18 a6 be
       0.17276512 0.06895635 0.20833372 -0.32440564
0002f0 1e 1e 17 3e c7 ad b9 bc 43 85 a3 3c 8c 92 51 3e
       0.14757583 -0.022665871 0.019961005 0.2046606
000300 41 b4 f4 bd 37 98 89 ba 2c b4 e9 3d b1 93 1d bd
       -0.11948443 -0.0010497634 0.11411318 -0.038470928
000310 21 41 a9 3d 69 7b 95 bd 5b e8 1c 3e e1 d2 ba 3c
       0.082643755 -0.07298929 0.15323012 0.022805633
000320 ac 68 e4 bc 5e 5b 28 be 97 c4 4a bd 52 48 42 bd
       -0.027881943 -0.16441104 -0.04950389 -0.04743225
000330 d1 22 a5 bc b8 3b 6d 3d 56 2d 85 bc ff 77 a4 bd
       -0.020158203 0.05791828 -0.01625697 -0.080307
000340 7c 20 92 bd ac 8d 0b 3d 4f cc 05 be 4d 56 e3 3d
       -0.07135102 0.034070656 -0.13066219 0.11100445
000350 b1 cc df bd cd 64 c4 3d 7b 03 cf bd d6 96 f2 bc
       -0.10927714 0.09589539 -0.10108086 -0.02961294
000360 03 df 84 3d ba a1 11 be 86 91 1d bc 22 fc f9 3d
       0.064878486 -0.1422185 -0.009617215 0.12206294
000370 03 e0 93 bd db 3d f0 bd a0 66 6d bd ff d0 71 3c
       -0.07220461 -0.11730548 -0.0579592 0.014759301
000380 49 82 dd bd 61 16 ab bd 69 7d 98 3d 59 8a 59 bd
       -0.108158655 -0.08353878 0.07445795 -0.053110454
000390 dd 3a 86 bd 52 36 7e bc 35 1e e9 bc ec 2d 19 3d
       -0.06554196 -0.015515881 -0.028456787 0.03739731
0003a0 3f 32 c6 3c 07 0b 0e 3d cb 36 27 3e 80 a4 12 bb
       0.024193881 0.034678485 0.16329496 -0.0022375882
0003b0 26 8d 06 3c f4 7b 4f 3d 46 d3 d3 bd 44 1d 84 bc
       0.008212363 0.05065532 -0.103430316 -0.016127236
0003c0 f7 b3 0b 3d 66 71 aa 3d d8 6d c3 3d c4 5a 7d bd
       0.034107175 0.0832241 0.095424354 -0.06185414
0003d0 57 47 c3 3d f5 c1 b8 bc 3a 96 85 bd c3 22 2c 3e
       0.09535091 -0.022553423 -0.06522794 0.16810136
0003e0 28 65 d8 bd 81 ba 17 be 21 10 69 bc 09 c3 04 3e
       -0.10566169 -0.1481724 -0.014225037 0.12965025
0003f0 e0 05 24 be fd ec 82 bd d5 db 9b 3c ae 3b 1e bd
       -0.16017866 -0.06392858 0.019025723 -0.038631134

decoder.mlp.0.bias f4 [128]
000000 2d 33 93 3e 85 fa 22 3e d7 5b 92 3e 42 dc b9 bd
       0.28749982 0.15915878 0.28585693 -0.09075214
000010 10 7c 69 3c 2c 0e a3 3e 26 68 62 3e ed 2b 5b 3e
       0.01425077 0.3184675 0.22110042 0.21403475
000020 56 43 0b 3e 1c 5a 8f bd 14 14 c6 bd db 1c 78 3c
       0.13599905 -0.06999609 -0.09671798 0.015143598
000030 21 f7 85 3d fe 65 f1 3d 65 c5 cd 3d 28 6d 29 bd
       0.06541277 0.117870316 0.10047416 -0.041363865
000040 7d 5f 94 3e e9 81 d7 3c 01 8c 05 bc 38 27 8c 3e
       0.28979102 0.026307063 -0.008151055 0.27373672
000050 86 a7 0c 3d d6 5f c7 bd 80 26 11 be 11 67 c5 bd
       0.03433945 -0.09735076 -0.14174843 -0.09638799
000060 92 db 13 38 88 00 c4 bc da 7a b0 3c 63 96 12 be
       3.5252022e-05 -0.023926035 0.021542955 -0.1431518
000070 c1 50 28 3e 82 38 a1 bd 64 14 08 be 7f a0 c0 3d
       0.16437055 -0.07872106 -0.13289028 0.09405612
000080 f5 c7 60 3e 81 e9 25 3e 99 25 08 be 4c 12 ad bd
       0.21951278 0.16202356 -0.13295592 -0.084507555
000090 c8 07 ab 3e 3f fc be 3c 9b 43 04 3e 90 11 26 3e
       0.33404374 0.02331364 0.12916414 0.16217637
0000a0 0a 9f d8 3d 19 95 c3 bc 1a 0f d7 bd 99 2d 96 3e
       0.10577209 -0.023874806 -0.10500927 0.29331663
0000b0 ed d4 48 3e 1b 17 8d 3e 37 e5 1f 3d 75 c8 73 3e
       0.19612475 0.2755669 0.039036956 0.23806937
0000c0 26 75 a4 bd b4 50 41 3e 89 fc 75 3e 5d ca 8c 3e
       -0.08030157 0.18878442 0.24022116 0.2749814
0000d0 58 0b e3 3c cf 40 aa 3e 55 a4 8a 3e 59 3a 2c 3e
       0.02771537 0.3325257 0.270785 0.16819133
0000e0 c2 f4 8d 3e e0 03 45 3e f2 25 fc bc 66 e4 eb bc
       0.27725798 0.1923976 -0.030779812 -0.028795432
0000f0 eb 24 78 3e d8 5e 89 bd 60 4f f5 bb bf ad 2d 3e
       0.24232833 -0.06707543 -0.007486269 0.1696081
000100 11 81 27 3e 2d 5a 8d 3e 1c 0a e1 3d f5 c9 34 3e
       0.16357829 0.2760786 0.10988256 0.17655165
000110 23 07 8c 3e 23 1c 04 be 24 b4 6c 3d d4 1c 80 bd
       0.27349195 -0.12901358 0.057788983 -0.062554985
000120 48 b9 ff bd 3d a9 89 3e 12 39 fb bd 2d b2 14 bd
       -0.124865115 0.2688693 -0.12266745 -0.036302734
000130 e8 51 87 3e af 2d 8a bb a7 e1 3c 3d 14 f6 ac 3e
       0.26429677 -0.0042168717 0.046113636 0.33781493
000140 6a ce ea 3d ff 80 22 3e d8 41 87 3e 76 48 6f 3e
       0.114651516 0.1586952 0.26417422 0.23367485
000150 97 10 13 3e 80 9d aa 3e a7 e7 ea bd d1 db 06 3e
       0.14361797 0.33323288 -0.114699654 0.13169791
000160 6e 91 81 bc cb e8 a5 3e 5b c6 f0 3d 99 fe 8f 3e
       -0.015816417 0.3240417 0.11756583 0.2812393
000170 52 70 94 3e a7 08 5c bd 3e fb 75 3e c9 af bd bc
       0.28991944 -0.05371919 0.24021623 -0.02315511
000180 ad c2 e4 3d 7b 11 66 3e b5 ab 30 bd 1b 8c 37 3e
       0.11169944 0.22467606 -0.043132503 0.1792454
000190 ad db 0e 3d c8 d2 42 bd 92 9e 8f bd 92 21 50 3e
       0.034877468 -0.047564298 -0.07012667 0.20325306
0001a0 76 fa 99 3e 87 b0 7c 3e 93 a9 31 3e cb 73 1a bd
       0.300739 0.24676715 0.17349844 -0.037708085
0001b0 ba e9 5c bc 46 de 45 3d 4b df b6 bd 11 14 75 3d
       -0.013483459 0.04830768 -0.089293085 0.05983359
0001c0 b7 0b 4a 3d 90 94 8a 3e b9 97 7b 3e 2a 44 8d 3e
       0.04932758 0.2706647 0.24569596 0.27591068
0001d0 2d df 81 3e 9e 32 b9 bd cd 54 64 3d d8 f7 db 3c
       0.25365582 -0.090428576 0.055744935 0.02685158
0001e0 cc 8c 5e 3e a8 0c cb bd 00 d6 7b 3e 6d c9 96 3e
       0.21733397 -0.09914523 0.24593353 0.2945055
0001f0 80 49 e6 bd ab 7a 1d 3e 0d 0a 31 3e 6f 36 77 3e
       -0.11244488 0.15378825 0.1728899 0.24141859

decoder.mlp.2.weight f4 [64, 128]
000000 ff 5c a5 3d bf ea 21 bd d4 1a 29 bd 36 fb ad bc
       0.08074378 -0.039530512 -0.04128535 -0.02123795
000010 84 86 80 3c 01 1c ff bc 3e e3 36 3c 42 03 07 3d
       0.015689142 -0.031141283 0.011162577 0.03296209
000020 74 99 5f 3d 89 25 6b bd 86 d6 35 3d 85 08 b1 3c
       0.054589704 -0.057408843 0.04439404 0.021610508
000030 ab f8 27 bd db 46 b1 bd e0 fe 6b bb e0 36 40 bb
       -0.041008633 -0.08656093 -0.0036010072 -0.0029329583
000040 4f 6b f8 3c 5c 30 4d bd 81 7c 9c 3c 83 73 70 bd
       0.030324606 -0.050094947 0.019102337 -0.05870391
000050 27 97 2a 3d 6e 0f 67 bd 26 74 63 3d d7 06 7f bd
       0.041648056 -0.0564112 0.05553069 -0.062262382
000060 14 e3 6f 3d ea 12 ad bc 50 58 3b bd 18 ad 9d bc
       0.058566168 -0.021127183 -0.04573852 -0.019247577
000070 6a c6 90 bd 41 8d 72 bd a2 5f 65 3d df e9 bc bd
       -0.070690945 -0.05921674 0.055999406 -0.09224295
000080 19 ed b0 bc 5f b8 77 3b 79 e6 15 3b d3 f0 a8 3d
       -0.021597432 0.0037799103 0.0022872968 0.082490586
000090 14 b8 4f bd b7 2f f4 ba 5d f0 00 3d 88 91 97 3d
       -0.05071266 -0.0018629943 0.03147923 0.07400805
0000a0 b4 53 d6 3c 6b 67 c9 3c 46 5e f7 bd c7 c5 73 3d
       0.02616296 0.024585446 -0.12078528 0.059514787
0000b0 b8 85 60 bc 7b a3 9f bd 1d cf 66 bd 9e 12 6d 3c
       -0.013703756 -0.07794853 -0.056349862 0.014469771
0000c0 8a 42 a3 bd 8d b0 0a 3d e0 88 04 bd e3 86 b2 bd
       -0.07971676 0.03385978 -0.032357097 -0.08717134
0000d0 f5 53 70 bd 6c 88 9f bb 13 2d 4a bd a7 4c 8e 3d
       -0.058673818 -0.0048685577 -0.049359392 0.06948214
0000e0 60 ef 38 3d d9 6a 2e 3d 66 ca 9f 3c 1a 79 90 bd
       0.04515016 0.042582367 0.01950569 -0.07054348
0000f0 27 d1 b3 bb d3 7d 90 3d a2 68 2c bd d8 3f 63 3c
       -0.0054875794 0.07055249 -0.042091973 0.013870202
000100 58 a0 e7 bd e6 8d 84 bd 78 b9 3d 3d c3 91 db bd
       -0.1130988 -0.064723775 0.046319455 -0.10721161
000110 0c ba 24 3b 20 6b bc bb d9 70 17 bc 02 5d 86 bd
       0.0025135307 -0.005750075 -0.009243214 -0.065607086
000120 6e 37 4e 3b 8c 80 ec 3c 56 8a 3a bd 6a 18 74 3d
       0.0031466144 0.02886989 -0.045542084 0.059593596
000130 17 87 a7 bd e0 12 34 bd d0 26 07 3c 88 cc e3 bd
       -0.08180063 -0.043963313 0.008249 -0.111229956
000140 48 3e f9 3c cb f4 0b 3d ff a6 7c 3d 37 65 51 3c
       0.030425206 0.034169 0.061682697 0.012780479
000150 f8 cf 86 3d 15 20 20 3d d7 52 62 bc a9 05 10 bd
       0.06582636 0.039093096 -0.013813696 -0.035161648
000160 2e e5 7e bd 07 bb be bd bf 27 e2 3c 84 4b db bd
       -0.06223028 -0.093130164 0.027606843 -0.10707763
000170 cf 1e 38 3d a6 f2 21 bd 85 04 25 bc f9 2c 9c bd
       0.044951256 -0.03953805 -0.010071878 -0.07625765
000180 0f 9e 14 bd b4 4a a3 3d 83 17 2d 3d 62 20 dc bc
       -0.03628355 0.07973233 0.04225875 -0.02687091
000190 89 70 f9 bb 78 55 d8 3c d2 e3 11 bd 15 24 87 bd
       -0.007612292 0.026407942 -0.035617657 -0.06598679
0001a0 65 0b 86 bb de c9 8c bd 71 c0 67 bd b2 94 2d 3d
       -0.004090714 -0.068744406 -0.05658001 0.042378135
0001b0 01 17 8a 3d 6b c9 74 3d 8c 09 9d bc 22 17 9b bd
       0.06742669 0.0597624 -0.019169591 -0.075727716
0001c0 17 0a 8d 3c 4a f1 ab bd c7 4d eb 3c 50 cf 05 3c
       0.017216725 -0.083956316 0.02872361 0.008167103
0001d0 d9 7a a7 3d 67 9c 9f bd 65 d4 a8 bd 0d c5 74 bd
       0.08177728 -0.07793503 -0.08243636 -0.059758235
0001e0 2b 5a 12 bc df 09 93 3d 06 f6 3e bc 01 1d 36 3d
       -0.0089326305 0.07179617 -0.011655336 0.044461254
0001f0 b6 f1 26 3d 65 dd 37 bd 81 d8 78 bd 41 35 7a bd
       0.040757857 -0.044888873 -0.06075335 -0.061085943
000200 8b 31 99 bd fc 07 06 3c 91 43 be 3c 60 e3 40 3d
       -0.07480153 0.008180615 0.023225578 0.04709184
000210 b2 c5 3f 3d a3 ff 7b 3d 5d 87 82 bd ec 52 d5 3c
       0.046819396 0.06152309 -0.06373475 0.026040517
000220 19 65 d9 bc e4 13 25 3d 0e a6 d1 bd 9e 31 dd 3c
       -0.026537465 0.040302172 -0.102367505 0.027001198
000230 b6 24 8f bd 06 4c 3f 3d c0 88 80 ba 6e 7a 65 bd
       -0.06989424 0.04670336 -0.000980638 -0.05602496
000240 31 2c 2a bd 09 a5 29 bd 48 da 4f bd 0a 11 58 bc
       -0.04154605 -0.041417155 -0.05074528 -0.013187656
000250 0a 3e eb 3b 68 b2 82 3d 2c ad 51 3d 6a 85 85 bc
       0.0071790265 0.063816845 0.05119054 -0.016298968
000260 dd a3 e0 3b e2 a7 44 3d 53 6c 0d 3d 29 a9 d1 bd
       0.0068554715 0.048011668 0.034527134 -0.10237343
000270 b0 bc 6e 3d e6 6b 88 bd 1e a8 af bd 50 df fa 3b
       0.058285415 -0.06661205 -0.08576988 0.0076560155
000280 b4 be ec bb cd 20 fc 3c a6 58 83 bd 07 81 5a bd
       -0.007224882 0.03077736 -0.06413393 -0.053345706
000290 a2 2a b8 3d 6b 30 1d 3d 8e 18 c6 bd c7 3b 93 bd
       0.089925066 0.038376253 -0.09672652 -0.07189136
0002a0 1d f3 24 3d 15 50 08 bd cc cb 2a 3c ec 1b 73 3c
       0.040270913 -0.033279497 0.0104245655 0.0148382
0002b0 41 e1 99 3d c0 1d f9 bb 2b 77 c0 bd 47 3e 23 bd
       0.07513667 -0.0076024234 -0.093977295 -0.039854314
0002c0 55 ac a1 3d 36 02 67 bd 0f 5d c8 bc 89 af 56 bc
       0.07894198 -0.056398593 -0.024458436 -0.013103374
0002d0 1a e4 d2 3b b0 3f 9a bd ef 7f 08 bd a6 6a d6 bd
       0.006435883 -0.07531679 -0.033325132 -0.1046956
0002e0 a6 cd 8f 3d 40 e1 88 3d 5e a3 b4 bd 04 a6 be bd
       0.07021646 0.06683588 -0.08820222 -0.09309009
0002f0 10 d7 f2 3c 8e 2a f3 bb 61 00 92 3d 75 88 3a 3d
       0.029643565 -0.0074208444 0.071289785 0.04554029
000300 1a cc 8c bd b7 e4 fa 3c dc cf 0d bd ba d5 31 3d
       -0.06874867 0.030626638 -0.03462206 0.043416716
000310 46 52 68 bd 14 6b 00 be 85 28 9d bd 2a 30 0c 3d
       -0.056719087 -0.12540847 -0.07673744 0.03422562
000320 cf 34 0b 3d 98 cc b5 3c d0 79 de 3b 28 00 7b bc
       0.03398591 0.022192284 0.0067894235 -0.0153198615
000330 4f 70 39 bd c0 e1 55 bc 40 56 22 bb db 86 1d bd
       -0.04527312 -0.013054311 -0.0024770647 -0.038458686
000340 a1 43 9e bc c8 05 b0 bd 09 18 d1 bc 30 ed 44 3d
       -0.019319357 -0.08594853 -0.025524156 0.048077762
000350 d3 ed 3f bd 2e 64 a7 bd c4 52 e4 bc 8d 04 bc 3c
       -0.046857666 -0.08173405 -0.027871497 0.022951389
000360 c1 d4 54 3d 86 61 c6 bc 48 ce a7 3c ba 16 9e 3c
       0.05196071 -0.024216425 0.020484105 0.019297946
000370 04 ca 86 3c b8 d7 9e bd 13 cd b9 bb b6 7a 59 bc
       0.01645375 -0.07755989 -0.0056701987 -0.0132738855
000380 66 d1 dc 3b 02 2f 94 3d a7 80 f5 bc b6 32 9c bc
       0.0067388294 0.072355285 -0.029968573 -0.01906715
000390 9a ed d9 3c 46 1c 11 3d d8 2a 40 bc 72 5a 3d 3d
       0.026602555 0.035427354 -0.011728965 0.046228833
0003a0 8e 6a cb bd 68 a9 2d 3d 10 41 a9 bc 5e d9 63 3d
       -0.09932433 0.042397887 -0.020660907 0.05562722
0003b0 5c 37 69 3d ba 3f aa 3c 4c 16 c5 bc 19 91 79 bd
       0.05693756 0.02078234 -0.024058484 -0.06092939
0003c0 e4 c0 63 bd 0f 33 c4 bd cb 8b 96 3d 81 cc 47 bd
       -0.055603877 -0.09580051 0.07350882 -0.048779014
0003d0 b5 a3 6b bd 1f 33 4d bd f7 56 b8 3c e6 71 67 bb
       -0.05752917 -0.05009758 0.022502406 -0.0035315691
0003e0 1a c2 d2 3b 84 e9 65 3c 02 ac 88 bd d5 93 8f 3c
       0.00643183 0.014032725 -0.06673433 0.017526546
0003f0 9d 21 ad bd 71 6e a2 bd bc 85 5c bd 77 21 c8 bd
       -0.08453677 -0.07931221 -0.053838477 -0.09772008
