prgnn.pth (torch, 109842 bytes, 12 tensors)

encoder.conv1.lin_l.weight f4 [64, 7]
0	0x3e387e46	0.1801692
1	0x3e278f1e	0.16363189
2	0x3e881815	0.26580873
3	0x3e30c4ae	0.17262527
4	0xbb25fa00	-0.0025326014
5	0xbe34e66d	-0.17666025
6	0x3e2135e6	0.15743217
7	0x3e65a30e	0.22425482
8	0x3dc3c2e0	0.09558654
9	0x3b1afb80	0.002364844
10	0x3e9ce937	0.3064668
11	0xbd8049f4	-0.062641054
12	0xbe8496c9	-0.2589629
13	0xbeb88bce	-0.36044163
14	0xbe3835df	-0.179893
15	0xbde7ed58	-0.113245666
16	0xbe569130	-0.20953822
17	0x3e9c8e7b	0.30577454
18	0xbea9cc0d	-0.3316349
19	0xbeac0c7c	-0.33603275
20	0x3d8da698	0.06916541
21	0xbe43fb95	-0.1913894
22	0x3ea356a5	0.31902042
23	0xbe898c76	-0.26864976
24	0x3e9cf191	0.3065305
25	0xbe6276b2	-0.22115591
26	0x3cd05ca0	0.025434792
27	0x3e2a403e	0.16626069
28	0xbebf8bc2	-0.37411314
29	0xbebbc208	-0.36671472
30	0xbe52ea63	-0.20597224
31	0xbeb18e41	-0.34678844
32	0xbebe7fa7	-0.37206766
33	0xbdf97928	-0.12181312
34	0xbe803a28	-0.2504437
35	0xbe1b5341	-0.15168478
36	0x3e39a0fa	0.18127814
37	0xbeaf16fa	-0.34197217
38	0x3e9ada89	0.30244854
39	0xbea072ab	-0.31337485
40	0xbea2abc2	-0.31771666
41	0x3e5dbdaa	0.21654382
42	0xbd8324fc	-0.064035386
43	0xbe401016	-0.18756136
44	0x3eb76e05	0.35826126
45	0x3ec13a05	0.37739578
46	0xbd926108	-0.071474135
47	0xbe1690d4	-0.14703685
48	0x3e4e104a	0.20123401
49	0x3cadc4d0	0.021212012
50	0xbeafa8d0	-0.3430848
51	0x3dd6da68	0.104908764
52	0x3ea82cf9	0.3284681
53	0x3ddfee1c	0.10934088
54	0xbe0e826b	-0.13916938
55	0x3eaab84b	0.3334373
56	0x3e453f12	0.1926234
57	0x3ebedd9f	0.37278458
58	0xbe8ecceb	-0.27890715
59	0x3e835d4b	0.25657114
60	0xbe838d74	-0.25693858
61	0xbe5167d3	-0.20449762
62	0x3d84f138	0.06491321
63	0xbeb62a4a	-0.3557914
64	0x3e1b0506	0.15138635
65	0xbea50296	-0.32228535
66	0x3e991913	0.29901943
67	0xbea7f55b	-0.3280438
68	0x3e0144ce	0.12623903
69	0x3ea63be7	0.32467577
70	0x3e6b70f6	0.2299231
71	0xbe869d70	-0.2629199
72	0x3eaacdf5	0.33360258
73	0x3dfbe54c	0.12299594
74	0x3c7683a0	0.01504603
75	0xbea50b08	-0.3223498
76	0xbe8e41d4	-0.27784598
77	0x3d39dea8	0.045378357
78	0xbe9bbef2	-0.30419117
79	0x3eaf119b	0.3419312
80	0x3e1e687a	0.15469542
81	0xbebf9322	-0.3741694
82	0x3e3fb92e	0.18722984
83	0x3e514556	0.20436606
84	0xbe0fa870	-0.14029098
85	0x3e497d66	0.19676742
86	0xbe27c793	-0.16384725
87	0x3e9c2e33	0.30503997
88	0xbe5c1674	-0.2149294
89	0xbeb4bff4	-0.353027
90	0xbe44a7ad	-0.19204588
91	0xbe9b965e	-0.3038816
92	0x3ea4f08b	0.3221477
93	0xbe23d002	-0.15997317
94	0xbe9fbfa2	-0.31200892
95	0xbe7d24cf	-0.24721073
96	0xbe05084a	-0.12991443
97	0x3b4c2c00	0.0031154156
98	0x3df8a904	0.12141612
99	0xbe77d7bd	-0.24203391
100	0xbe71342f	-0.23555063
101	0x3eb9edfb	0.36314377
102	0x3925a800	0.00015798211
103	0xbdd44e60	-0.10366511
104	0xbe8c6b42	-0.2742558
105	0x3ec0005f	0.37500283
106	0xbe96c0a1	-0.2944384
107	0xbebfa1b7	-0.37428066
108	0xbdf8b7d4	-0.121444374
109	0xbe111603	-0.14168553
110	0xbeac64ab	-0.33670554
111	0xbdd0c3c8	-0.10193592
112	0x3eac758b	0.33683428
113	0xbe7f49eb	-0.24930541
114	0x3db20088	0.086915076
115	0xbd132a18	-0.035928816
116	0x3e2fc7ca	0.17166057
117	0xbd78d8b0	-0.060753524
118	0xbdcd4778	-0.10023397
119	0xbe6f6c1a	-0.23381081
120	0xbda7c07c	-0.0819101
121	0x3e7361e2	0.23767808
122	0xbc1a2f60	-0.009410709
123	0x3e98024d	0.29689255
124	0x3e28744a	0.16450611
125	0xbeaee83a	-0.3416155
126	0x3e3c84ca	0.1841003
127	0xbe6ab4b4	-0.22920495
128	0xbe1fc91c	-0.15604061
129	0x3eaa714f	0.33289573
130	0x3e7868fe	0.24258801
131	0x3ea51643	0.32243547
132	0x3ea6308d	0.32458916
133	0x3cd04070	0.025421351
134	0xbe35f4fe	-0.17769238
135	0x3e28a9f6	0.16471085
136	0x3e87f3a9	0.26553085
137	0x3e4201d6	0.18946013
138	0xbdd02274	-0.101628214
139	0xbe7ef7a4	-0.24899155
140	0x3eb1be51	0.34715512
141	0xbd3943b0	-0.045230567
142	0x3e67f382	0.22651485
143	0xbde71a68	-0.112843335
144	0x3ea28993	0.31745586
145	0xbcf757c0	-0.03019321
146	0xbe85775e	-0.26067632
147	0x3eabd92f	0.33564135
148	0x3db65068	0.08902055
149	0x3ead4783	0.33843622
150	0xbea53275	-0.32265058
151	0x3ea68c69	0.32529
152	0x3dcf42cc	0.10120162
153	0x3e28785a	0.1645216
154	0xbeadb424	-0.339265
155	0x3d549cb8	0.05190727
156	0xbe041385	-0.12898071
157	0xbd5064c8	-0.050877362
158	0x3c452e40	0.012034953
159	0x3e98345d	0.2972745
160	0x3e811bcb	0.25216517
161	0x3e62f736	0.22164616
162	0xbe928b7a	-0.28622037
163	0xbe2b5f3c	-0.16735548
164	0xbe97c192	-0.2963987
165	0xbdb83c08	-0.08995825
166	0x3e65aafa	0.22428504
167	0xbe3d6c13	-0.18498258
168	0xbe006994	-0.12540275
169	0xbebe6816	-0.37188786
170	0x3e08c2ea	0.13355604
171	0x3d28e218	0.041231245
172	0xbe9d1d8b	-0.30686602
173	0x3de5a2f8	0.112127244
174	0xbd880f40	-0.06643534
175	0xbe88b297	-0.26698753
176	0x3e9653c9	0.29360798
177	0x3e928001	0.28613284
178	0x3e86dfe5	0.26342693
179	0x3ea70c6b	0.32626662
180	0xbd76b2a8	-0.060228974
181	0xbde23b60	-0.11046481
182	0xbdda6934	-0.10664597
183	0x3d90ae70	0.07064521
184	0x3ea32843	0.31866655
185	0xbea37a56	-0.31929272
186	0x3eb268cb	0.34845576
187	0x3c859fe0	0.016311586
188	0xbd9b6fa0	-0.0758965
189	0x3ea2847d	0.31741706
190	0x3d897710	0.067121625
191	0xbe44e055	-0.19226201
192	0x3e86a295	0.26295915
193	0xbd394bf8	-0.045238465
194	0x3e47bd12	0.19505718
195	0xbeb83d2a	-0.35984164
196	0xbebd149f	-0.36929795
197	0x3e8df90f	0.2772908
198	0x3e508b6e	0.20365688
199	0xbea766c0	-0.3269558
200	0x3de01b1c	0.10942671
201	0x3d564dd0	0.0523203
202	0xbe3f64cf	-0.18690799
203	0x3d7934d0	0.06084138
204	0xbe02ae34	-0.12761766
205	0x3d953c44	0.072868854
206	0xbea12583	-0.31473932
207	0x3ea9c3e9	0.3315728
208	0xbcdd9320	-0.027047694
209	0x3e12b19a	0.14325562
210	0xb9963800	-0.00028651953
211	0xbec13228	-0.3773358
212	0xbe8d4b95	-0.27596727
213	0x3dcdd854	0.10051027
214	0x3d45c898	0.048287004
215	0x3e8dfaab	0.27730307
216	0x3cf7f190	0.030266553
217	0x3e846c15	0.2586371
218	0x3d9ce43c	0.0766072
219	0xbe836568	-0.25663304
220	0xbead61ba	-0.33863622
221	0xbea273d5	-0.31728998
222	0x3e01a7e6	0.12661704
223	0x3d924ac8	0.0714317
224	0x3ea71ae7	0.32637712
225	0x3ea43035	0.3206803
226	0x3d7e71e0	0.06212032
227	0xbe212283	-0.15735821
228	0xbc05b440	-0.008160651
229	0x3e0dccae	0.1384761
230	0xbe3e4c0d	-0.18583699
231	0xbe9865fc	-0.29765308
232	0xbeb56ae3	-0.3543311
233	0x3e4a942e	0.19783089
234	0xbd873824	-0.06602505
235	0xbe96e5c5	-0.29472175
236	0xbec0204e	-0.37524647
237	0xbd9f6760	-0.07783389
238	0xbe703b58	-0.23460138
239	0x3dd42098	0.10357779
240	0xbea8b048	-0.32946992
241	0xbebbf981	-0.36713794
242	0xbe19f2e3	-0.1503406
243	0xbe7b6977	-0.2455195
244	0x3e783cea	0.24241987
245	0xbdf19f3c	-0.1179795
246	0xbda88dc4	-0.08230165
247	0x3e7419c2	0.23837951
248	0x3e4a8f56	0.19781241
249	0x3ea64b57	0.32479355
250	0xbdd51588	-0.104044974
251	0x3e84511d	0.25843135
252	0xbea51386	-0.32241458
253	0x3e543d46	0.20726499
254	0xbe8e1061	-0.2774687
255	0xbdeb30c0	-0.11483908

encoder.conv1.lin_l.bias f4 [64]
0	0xbe409894	-0.18808204
1	0x3dd3bef4	0.10339156
2	0x3eba9135	0.3643891
3	0xbebb3664	-0.36564934
4	0x3e8587a7	0.26080057
5	0xbcaf0280	-0.021363497
6	0x3e9e1817	0.30877754
7	0x3e328b5e	0.17435977
8	0xbeb8433c	-0.35988796
9	0xbe04fe27	-0.12987576
10	0xbc949ae0	-0.018140256
11	0x3df51138	0.11966175
12	0x3d8c149c	0.068398684
13	0x3e6f715e	0.2338309
14	0x3e353b06	0.17698297
15	0x3e9ef207	0.31044027
16	0x3d366128	0.04452625
17	0x3d9bbe50	0.076046586
18	0x3df4fa90	0.119618535
19	0x3e788f1a	0.24273339
20	0xbe8f59de	-0.2799825
21	0xbe9bcfd3	-0.30431995
22	0x3e2f2aea	0.17106214
23	0xbeb3c9c1	-0.35114864
24	0x3e572796	0.21011195
25	0x3e69e23a	0.22840205
26	0xbdeba094	-0.11505237
27	0xbebe0858	-0.3711574
28	0xbd359068	-0.04432717
29	0x3cc4da80	0.02402997
30	0x3e1b7efe	0.15185162
31	0xbdbc43a0	-0.09192586
32	0x3ba82640	0.005131513
33	0xbda9b488	-0.08286387
34	0x3dfa47ac	0.122207016
35	0xbd8a1f44	-0.06744245
36	0x3d573138	0.052537173
37	0xbdaab644	-0.08335546
38	0x3cd85690	0.026408464
39	0x3e70fda2	0.23534253
40	0xbe9ce18b	-0.30640826
41	0xbdb72458	-0.08942479
42	0xbd63a360	-0.05557573
43	0x3da92720	0.082594156
44	0x3eb771d9	0.35829046
45	0x3e0f7392	0.1400893
46	0x3e2b807a	0.16748229
47	0xbe3b0fbb	-0.1826772
48	0x3e3b210e	0.18274328
49	0x3e09a6b6	0.13442501
50	0xbd13aea8	-0.036055237
51	0x3db9ba90	0.09068787
52	0x3bd1e300	0.0064052343
53	0xbe7b2be2	-0.24528459
54	0x3e1b12b2	0.1514385
55	0xbe5b73a2	-0.21430829
56	0x3c9cd920	0.019146502
57	0xbe4e4ed4	-0.20147258
58	0x3e60873e	0.21926591
59	0xbda55ef8	-0.080747545
60	0xbe34326f	-0.17597364
61	0x3e92c679	0.28667048
62	0x3e9d7acf	0.30757758
63	0xbe28cde2	-0.16484788

encoder.conv1.lin_r.weight f4 [64, 7]
0	0x3e61922e	0.2202842
1	0x3eb91b05	0.36153427
2	0xbe842d19	-0.25815657
3	0xbe850f17	-0.25988075
4	0x3e5bfee6	0.21483955
5	0xbc812520	-0.015764773
6	0x3ebf9387	0.37417242
7	0xbe848b57	-0.25887558
8	0xbe2ffffa	-0.17187491
9	0x3e95d93d	0.29267302
10	0xbbabc7c0	-0.005242318
11	0x3e4a82ba	0.1977643
12	0xbcef1a20	-0.029187262
13	0x3e4f9342	0.20271018
14	0xb9015000	-0.00012332201
15	0xbddb1b9c	-0.106986254
16	0xbebb9fff	-0.36645505
17	0xbe1852b6	-0.14875302
18	0xbdd7a91c	-0.10530302
19	0xbd7781d0	-0.060426533
20	0x3d92e724	0.07172993
21	0x3eb589fd	0.3545684
22	0x3eb2a0a3	0.3488818
23	0xbebc129a	-0.36732942
24	0x3d280030	0.041015804
25	0xbdc21890	-0.09477341
26	0xbd551570	-0.052022398
27	0xbe818be1	-0.25302032
28	0x3eb6a1f5	0.35670438
29	0x3de695e0	0.11259055
30	0xbe674746	-0.22585782
31	0x3dee08d4	0.116227776
32	0xbc1228a0	-0.008920819
33	0xbd5392c8	-0.051653653
34	0xbebfb95e	-0.3744611
35	0xbe98785c	-0.29779327
36	0xbec181bc	-0.37794292
37	0xbe1297fc	-0.1431579
38	0xbde1c610	-0.110241055
39	0x3db514d4	0.08841863
40	0xbca5b230	-0.020226568
41	0x3ea1cab3	0.3159996
42	0xbd30ded0	-0.04318124
43	0x3ec0f417	0.37686226
44	0x3e79f93e	0.24411485
45	0x3df66a10	0.120319486
46	0xbd78a2b0	-0.060702026
47	0x3dcd8a6c	0.100361675
48	0xbc903b40	-0.017606378
49	0x3eabdab5	0.33565298
50	0x3e2ee8be	0.17080972
51	0xbc8970b0	-0.016777366
52	0xbe04112e	-0.12897179
53	0x3e6aeaca	0.22941127
54	0xbe2758de	-0.16342494
55	0xbe349e06	-0.17638406
56	0x3ea4918f	0.32142302
57	0x3e0d733e	0.13813493
58	0x3ea12d47	0.31479856
59	0xbd091640	-0.033468485
60	0xbde5fb3c	-0.1122956
61	0xbe2d9585	-0.16951568
62	0xbea5b88e	-0.32367367
63	0x3e06c466	0.13160858
64	0xbeb989f0	-0.3623805
65	0x3e91a305	0.28444687
66	0x3e2f102e	0.17096016
67	0xbe381cf9	-0.17979802
68	0xbe222816	-0.15835604
69	0xbe01515a	-0.1262869
70	0xbe18648c	-0.14882106
71	0xbddfe02c	-0.10931429
72	0xbde3517c	-0.11099526
73	0x3d38df70	0.04513496
74	0x3e2b123e	0.16706178
75	0xbe350345	-0.17677028
76	0xb9eaac00	-0.00044760108
77	0xbd3b4a50	-0.045725167
78	0x3ebac777	0.36480305
79	0x3e55ac16	0.20866427
80	0x3d2d1f28	0.04226604
81	0x3e0131e2	0.12616685
82	0x3e174072	0.14770678
83	0xbe454c6b	-0.19267432
84	0x3d9b6108	0.075868666
85	0x3ba4e5c0	0.005032271
86	0xbe222ff4	-0.15838605
87	0x3da25964	0.07927206
88	0x3e86783d	0.2626361
89	0xbe83260d	-0.25614968
90	0xbe92bfdb	-0.28662
91	0xbe98e4dc	-0.29862106
92	0x3e74acb6	0.23894009
93	0x3e1c3ece	0.15258333
94	0xbd02ba10	-0.031915724
95	0xbe482dc8	-0.19548714
96	0xbe87b2ea	-0.26503688
97	0x3ea6ca2d	0.32576123
98	0xbec10b49	-0.37703922
99	0x3dbd6ed4	0.092496544
100	0xb8973000	-7.209182e-05
101	0xbe2de3d7	-0.16981445
102	0xbeb3e2bf	-0.3513393
103	0x3da97858	0.08274907
104	0x3d824a28	0.063618004
105	0xbe87d397	-0.26528618
106	0x3d5cd690	0.05391556
107	0xbeb504fd	-0.35355368
108	0xbeac47ca	-0.3364852
109	0x3dfff3c4	0.124976665
110	0xbde76758	-0.11299008
111	0x3dd33cfc	0.10314366
112	0x3e693fea	0.22778288
113	0xbe56ad52	-0.20964554
114	0xbea4e4e1	-0.3220587
115	0x3ea54a27	0.32283136
116	0xbdf029c8	-0.11726719
117	0x3e376116	0.17908129
118	0x3eb99331	0.3624511
119	0x3e1f562e	0.15560219
120	0xbe79ca6d	-0.24393626
121	0xbe9e7694	-0.30949843
122	0x3c0f3c00	0.008742332
123	0x3e8f2757	0.279597
124	0xbe9c16ee	-0.30486244
125	0x3eb804a1	0.35941032
126	0xbe8578af	-0.26068637
127	0x3e16c90e	0.14725134
128	0x3da4d198	0.08047789
129	0x3eb05da3	0.3444644
130	0xbe8c06c5	-0.27348915
131	0xbcf88420	-0.03033644
132	0xbd8a17d0	-0.06742823
133	0xbeb84b49	-0.35994938
134	0xbeba1fa3	-0.36352262
135	0x3db55488	0.08854014
136	0x3dee7adc	0.11644527
137	0xbe3e3e36	-0.18578419
138	0xbe23c4c6	-0.15993032
139	0xbea6f8d0	-0.32611704
140	0x3eb7ccf1	0.35898545
141	0x3eb314b3	0.3497673
142	0x3e61910a	0.22027984
143	0x3d03a2d8	0.03213772
144	0x3e8f7b29	0.2802365
145	0x3e29b9be	0.16574761
146	0x3e3696e2	0.17830995
147	0xbea6103e	-0.32434267
148	0x3e71919e	0.23590705
149	0xbe408131	-0.18799283
150	0xbdade158	-0.084902465
151	0xbe0b22ef	-0.13587545
152	0x3eb8c453	0.36087283
153	0x3e3f720a	0.18695846
154	0xbe10b556	-0.14131674
155	0xbdd1497c	-0.10219094
156	0x3ea92e1d	0.33042994
157	0xbd786128	-0.06063953
158	0xbe72b13e	-0.23700425
159	0xbce49120	-0.027901232
160	0x3ebf730f	0.3739247
161	0x3d9e4a88	0.077290595
162	0xbe0f6e6c	-0.14006966
163	0x3de8f33c	0.11374518
164	0xbeaf3deb	-0.34226927
165	0x3df18f20	0.11794877
166	0xbe22dee1	-0.15905334
167	0xbeb217b0	-0.34783697
168	0xbd121d70	-0.035672605
169	0x3d383e60	0.04498136
170	0xbe1ecf83	-0.15508847
171	0x3e6f7cea	0.23387495
172	0x3db40e70	0.08791816
173	0xbd8c65b0	-0.06855333
174	0x3d3ae688	0.045630008
175	0xbe84412c	-0.25830972
176	0x3e741eaa	0.23839822
177	0xbb385b00	-0.0028130412
178	0xbb46a800	-0.0030312538
179	0xbe105311	-0.14094187
180	0xbc300f80	-0.010745883
181	0x3e129926	0.14316234
182	0xbe781c87	-0.24229632
183	0xbe1692b2	-0.14704397
184	0xbe7e542c	-0.24836797
185	0xbeb5935a	-0.35463983
186	0x3e9e4fab	0.30920157
187	0x3e12d5d6	0.14339384
188	0xbe913db0	-0.28367376
189	0x399dbc00	0.00030085444
190	0x3e8d3d1b	0.27585682
191	0x3dc04234	0.09387627
192	0xbe4649a2	-0.19364026
193	0xbe3633a9	-0.17793144
194	0xbe02d8b6	-0.12777981
195	0xbe3b78f3	-0.18307857
196	0xbd8bdb94	-0.068289906
197	0x3d7e1138	0.06202814
198	0x3de60174	0.11230746
199	0x3e1cc73a	0.15310374
200	0x3e6d0406	0.23146066
201	0x3e41efaa	0.18939081
202	0xbe4c2693	-0.1993659
203	0x3da26854	0.07930055
204	0x3d4abdd8	0.049497455
205	0xbd933d5c	-0.07189438
206	0x3d1561f0	0.036470354
207	0x3e52916e	0.2056329
208	0xbcee83b0	-0.029115528
209	0x3ea3a75d	0.31963626
210	0xbde27d2c	-0.11059031
211	0x3d729fd0	0.05923444
212	0x3e821b21	0.25411323
213	0xbdf00aec	-0.11720833
214	0x3dc8734c	0.09787616
215	0xbe8e7a67	-0.2782776
216	0x3d2f54c8	0.042805463
217	0x3e4e711a	0.20160332
218	0x3e9e2d1d	0.30893794
219	0xbde41450	-0.11136687
220	0xbe112af1	-0.14176537
221	0xbe46efdb	-0.19427435
222	0xbe8c6d9d	-0.27427378
223	0xbd1c2f68	-0.038131148
224	0xbe56d290	-0.2097876
225	0xbe170e0d	-0.14751454
226	0xbebbf72c	-0.36712015
227	0x3eb77e81	0.35838702
228	0xbba89e40	-0.005145818
229	0x3bd41380	0.006472051
230	0x3e5d223a	0.21595088
231	0xbe08f1eb	-0.13373534
232	0x3d7f0478	0.06226012
233	0xbe81dbb2	-0.25362927
234	0xbe26b5f4	-0.16280347
235	0x3e044e96	0.12920603
236	0x3ea0002f	0.3125014
237	0xbe5a8a83	-0.213419
238	0x3d682608	0.056676894
239	0x3db55604	0.08854297
240	0x3e1299f6	0.14316544
241	0x3c54c960	0.012987465
242	0xbe2edaef	-0.17075704
243	0x3eb10e6b	0.34581313
244	0xbe616b27	-0.22013532
245	0xbe0c1d1d	-0.13682981
246	0xbe734ab3	-0.23758964
247	0xbea1eeac	-0.31627405
248	0x3e83d90d	0.25751534
249	0xbe13ca02	-0.14432529
250	0xbe6fd3f2	-0.23420694
251	0xbe136e72	-0.143976
252	0x3e834795	0.2564055
253	0x3e80ee7f	0.25181958
254	0x3e786d92	0.24260548
255	0x3dcf3aac	0.10118613

encoder.conv2.lin_l.weight f4 [64, 64]
0	0x3defe3fa	0.11713405
1	0x3d491ad4	0.04909785
2	0xbd00e9bc	-0.031472906
3	0x3dc7791c	0.09739897
4	0xbcc75788	-0.02433373
5	0x3dfd9604	0.12382129
6	0xbd91c820	-0.07118249
7	0x3ce84360	0.02835244
8	0xbdc8b204	-0.09799579
9	0xbcc52b58	-0.02406852
10	0xbdb01380	-0.08597469
11	0x3bbc3000	0.0057430267
12	0x3db83d1a	0.08996029
13	0xbdfec39c	-0.12439653
14	0x3dd81992	0.10551752
15	0xbdadcb48	-0.084860384
16	0x3caed6e8	0.02134271
17	0xbddc7fc2	-0.10766555
18	0x3db25e7c	0.08709428
19	0xbd3addb4	-0.04562159
20	0xbdedf1c0	-0.11618376
21	0xbd74ddf0	-0.05978197
22	0x3d456d18	0.048199743
23	0xbc5d9920	-0.013525277
24	0xbdbc2e28	-0.09188491
25	0x3b8b8300	0.00425756
26	0xbd6d00e8	-0.057862192
27	0x3d93d74e	0.072188005
28	0xbd16841c	-0.036747083
29	0x3d9bff36	0.07617037
30	0x3dfcc142	0.123415485
31	0x3c4376a0	0.011930138
32	0xbda170de	-0.07882856
33	0x3df8137e	0.12113093
34	0xbde45fe0	-0.11151099
35	0xbd357858	-0.044304222
36	0xbb964c80	-0.004586756
37	0xbdff112c	-0.12454447
38	0xbdac210e	-0.08404742
39	0x3ddaaa72	0.10677041
40	0xbd139614	-0.036031798
41	0x3ccd3378	0.025048956
42	0x3d9da7f4	0.0769805
43	0xbdc6d556	-0.09708659
44	0xbd3158c4	-0.043297544
45	0xbdf93004	-0.121673614
46	0x3bcfcd00	0.0063415766
47	0x3deb3ad2	0.114858285
48	0xbdc5dd88	-0.09661394
49	0xbc7027b0	-0.0146579
50	0xbcd23260	-0.025658786
51	0xbd154d0c	-0.03645043
52	0xbdd86bf8	-0.105674684
53	0xbdd13c38	-0.10216564
54	0xbdd6d65e	-0.10490106
55	0xbdfc643c	-0.12323806
56	0x3cced388	0.02524735
57	0x3d675fc0	0.0564878
58	0x3d9db100	0.07699776
59	0x3df25408	0.11832434
60	0xbdd8fe98	-0.10595435
61	0x3dcc43c2	0.09973861
62	0xbbe4ee00	-0.0069863796
63	0x3dc0ee02	0.094203964
64	0x3d83704e	0.06417905
65	0xbddeacc4	-0.10872796
66	0xbd75418c	-0.059876963
67	0xbd7e0e50	-0.06202537
68	0xbd3b46b8	-0.04572174
69	0x3dfdba88	0.12389094
70	0xbd043994	-0.032281473
71	0xbb9dda40	-0.004817277
72	0xbd43e13c	-0.047822222
73	0x3dcde704	0.10053828
74	0xbd2bc1c0	-0.04193282
75	0xbdeb31a6	-0.11484079
76	0xbd993360	-0.07480502
77	0x3d72e998	0.059304804
78	0x3dbed99e	0.09318851
79	0x3ce5c778	0.028049216
80	0xbdcad294	-0.09903446
81	0xbc665a90	-0.014059678
82	0xbd918154	-0.071047455
83	0xbd9ee18c	-0.077578634
84	0xbd13b400	-0.036060333
85	0x3d3fedf0	0.046857774
86	0xbdd9e1d4	-0.106387764
87	0xbbc4da00	-0.006007433
88	0xbdb21a4c	-0.08696422
89	0xbd095438	-0.033527583
90	0xbdd32012	-0.10308851
91	0x3ca576d0	0.020198256
92	0xbdd25b74	-0.102713495
93	0x3d917502	0.071023956
94	0xbd156dec	-0.036481783
95	0x3dd9e2d8	0.1063897
96	0x3d38db38	0.04513094
97	0xbde836c0	-0.11338568
98	0x3dca4f50	0.09878409
99	0xbda1931a	-0.078893855
100	0x3dd0903c	0.101837605
101	0x3dd89d5a	0.105768874
102	0xbd97589c	-0.07389948
103	0xbd0e8a04	-0.03479959
104	0xbdb75a48	-0.08952767
105	0x3dc54040	0.09631395
106	0xbd21aaec	-0.039469644
107	0x3d10eb88	0.03538087
108	0x3b3fecc0	0.00292854
109	0x3c785140	0.01515609
110	0x3cc5a2a8	0.024125412
111	0x3c061020	0.008182555
112	0xbdeed6e8	-0.11662084
113	0xbd9968fc	-0.07490727
114	0xbdb4a61a	-0.08820744
115	0x3d853016	0.06503312
116	0xbd8dfa46	-0.069325015
117	0xbdaa81de	-0.083255515
118	0xbdc841a4	-0.09778145
119	0xbd2b4c84	-0.041821018
120	0xbd345358	-0.044024795
121	0x3ca427e8	0.02003856
122	0x3d3e0dac	0.046399757
123	0x3cfd7be8	0.030942872
124	0xbcacb6d0	-0.021083266
125	0xbd5bbbf4	-0.053646043
126	0x3daeb3e6	0.08530407
127	0xbd96ce20	-0.07363534
128	0x3ccd4fb0	0.025062412
129	0x3db28350	0.08716452
130	0x3c9f2ea8	0.019431427
131	0x3d09d7b0	0.03365296
132	0x3d71fa0c	0.059076354
133	0x3d2d7714	0.04234989
134	0xbd34e124	-0.044160023
135	0xbc4b9450	-0.012425497
136	0xbc26baf0	-0.010176405
137	0x3c4a48b0	0.012346432
138	0xbd1643f0	-0.036685884
139	0x3d7f1df8	0.06228444
140	0x3c6cc560	0.014451355
141	0x3df1ca4a	0.11806162
142	0x3deb9db8	0.11504692
143	0x3cd44780	0.025913
144	0xbd8af8a0	-0.06785703
145	0xbbed4b00	-0.0072416067
146	0x3d8a5426	0.06754331
147	0x3c966f20	0.018363535
148	0xbae48d00	-0.0017437041
149	0x3d1036fc	0.035208687
150	0x3dd1838a	0.10230167
151	0xbd2c8ab8	-0.04212448
152	0xbd8c7e86	-0.0686007
153	0xbac36c00	-0.0014909506
154	0x3dbf07fc	0.09327695
155	0xbbe679a0	-0.007033542
156	0x3d4f7678	0.05065009
157	0xbd017c44	-0.03161265
158	0xbc1a7060	-0.009426206
159	0xbcc0d908	-0.023540989
160	0x3cc83600	0.024439812
161	0x3da8dd4c	0.08245334
162	0xbcce3ce8	-0.025175527
163	0xbd9fabd8	-0.077964485
164	0x3d98c57a	0.07459541
165	0xbdc9561e	-0.09830879
166	0x3dd4d19e	0.10391544
167	0xbd3740d4	-0.04473956
168	0xbd89ddda	-0.06731768
169	0xbd45aaec	-0.048258707
170	0xbdda5fce	-0.106628045
171	0x3db12366	0.0864933
172	0x3db9ecb6	0.09078352
173	0xbdb818d0	-0.089891076
174	0x3d85e470	0.065377116
175	0x3c0f9f50	0.00876601
176	0x3d1974a8	0.037464768
177	0xbd7e1b20	-0.062037587
178	0x3d545f30	0.05184859
179	0xbc8c86c8	-0.017154112
180	0x3d9c353e	0.07627343
181	0xbda63556	-0.08115642
182	0xbdb08728	-0.08619529
183	0xbcfdccc8	-0.030981436
184	0x3d3d96d0	0.046286404
185	0xbd552678	-0.05203864
186	0x3db05d94	0.086115986
187	0x3c22d7e0	0.009939164
188	0xbd3116fc	-0.04323481
189	0xbd572210	-0.05252272
190	0x3dd81c6a	0.105522946
191	0x3dafb608	0.085796416
192	0xbd677c04	-0.056514755
193	0xbcb95a88	-0.022626176
194	0x3d8543c4	0.06507066
195	0x3d2286c8	0.03967932
196	0x3d7af0dc	0.061264858
197	0xbd265e74	-0.04061742
198	0x3dd0c138	0.101931036
199	0xbd089b44	-0.033351198
200	0x3db54068	0.08850175
201	0xbd8a55a0	-0.06754613
202	0x3cacde38	0.021102056
203	0xbdb98b44	-0.09059766
204	0xbdb3843e	-0.087654576
205	0xbc9eb8e0	-0.019375265
206	0xbdcdbbea	-0.100456074
207	0xbdba2e04	-0.09090808
208	0xbd78bdd8	-0.060727924
209	0xbded5a6c	-0.11589512
210	0xbd6ea824	-0.05826582
211	0x3d1c4398	0.0381504
212	0x3db66f00	0.0890789
213	0x3d85646a	0.06513293
214	0xbdf9ee08	-0.12203604
215	0x3dab36f6	0.08360092
216	0xbca17388	-0.01970841
217	0xbcfddf00	-0.030990124
218	0xbd2d62fc	-0.042330727
219	0xbd4f1dd4	-0.050565556
220	0xbde74668	-0.11292726
221	0x3d92b3a8	0.07163173
222	0x3df2e558	0.1186015
223	0xbd7460e0	-0.0596627
224	0x3d8f6b36	0.07002871
225	0x3d9921b4	0.074771315
226	0x3d9fbef2	0.07800092
227	0x3dbd4312	0.09241308
228	0xbdf85e80	-0.121273994
229	0xbd44a378	-0.04800746
230	0x3d948b70	0.07253158
231	0x3ca83210	0.020531684
232	0x3bb6d6c0	0.0055797994
233	0xbc4613b0	-0.012089655
234	0x3d8f9d4e	0.07012425
235	0x3de51c7a	0.11187072
236	0xbcc04c80	-0.023473978
237	0xbd85a4ea	-0.065255955
238	0x3cce6c88	0.025198236
239	0x3cc51948	0.024059907
240	0x3d92dfc6	0.07171588
241	0xbbde2d20	-0.0067802817
242	0x3d61d574	0.055135205
243	0x3d316818	0.043312162
244	0xbccba388	-0.024858251
245	0x3cf2b320	0.02962643
246	0xbd63544c	-0.055500314
247	0xbd328698	-0.04358539
248	0x3da30904	0.07960704
249	0x3da3de22	0.08001353
250	0x3ba7a920	0.005116597
251	0xbde17836	-0.110092565
252	0xbdfd038a	-0.12354191
253	0xbd963380	-0.073340416
254	0x3d5a61e0	0.053315997
255	0xbd208644	-0.039190546

encoder.conv2.lin_l.bias f4 [64]
0	0xbcf2ebe8	-0.029653504
1	0xbd73e764	-0.059546843
2	0x3d82fa40	0.06395388
3	0x3de2c8be	0.11073445
4	0xbd898346	-0.067144915
5	0xbcce3e88	-0.025176302
6	0x3d649420	0.055805326
7	0xbd6dae60	-0.058027625
8	0xbdeb77ec	-0.11497483
9	0xbdd1d538	-0.102457464
10	0x3dda687e	0.106644616
11	0x3d71fb68	0.05907765
12	0x3d9761ba	0.07391687
13	0xba5b5c00	-0.0008367896
14	0xbd386bf4	-0.045024827
15	0x3c744330	0.014908597
16	0x3de2f024	0.110809594
17	0x3d07f1f8	0.033189744
18	0xbd9b6e24	-0.07589367
19	0xbc3f12a0	-0.011662155
20	0x3de54102	0.1119404
21	0xbd478f74	-0.048720792
22	0x3d86e69a	0.065869525
23	0x3d87fa46	0.06639533
24	0x3d08bcd0	0.03338319
25	0x3ddf41f6	0.10901253
26	0xbad0b680	-0.001592353
27	0xbc946e68	-0.018119052
28	0xbdf3973c	-0.1189408
29	0xbdb3caae	-0.087788925
30	0xbdb0bb34	-0.08629456
31	0xbd8b3dde	-0.067989096
32	0x3d19fd54	0.03759511
33	0xbd9bf86e	-0.076157436
34	0xbdd6429e	-0.10461925
35	0x3dfcf37e	0.1235113
36	0xbce22fd8	-0.027610704
37	0xbd954a6c	-0.072895855
38	0x3dc614ae	0.09671913
39	0x3bab0660	0.005219266
40	0x3dc88242	0.0979047
41	0xbdc0b4aa	-0.09409459
42	0x3ca69fb8	0.020339832
43	0xbdd75586	-0.10514359
44	0xbdee76fe	-0.1164379
45	0x3df6e81e	0.120559916
46	0xbbf4a140	-0.0074655116
47	0xbc4f22e0	-0.012642592
48	0xbd0f0a48	-0.034921914
49	0xbdaef344	-0.08542493
50	0x3d4f8104	0.05066015
51	0xbb8d61a0	-0.0043146163
52	0xbba617e0	-0.005068764
53	0x3b6efb80	0.0036465824
54	0xbde83486	-0.11338143
55	0x3de6bf1e	0.112669215
56	0x3dc910aa	0.098176315
57	0x3dc7e0ec	0.09759697
58	0x3c7336d0	0.014844611
59	0xbd167d94	-0.036740854
60	0xbc4373d0	-0.011929467
61	0x3c2c8f50	0.010532215
62	0xbc7f3ca0	-0.015578419
63	0x3dd2b5fa	0.102886155

encoder.conv2.lin_r.weight f4 [64, 64]
0	0x3d9cabe8	0.07649976
1	0x3c433d80	0.011916518
2	0x3d186560	0.037206054
3	0x3de7102a	0.1128238
4	0xbd035294	-0.032061175
5	0x3d314238	0.04327604
6	0x3daeaa06	0.08528523
7	0xbdcfaf26	-0.10140829
8	0xbd9b6e1a	-0.075893596
9	0x3df7da92	0.12102236
10	0x3d29e350	0.041476548
11	0xbdd72612	-0.10505308
12	0xbdd61010	-0.104522824
13	0xbdbba4ec	-0.09162316
14	0xbd1d5fa0	-0.038421273
15	0xbda5fc08	-0.08104712
16	0xbdd5d092	-0.10440172
17	0xbdee2cc2	-0.116296306
18	0xbdacd694	-0.08439365
19	0xbcdd9fa0	-0.027053654
20	0xbd84440c	-0.064582914
21	0xbd5b1ce8	-0.053494364
22	0xbbd687e0	-0.0065469593
23	0x3da59180	0.080843925
24	0x3d2b2984	0.04178764
25	0xbd73fdb8	-0.059568137
26	0xbc8f48b8	-0.01749073
27	0xbcf87948	-0.030331269
28	0x3cb3e3a0	0.021959126
29	0x3d005470	0.031330526
30	0x3c764ed0	0.015033439
31	0x3dfe103c	0.1240544
32	0x3d644eb4	0.05573912
33	0x3df16026	0.11785917
34	0x3dabff1e	0.08398269
35	0x3dec10e8	0.11526662
36	0x3d9e4e3c	0.07729766
37	0xbdc2b99e	-0.0950806
38	0xbde88a6a	-0.113545254
39	0xbd5f1f20	-0.054473042
40	0xbda2cf52	-0.079496995
41	0xbdb4aeb4	-0.088223845
42	0x3d663eb4	0.056212142
43	0xbdf92526	-0.121652886
44	0x3d9f5c7a	0.077813104
45	0xbdf63800	-0.120224
46	0xbdbc7286	-0.09201531
47	0xbdd2a964	-0.10286215
48	0xbdbd0040	-0.09228563
49	0xbd717878	-0.05895278
50	0xbbf86fa0	-0.007581666
51	0x3dcbf03c	0.099579304
52	0x3bb0fc80	0.005401194
53	0x3dd7bff2	0.105346575
54	0x3c8a1a50	0.01685825
55	0xbd87e614	-0.06635681
56	0xbde040fc	-0.10949895
57	0xbca60708	-0.020267025
58	0xbd4de394	-0.050265864
59	0x3dee3522	0.11631228
60	0xbd9601ba	-0.07324548
61	0xbd632f38	-0.055464953
62	0x3de35de2	0.11101891
63	0x3c9cf958	0.019161865
64	0xbdaf0260	-0.08545375
65	0xbdf74e52	-0.12075485
66	0xbc073d10	-0.0082543045
67	0x3cc49538	0.023996934
68	0xbdbc02d8	-0.0918023
69	0xbd30dc84	-0.04317905
70	0x3def6650	0.116894364
71	0x3d548210	0.05188185
72	0xbdf9daa6	-0.12199907
73	0x3d90fbf4	0.07079306
74	0x3d4720c4	0.048615232
75	0x3d861382	0.065466896
76	0xbdda1028	-0.10647613
77	0xbdbfd792	-0.09367289
78	0x3de8b3c0	0.113624096
79	0x3dfcca02	0.123432174
80	0xbdacbed0	-0.08434832
81	0x3d9c9524	0.07645634
82	0x3de76d7a	0.11300178
83	0xbd1eb78c	-0.038749263
84	0x3dc6a8f0	0.09700191
85	0x3c1b4f40	0.009479344
86	0xbda6b072	-0.08139123
87	0x3d5084ec	0.050908014
88	0x3ceb55a0	0.028727353
89	0x3dca7062	0.098847166
90	0x3b2b5540	0.0026143342
91	0xbd80a1a8	-0.062808335
92	0x3d1b900c	0.03797917
93	0x3df8e1e4	0.1215246
94	0xbdb616c8	-0.08891064
95	0x3d8ac6be	0.06776188
96	0xbcb93fc8	-0.022613421
97	0xbc27a870	-0.01023303
98	0xbd7ed82c	-0.062217876
99	0xbdc964d0	-0.098336816
100	0x3d3ec3d4	0.046573475
101	0x3cef3b50	0.029203087
102	0x3d90dbf8	0.07073206
103	0xbda52286	-0.080632254
104	0x3dc93262	0.09824063
105	0x3cf7ccf8	0.030249104
106	0xbd99f9ec	-0.07518372
107	0xbde6a6a2	-0.112622514
108	0xbd258b30	-0.040415943
109	0xbdcf1440	-0.10111284
110	0x3ddc4b96	0.107566044
111	0x3ce36070	0.027755946
112	0x3c467dc0	0.012114942
113	0x3d77bac8	0.060480863
114	0xbc53f890	-0.01293768
115	0xbde5b616	-0.11216371
116	0x3d3605ac	0.044439003
117	0xbb0bf700	-0.002135694
118	0xbd832590	-0.06403649
119	0x3dce3f48	0.10070664
120	0xbc1de940	-0.009638131
121	0x3de8f098	0.113740146
122	0xbc231660	-0.009954065
123	0x3d3a1558	0.04543051
124	0x3cb0f358	0.02160041
125	0xbd6f07f0	-0.05835718
126	0xbd9a55ae	-0.07535873
127	0x3cffc8e0	0.031223714
128	0xbbbf4f60	-0.0058383197
129	0xbdcb875c	-0.09937927
130	0xbcab26a8	-0.020892456
131	0x3cf34750	0.02969709
132	0xbd9e0a52	-0.07716812
133	0xbd0fb98c	-0.03508906
134	0x3df86452	0.121285096
135	0x3de23592	0.11045374
136	0x3dce0688	0.100598395
137	0x3de80d1e	0.11330627
138	0x3c8ac9d8	0.01694195
139	0x3cd12ee0	0.025535047
140	0xbbbbc540	-0.005730301
141	0xbd5ca780	-0.053870678
142	0xbd66dfd0	-0.056365788
143	0xbdccefd6	-0.100066826
144	0x3d72d3e0	0.05928409
145	0xbdb81d9c	-0.089900225
146	0xbcb74aa0	-0.022374451
147	0x3d4caf90	0.049972117
148	0x3d9d7f54	0.076903015
149	0xbda42e8e	-0.08016692
150	0x3dd8ec7c	0.10591981
151	0xbdbbe4b4	-0.09174481
152	0x3cda2968	0.026631072
153	0xbd8d98ce	-0.06913911
154	0xbd9a8f26	-0.07546835
155	0x3d034d24	0.03205599
156	0xbd4e4b44	-0.050364748
157	0x3ccf8010	0.02532962
158	0xbd8c697e	-0.068560585
159	0xbdc3062e	-0.09522663
160	0x3d917ad2	0.07103504
161	0xbde4755c	-0.11155197
162	0x3dd37aa4	0.10326126
163	0xbc7294b0	-0.014805958
164	0x3a860b00	0.0010226667
165	0x3d1bac00	0.03800583
166	0x3dc6e42e	0.097114906
167	0x3dccb68a	0.09995754
168	0x3d987e3e	0.07445954
169	0x3d5db5d4	0.054128483
170	0x3ca2ff60	0.019897163
171	0xbd96f648	-0.07371193
172	0x3cac2928	0.021015719
173	0x3b99f420	0.0046982914
174	0x3c972e10	0.018454581
175	0xbd706ca8	-0.058697373
176	0xba6e7a00	-0.0009097159
177	0xbc21c640	-0.009873927
178	0x3ce6c360	0.028169334
179	0xbd8e33a2	-0.06943442
180	0x3d8b1ae6	0.0679224
181	0x3d9bd7aa	0.07609494
182	0x3a5a5100	0.000832811
183	0x3dc441b2	0.09582843
184	0xbd856a14	-0.065143734
185	0x3d97db4a	0.07414873
186	0x3c0f7180	0.008755088
187	0x3c190870	0.009340391
188	0xbd1f8714	-0.03894718
189	0xbdf3419c	-0.11877748
190	0x3cda12f8	0.026620373
191	0xbc73af00	-0.014873266
192	0x3db2ed78	0.087367
193	0x3b887860	0.0041647404
194	0xbd4b54ac	-0.049641296
195	0xbdaf00ce	-0.08545075
196	0x3d8c6930	0.068560004
197	0xbcc59708	-0.024119869
198	0xbdf769b8	-0.12080711
199	0xbdab34e6	-0.08359699
200	0xbd9d1160	-0.0766933
201	0xbc50df30	-0.012748525
202	0xbdad098c	-0.084490865
203	0xbd3bef08	-0.045882255
204	0xbd9a08e2	-0.075212255
205	0xbde55cba	-0.11199327
206	0xbd83b706	-0.06431393
207	0xbdfc2802	-0.123123184
208	0x3cb34c80	0.021887064
209	0x3d5f8b44	0.054576173
210	0x3db5921c	0.08865759
211	0x3d5ff404	0.05467607
212	0x3d3c8224	0.04602255
213	0x3d8d355a	0.06894942
214	0xbd83a910	-0.064287305
215	0x3dd12b3e	0.10213326
216	0xbd3623a4	-0.044467583
217	0x3c2cb130	0.010540292
218	0x3d34be20	0.04412663
219	0x3df6b834	0.12046853
220	0x3db69f06	0.0891705
221	0x3ddb2718	0.10700816
222	0x3dad1efc	0.084531754
223	0x3d04dd50	0.032437623
224	0xbc171fc0	-0.009223878
225	0x3d005c88	0.031338245
226	0x3dec3012	0.11532606
227	0xbce6bd88	-0.028166547
228	0x3ddcaa62	0.107746854
229	0xbd788258	-0.06067118
230	0x3dc35760	0.0953815
231	0x3cf14150	0.029450089
232	0x3cf29480	0.029611826
233	0xbc5c4d20	-0.013446122
234	0xbdbea728	-0.09309226
235	0xbd230ac0	-0.039805174
236	0xbd12feb8	-0.03588745
237	0xbdff8664	-0.12476805
238	0x3dc9d566	0.09855156
239	0xbb4d6a40	-0.0031343848
240	0xbd9a2602	-0.07526781
241	0xbd60da00	-0.0548954
242	0xbddccd3e	-0.10781334
243	0xbdf965d0	-0.12177622
244	0x3dc67520	0.096903086
245	0xbdc37d34	-0.09545365
246	0x3d80e7e2	0.06294228
247	0xbd027a94	-0.03185518
248	0x3d260310	0.040530264
249	0xbd6f48b0	-0.05841893
250	0xbc906790	-0.017627507
251	0xbd2246ac	-0.03961818
252	0xbd42b2b8	-0.04753372
253	0xbdeee8c6	-0.11665492
254	0x3cac2d48	0.021017686
255	0xbd5c366c	-0.05376284

decoder.mlp.0.weight f4 [128, 64]
0	0x3d1b0170	0.037843168
1	0x3de36f88	0.11105257
2	0xbdf64aee	-0.120260105
3	0xbdf76376	-0.120795175
4	0xbdd45fb0	-0.103698134
5	0x3d08e560	0.033421874
6	0x3df31392	0.11868967
7	0x3de244b2	0.11048259
8	0x3c9535c0	0.018214107
9	0x3dc41e84	0.09576133
10	0xbcf3fb30	-0.029782861
11	0x3dcc5ee4	0.099790365
12	0xbdc0abbc	-0.09407756
13	0x3d6827ac	0.05667846
14	0x3d6ecad0	0.058298886
15	0x3d8886dc	0.066663474
16	0xbdcf67d6	-0.10127227
17	0xbc5d3470	-0.013501272
18	0xbb128fc0	-0.0022363514
19	0xbcd0f0d0	-0.025505453
20	0xbd5c93ac	-0.05385177
21	0x3c96a430	0.018388838
22	0x3d57cfa0	0.05268824
23	0x3c5269b0	0.012842581
24	0xbd82d160	-0.06387591
25	0x3d4fc4ac	0.05072467
26	0x3df46bf4	0.11934653
27	0xbc860808	-0.016361251
28	0xbd920486	-0.07129769
29	0x3d408ef4	0.04701133
30	0xbd0092b8	-0.031389922
31	0x3dcf74ac	0.10129675
32	0x3dd44d4c	0.10366306
33	0xbde11974	-0.10991183
34	0xbdedccde	-0.11611341
35	0xbd0aa3dc	-0.033847675
36	0x3da833d8	0.082130134
37	0xbdeeffcc	-0.11669883
38	0xbcbb80d8	-0.022888586
39	0x3dd8be7e	0.105832085
40	0xbd0b06fc	-0.033942208
41	0xbcd290d8	-0.025703833
42	0x3dccd884	0.100022346
43	0xbca26690	-0.019824296
44	0xbd6ea5dc	-0.058263645
45	0x3cc96028	0.024581984
46	0xbcc4a818	-0.024005935
47	0xbdcf0d28	-0.10109931
48	0xbd663fbc	-0.056213126
49	0xbce0fa98	-0.027463242
50	0xbd871c16	-0.06597154
51	0xbca91d70	-0.02064392
52	0x3d5a8fac	0.053359672
53	0x3dd341bc	0.10315272
54	0xbcd516c8	-0.02601184
55	0xbc9594a0	-0.018259346
56	0x3d99a2b6	0.07501738
57	0xbdaf9a46	-0.08574347
58	0x3b27f700	0.0025629401
59	0xbde59a2c	-0.112110466
60	0xbc8fa840	-0.017536283
61	0x3d4ac724	0.04950632
62	0xbdff60cc	-0.124696344
63	0x3dedb88e	0.11607467
64	0xbddd474a	-0.10804613
65	0x3c81f6c0	0.01586473
66	0xbde67f70	-0.112547755
67	0x3d33ab00	0.04386425
68	0x3d97e790	0.07417214
69	0x3dfdbfc4	0.12390092
70	0xbce7c518	-0.028292224
71	0xbd99d062	-0.07510449
72	0x3c9307b8	0.017948017
73	0x3d81f4d2	0.06345524
74	0x3c611ff0	0.013740525
75	0xbc8bfce8	-0.017088369
76	0xbc6b0e00	-0.0143466
77	0x3c44b260	0.012005419
78	0x3d4c15c4	0.049825445
79	0xbd098ff8	-0.033584565
80	0x3dd3898e	0.10328971
81	0x3d329f58	0.043608993
82	0xbd7944fc	-0.060856804
83	0x3d39d4c4	0.045368925
84	0xbcd17f30	-0.025573343
85	0x3dd7a368	0.10529214
86	0xbd9e7a34	-0.07738152
87	0x3cab3938	0.020901307
88	0xbd8757a6	-0.066085145
89	0xbdeb0184	-0.114748985
90	0xbd8474da	-0.064676
91	0xbd5740f0	-0.052552164
92	0xbdfa78e6	-0.12230091
93	0x3dab9d60	0.08379626
94	0x3d7b7b9c	0.06139718
95	0xbda13118	-0.07870692
96	0x3d980e0e	0.07424556
97	0xbdd76d34	-0.10518876
98	0xbdcca4a2	-0.09992339
99	0x3d90eee8	0.07076818
100	0x3d0e21f0	0.034700334
101	0xbded80da	-0.11596842
102	0x3b0d7b00	0.0021588206
103	0x3d4787fc	0.04871367
104	0xbdb2ecf6	-0.08736603
105	0x3d22f008	0.039779693
106	0xbd408c3c	-0.047008738
107	0x3cb8e030	0.022567838
108	0xbd39f3a0	-0.045398355
109	0x3d4ed9d4	0.050500706
110	0xbd2459d8	-0.040124744
111	0x3d8055fc	0.062664
112	0x3d4b81e0	0.049684405
113	0x3cbeb438	0.023279294
114	0x3c211120	0.009830743
115	0xbdf49a00	-0.11943436
116	0x3d0f7778	0.035026044
117	0x3df736a6	0.1207097
118	0xbd1e5540	-0.03865552
119	0xbdccda06	-0.10002522
120	0x3c195b60	0.009360164
121	0x3d381a70	0.044947088
122	0x3dee6748	0.11640793
123	0xbda9a118	-0.08282679
124	0x3dc8873c	0.09791419
125	0x3d3d52b0	0.046221435
126	0x3c607e60	0.013702005
127	0xbc2938b0	-0.010328457
128	0xbd2c5cfc	-0.042080864
129	0x3d8c48b2	0.06849803
130	0xbdbcb040	-0.092133045
131	0xbdd14d62	-0.10219838
132	0xbc7385b0	-0.014863417
133	0x3c60b8d0	0.013715938
134	0x3cf40140	0.029785752
135	0xbb1b9c00	-0.0023744106
136	0xbde9a28c	-0.114079565
137	0xbbf6f6a0	-0.007536724
138	0x3dc99e48	0.09844643
139	0x3d0f01dc	0.034913883
140	0xbd86308a	-0.06552227
141	0xbddca716	-0.107740566
142	0x3d9cf790	0.07664406
143	0xbdb18880	-0.086686134
144	0xbdb5f3de	-0.088844046
145	0x3b8f5a60	0.004374787
146	0x3ccf8400	0.025331497
147	0xbdcb224e	-0.099186525
148	0xbd4dac98	-0.050213426
149	0x3d8a7064	0.06759718
150	0x3dfee888	0.124466956
151	0x3dfa0126	0.1220725
152	0xbd3b1940	-0.045678377
153	0x3da948d2	0.082658425
154	0x3bcb1160	0.0061971396
155	0x3d64e708	0.05588439
156	0x3d67aac8	0.056559354
157	0x3de4b95a	0.111681655
158	0xbc8e1060	-0.017341793
159	0x3d9a0298	0.07520026
160	0xbdae97b8	-0.08525032
161	0x3cbdb580	0.023157835
162	0x3c02a730	0.007974431
163	0x3dbca7f4	0.09211722
164	0xbc8ed3d0	-0.017434984
165	0x3d97a628	0.07404739
166	0x3d533e70	0.051573217
167	0xbcbe6138	-0.023239717
168	0xbc0d9680	-0.008641839
169	0x3caa1920	0.020763934
170	0xbd942d82	-0.072352424
171	0x3c9d7848	0.019222394
172	0x3d7cb384	0.061694637
173	0x3d53b094	0.05168207
174	0xbde6a990	-0.1126281
175	0xbc575400	-0.013142586
176	0x3d4236f0	0.047415674
177	0x3d3e1270	0.046404302
178	0x3dffc8cc	0.12489471
179	0xbdb9d83a	-0.09074445
180	0xbdf4d5e2	-0.119548574
181	0xbdd08ac8	-0.101827204
182	0xbb2b3b40	-0.0026127845
183	0xbdfecee4	-0.12441805
184	0xbdfc54a0	-0.123208284
185	0x3c9a5958	0.01884143
186	0x3d922712	0.07136358
187	0xbd0a6000	-0.03378296
188	0xbcff5fe8	-0.031173661
189	0x3d179744	0.037009493
190	0xbd8b125c	-0.06790611
191	0x3d8d973c	0.06913611
192	0x3d8992ce	0.06717454
193	0x3dc7466e	0.0973023
194	0xbd3f7168	-0.046739012
195	0x3d148dc4	0.03626801
196	0xbd37b6b4	-0.044851974
197	0xbde19bb6	-0.11016028
198	0xbd71751c	-0.058949575
199	0xbd467ea4	-0.048460618
200	0xbce107a8	-0.027469471
201	0xbcd38d98	-0.025824353
202	0x3c1386b0	0.00900428
203	0xbb3da540	-0.0028937608
204	0x3dcd899e	0.10036014
205	0xbde7f258	-0.1132552
206	0x3b87d340	0.004145056
207	0xbd11f250	-0.035631478
208	0x3d987a68	0.07445222
209	0x3d732f8c	0.059371516
210	0xbded6ba8	-0.115927994
211	0xbde42e02	-0.11141588
212	0x3daee0e8	0.08538991
213	0x3dc7684a	0.097366884
214	0xbc306a40	-0.0107675195
215	0xbdc51388	-0.09622866
216	0x3d80a3cc	0.06281242
217	0xbdcc4b72	-0.099753276
218	0xbdae4d8a	-0.08510883
219	0xba8c4680	-0.0010702163
220	0x3dbdce60	0.092678785
221	0x3dcbc3cc	0.09949455
222	0xbdabd67e	-0.083905205
223	0x3de6c7fc	0.11268613
224	0xbd966fe4	-0.0734556
225	0x3de6eca2	0.11275603
226	0xbdc0bf1c	-0.09411451
227	0x3dbcef8e	0.09225379
228	0x3d42c848	0.047554284
229	0x3c4ed740	0.012624562
230	0xbde72de6	-0.11288051
231	0xbcef40f8	-0.029205784
232	0xbd9fe552	-0.07807411
233	0x3c9b1218	0.018929526
234	0xbd91d414	-0.07120529
235	0x3c8eca90	0.017430574
236	0x3da289a0	0.07936406
237	0x3d31f844	0.043449655
238	0x3d4de5d0	0.050267994
239	0xbdcbdd36	-0.09954302
240	0x3df2ccf0	0.11855495
241	0x3d9d38d0	0.07676852
242	0xbdbc089c	-0.091813296
243	0x3cee0348	0.029054299
244	0xbcf40d98	-0.029791638
245	0x3caf9ba0	0.021436512
246	0xbd941e94	-0.07232395
247	0x3b9c7d20	0.0047756582
248	0xbdc5f4fc	-0.09665868
249	0xbdb15f48	-0.086607516
250	0xbd8e481e	-0.06947349
251	0x3da08a44	0.07838872
252	0x3bcb46a0	0.0062034875
253	0x3d9c5d80	0.07635021
254	0xbc7146a0	-0.014726311
255	0xbde6463e	-0.112438664

decoder.mlp.0.bias f4 [128]
0	0xbda8656a	-0.08222468
1	0xbdff7f08	-0.12475401
2	0xbdf38494	-0.11890522
3	0xbc825150	-0.015907913
4	0xbd543db4	-0.051816657
5	0x3cd05710	0.02543214
6	0x3ddef356	0.108862564
7	0x3c886a28	0.016652182
8	0x3dd28166	0.10278587
9	0x3df1b334	0.118017584
10	0xbdd490ec	-0.10379204
11	0xbdf27a2e	-0.1183971
12	0xbd58c3f0	-0.052921236
13	0xbdd71510	-0.10502064
14	0xbcf41dd8	-0.029799387
15	0xbc8391b0	-0.01606068
16	0xbc6cd7a0	-0.014455706
17	0x3dfb6062	0.12274243
18	0x3ded0286	0.11572747
19	0xbd6582e8	-0.056033045
20	0xbab70f00	-0.0013966262
21	0x3a846600	0.0010101199
22	0x3d8ce502	0.06879617
23	0xbde1de30	-0.11028707
24	0xbd3e0f04	-0.04640104
25	0x3db9c634	0.09071007
26	0xbd5d322c	-0.054002926
27	0xbc5030a0	-0.012706906
28	0x3dc7b9da	0.09752245
29	0xbd82ae6c	-0.063809246
30	0x3c891e60	0.016738117
31	0xbd952470	-0.072823405
32	0x3ddbd354	0.10733667
33	0xbdd9e81c	-0.106399745
34	0xbd5283f8	-0.051395386
35	0xbd80e14e	-0.062929735
36	0xbda9898c	-0.08278188
37	0x3dcebcda	0.10094614
38	0x3d5d1ce4	0.05398263
39	0x3d730ffc	0.059341416
40	0xbd42e638	-0.047582835
41	0xbd97c16e	-0.07409941
42	0x3dc3c288	0.09558588
43	0xbd93cd88	-0.07216936
44	0x3da3d2de	0.07999204
45	0xbcc65eb8	-0.024215087
46	0x3cf03638	0.029322729
47	0x3debd09e	0.115144
48	0xbdcf17e2	-0.10111977
49	0x3ccce0e0	0.025009573
50	0x3d8825a6	0.06647806
51	0xbd5628e4	-0.05228509
52	0x3dd58224	0.10425213
53	0xbdadf900	-0.084947586
54	0xbd49b79c	-0.04924737
55	0x3dc061fa	0.093936875
56	0x3dfb9dd8	0.12285966
57	0xbd6a44ec	-0.057194635
58	0xbb210c00	-0.0024573803
59	0x3cbd2ec0	0.023093581
60	0x3d8a03cc	0.067390054
61	0xbd9cacc2	-0.076501384
62	0x3d9dae6e	0.076992854
63	0xbd88ad90	-0.066737294
64	0xbd8f906c	-0.07009968
65	0xbdd0f6a2	-0.102032915
66	0x3df5241a	0.119697765
67	0x3d31e4ac	0.04343097
68	0xbd2f3498	-0.042774767
69	0x3d37c0b4	0.04486151
70	0xbd1f7610	-0.038930953
71	0x3df9ed64	0.12203482
72	0xbde70408	-0.11280066
73	0x3dc4532c	0.09586176
74	0x3dedf19c	0.11618349
75	0xbdc52c82	-0.0962763
76	0x3d7b6bd0	0.061382115
77	0x3c792580	0.015206695
78	0xbd86c3e4	-0.06580332
79	0x3de7ec30	0.11324346
80	0xbd8963a6	-0.067084596
81	0x3d9e0a24	0.07716778
82	0x3c172670	0.009225473
83	0xbdc0b032	-0.094086066
84	0xbda97290	-0.08273804
85	0x3dc839f0	0.09776676
86	0xbd3e4ee8	-0.04646197
87	0xbdbdbcd4	-0.09264532
88	0xbb026600	-0.0019897223
89	0xbd513d9c	-0.051084146
90	0x3c21ec40	0.009882987
91	0x3cfe6a28	0.031056479
92	0xbca5c7e0	-0.02023691
93	0x3da1ac84	0.07894233
94	0x3dd97550	0.10618079
95	0x3d8b450e	0.068002805
96	0xbdf73e58	-0.12072438
97	0x3d8bd324	0.06827381
98	0xbd4afea8	-0.049559265
99	0xbdf6d722	-0.12052752
100	0x3dfdeafe	0.12398337
101	0xbcccde90	-0.02500847
102	0x3dcef332	0.101049796
103	0x3db88998	0.09010619
104	0xbcfebe40	-0.031096578
105	0xbd49cbcc	-0.04926662
106	0xbd8df61a	-0.06931706
107	0xbd0f936c	-0.0350527
108	0x3d84a40c	0.06476602
109	0x3d9d2314	0.07672706
110	0x3dec866e	0.11549078
111	0x3dfe3f8e	0.12414466
112	0xbdb4629e	-0.08807872
113	0x3c0b8960	0.0085166395
114	0x3d1f0e94	0.038832262
115	0x3db6bedc	0.08923122
116	0x3dad4926	0.084612176
117	0xbd6c2248	-0.05764988
118	0xbdfebb66	-0.12438087
119	0xbd1ee864	-0.038795844
120	0x3d07d8ec	0.033165857
121	0xbdbdab4a	-0.092611864
122	0x3ba11e40	0.004916936
123	0x3d1df348	0.03856209
124	0xbd0bcc7c	-0.03413056
125	0x3cb18578	0.021670088
126	0x3dcc949e	0.09989284
127	0xbd89042a	-0.06690247

decoder.mlp.2.weight f4 [64, 128]
0	0xbd95a933	-0.07307663
1	0xbc5a0628	-0.013307132
2	0xbcc83920	-0.024441302
3	0xbd2c2222	-0.04202474
4	0x3d7aa356	0.061190926
5	0xbd4af051	-0.04954559
6	0x3da7de7d	0.08196733
7	0xbd850b32	-0.06496276
8	0x3c3e0218	0.011597179
9	0xbd7984d8	-0.060917705
10	0x3c8a830c	0.016908191
11	0x3daca75d	0.084303595
12	0xbd1f5796	-0.038901888
13	0x3d321996	0.043481432
14	0xbd657d3f	-0.056027647
15	0xbd1513b4	-0.036395743
16	0x3d455a5e	0.048181884
17	0xbc6bca90	-0.014391556
18	0xbd27bb0f	-0.040949877
19	0xbd999b45	-0.075003184
20	0xbd1e4d9b	-0.03864823
21	0x3c86ed30	0.016470522
22	0x3d9cb9a7	0.07652598
23	0x3b112c20	0.0022151545
24	0xbd3336fa	-0.0437536
25	0xbcecdd86	-0.028914224
26	0xbca25104	-0.019814022
27	0x3dadb25d	0.08481286
28	0x3d61bc4e	0.055111222
29	0xbd93db03	-0.072195075
30	0x3d5910b2	0.052994438
31	0x3d8f109b	0.06985589
32	0x3b3f3f00	0.0029181838
33	0xbd0be147	-0.034150388
34	0xbcc7fb48	-0.024411812
35	0xbc845bf4	-0.016157128
36	0xbd67cc8e	-0.056591563
37	0x3db4f6a7	0.08836108
38	0x3d0748f0	0.033028543
39	0x3da883c5	0.08228258
40	0xbcfb685a	-0.030689407
41	0x3ca98d44	0.020697244
42	0xbcae8ba4	-0.02130682
43	0x3c939850	0.018016964
44	0xbd979bf2	-0.07402791
45	0xbd35c096	-0.044373117
46	0xbd9c80c6	-0.07641749
47	0x3d01c728	0.03168407
48	0x3d8ee5f9	0.069774576
49	0x3d142d60	0.036176085
50	0x3cc09ec8	0.023513213
51	0xbd36b0b7	-0.044602122
52	0xbbcebd10	-0.006309159
53	0xbda5cd3d	-0.08095787
54	0xbda074fe	-0.078348145
55	0x3d80f60d	0.062969305
56	0xbd2f0865	-0.042732615
57	0x3d5b319a	0.0535141
58	0xbd33238e	-0.04373508
59	0xbda85ec5	-0.08221201
60	0xbd7b7582	-0.06139136
61	0xbd538059	-0.051636074
62	0x3c1d2710	0.009591833
63	0x3d4795a6	0.0487267
64	0xbd85db60	-0.06535983
65	0xbc8a8fec	-0.01691433
66	0x3d9e1e53	0.07720628
67	0x3d1a5642	0.037679918
68	0x3d8205a7	0.06348734
69	0x3d52dd5e	0.051480643
70	0x3d4e4bbe	0.050365202
71	0xbd1ba39c	-0.037997827
72	0xbd961756	-0.0732867
73	0xbd7e4e84	-0.062086597
74	0x3d410516	0.04712399
75	0x3d95ef73	0.07321062
76	0xbdab9abb	-0.08379122
77	0xbd993e52	-0.0748259
78	0x3cc436d4	0.023951925
79	0xbbb74790	-0.0055932477
80	0x3c049208	0.008091457
81	0x3c6f92e8	0.0146224275
82	0x3bd65630	0.006541036
83	0xbd045037	-0.03230306
84	0x3d78ee12	0.060773917
85	0x3cb663b4	0.022264339
86	0xbd6cb91b	-0.057793718
87	0x3db29b81	0.08721066
88	0x3d65cd66	0.056104086
89	0x3d73a3ea	0.059482493
90	0x3d7cd3c2	0.061725385
91	0xbdb0d326	-0.08634023
92	0x3d4d1f26	0.050078534
93	0xbd68d97a	-0.056848027
94	0xbd9a0df8	-0.075221956
95	0x3d983053	0.07431092
96	0xbcaadc54	-0.020857014
97	0x3d0dff1c	0.03466712
98	0x3d482e12	0.04887206
99	0x3d4d4822	0.05011762
100	0x3cf80634	0.030276395
101	0xbd42e9a1	-0.047586087
102	0x3cab4170	0.020905226
103	0xbd754f5c	-0.059890136
104	0xbc72f418	-0.014828704
105	0x3c331f50	0.010932758
106	0xbdb42281	-0.087956436
107	0x3d0ab6ea	0.033865847
108	0x3d2f6e72	0.04282994
109	0xbda78bca	-0.081809595
110	0xbda0dc0f	-0.07854473
111	0x3d64e4fe	0.055882446
112	0x3cee017c	0.029053442
113	0x3c524aa8	0.012835182
114	0xbd21d1b5	-0.039506633
115	0xbb7ffd20	-0.0039060786
116	0x3c1e1d08	0.009650476
117	0x3d5dfc5e	0.054195754
118	0x3d744cda	0.059643604
119	0x3c85ee64	0.016349025
120	0xbd06025e	-0.0327171
121	0xbc230580	-0.009950042
122	0xbcfb1aec	-0.030652486
123	0x3caf3df4	0.021391846
124	0x3c39e288	0.011345513
125	0x3d1428b0	0.036171615
126	0xbcb65420	-0.02225691
127	0x3cdfe2a0	0.027329743
128	0xbcaae21c	-0.02085977
129	0x3d6133f2	0.05498118
130	0x3cc13b44	0.02358783
131	0xbd2d4a96	-0.04230746
132	0x3c68d300	0.014210463
133	0xbd90a0c4	-0.070619136
134	0x3d9e3df9	0.07726664
135	0xbc12add0	-0.008952573
136	0xbd01981a	-0.031639196
137	0xbda9c0b0	-0.08288705
138	0x3d59e95a	0.053201057
139	0x3a585200	0.0008251965
140	0x3d04210a	0.03225807
141	0x3c932678	0.01796268
142	0x3d8c0f29	0.06838829
143	0xbd09fd82	-0.03368903
144	0x3d765bee	0.060146265
145	0xbb832c10	-0.0040030554
146	0xbd1cfb3b	-0.03832553
147	0xbc25dad0	-0.01012297
148	0x3cbd07d8	0.02307503
149	0xbcc59b00	-0.024121761
150	0x3dafc923	0.08583286
151	0xbd97faaa	-0.07420857
152	0xbb79e7a0	-0.0038132444
153	0x3b8e70a0	0.004346922
154	0xbd45eec9	-0.048323426
155	0x3c29f838	0.010374121
156	0x3d13f31e	0.036120526
157	0xbda43b72	-0.08019151
158	0xbc8cf79c	-0.017207913
159	0x3dac0bb9	0.084006734
160	0xbdb2b328	-0.087255776
161	0xbc5f6058	-0.01363381
162	0x3d5f354a	0.05449418
163	0xbd8c4c7a	-0.06850524
164	0xbd41015a	-0.04712043
165	0xbd5ec306	-0.054385208
166	0xbb827d90	-0.0039822534
167	0x3d947c1d	0.07250235
168	0x3d95c633	0.07313194
169	0xb9890800	-0.00026136637
170	0x3ced2b7c	0.028951399
171	0x3ca087e0	0.01959604
172	0xbd8ac496	-0.06775777
173	0x3d4ccd26	0.050000332
174	0xbd2f9ac4	-0.042872205
175	0xbd71ab42	-0.059001215
176	0x3cfbb818	0.030727431
177	0x3ce030c4	0.027367003
178	0x3d2c51e6	0.042070292
179	0x3bdf9c10	0.006824024
180	0x3cb5fd08	0.022215381
181	0x3cd929f8	0.02650927
182	0x3d157cc6	0.036495946
183	0x3d99eaad	0.07515464
184	0xbcf9247a	-0.030412901
185	0x3b2a3de0	0.0025976822
186	0xbcb23f68	-0.02175875
187	0xbd0ef09c	-0.03489743
188	0x3db0faad	0.086415626
189	0x3da550ab	0.08072027
190	0x3ce555c0	0.02799499
191	0x3c2c2580	0.010506988
192	0x3d522abe	0.051310293
193	0xbcfb7a3a	-0.03069793
194	0xbca2ae38	-0.019858465
195	0xbb84c0d0	-0.0040513054
196	0x3d55b06a	0.052170195
197	0xbc89f2d0	-0.016839415
198	0x3d4b6956	0.049661003
199	0xbd73e9c0	-0.059549093
200	0xbd11a1c9	-0.03555468
201	0xbd30e6bb	-0.04318879
202	0xbbb5bed0	-0.0055464283
203	0x3d9df483	0.077126525
204	0xbb1a24c0	-0.002352044
205	0x3d6b6e76	0.05747839
206	0x3d432f66	0.047652625
207	0xbd31a2a5	-0.043368
208	0xbce8f754	-0.028438248
209	0xbd03c205	-0.032167453
210	0xbd2f31f0	-0.042772233
211	0xbd93e3c2	-0.07221176
212	0xbd5d0953	-0.05396397
213	0xbcf3914c	-0.029732369
214	0xbd77cb12	-0.060496397
215	0xbd449404	-0.04799272
216	0x3d4b1fda	0.049590923
217	0x3d017d96	0.03161391
218	0x3d022f6a	0.0317835
219	0x3d037f6c	0.03210394
220	0x3d6c2f3e	0.05766224
221	0x3d2530c6	0.040329717
222	0xbda1e39e	-0.07904743
223	0x3da047e1	0.0782621
224	0x3db303c5	0.08740953
225	0xbdab3004	-0.08358768
226	0xbb1fb3a0	-0.002436854
227	0xbd5ee491	-0.054417197
228	0x3d9926ab	0.074780785
229	0xbc853110	-0.016258746
230	0x3dabfd73	0.08397951
231	0xbc7bd9a8	-0.0153717175
232	0x3c723800	0.014783859
233	0xbd8e749a	-0.06955834
234	0xbb81cc30	-0.0039611086
235	0x3da9b291	0.08286012
236	0x3d7ddaea	0.06197635
237	0x3d1b39c2	0.03789688
238	0x3d9ecb0f	0.07753574
239	0x3db36973	0.08760347
240	0xbd2ec2fa	-0.042666413
241	0x3d3bc196	0.045838915
242	0xbd15e2c9	-0.036593232
243	0x3d840dd1	0.06447948
244	0x3d874271	0.066044696
245	0x3c714be0	0.014727563
246	0x3db1159b	0.08646699
247	0x3d23e6c2	0.04001499
248	0xbce722c2	-0.028214816
249	0xbd9bc01b	-0.076050006
250	0xbd86cf9b	-0.06582566
251	0xbb770f60	-0.0037698373
252	0x3d832b23	0.06404712
253	0x3c9c89cc	0.019108675
254	0xbd16547c	-0.036701664
255	0x3d938085	0.072022475

decoder.mlp.2.bias f4 [64]
0	0x3d84d945	0.064867534
1	0x3c3b65a0	0.0114378035
2	0xbb6b72a0	-0.0035926476
3	0xbd54d8dd	-0.05196463
4	0xbc8a5c6c	-0.016889773
5	0x3c090db8	0.008365087
6	0xbca5951c	-0.020212702
7	0x3cd73cfc	0.026274197
8	0x3d80b911	0.062852986
9	0x3cec0328	0.028810099
10	0xbd17eb8c	-0.03708987
11	0x3d8343f9	0.06409449
12	0xbdb0e7c5	-0.086379565
13	0xbd501641	-0.050802473
14	0xbd60eb4c	-0.054911897
15	0x3b1939a0	0.0023380294
16	0xbdaecf1a	-0.08535595
17	0xbd5010af	-0.05079716
18	0xbd9b985d	-0.0759742
19	0x3ccc1018	0.024910018
20	0x3d68be0a	0.05682186
21	0x3d784d06	0.06062033
22	0xbc979ed0	-0.018508345
23	0x3cf357ac	0.029704891
24	0x3d967317	0.073461704
25	0xbd2ee0f6	-0.04269501
26	0xbd0c4cb7	-0.03425285
27	0xbcb40b8c	-0.021978162
28	0xbceff9ec	-0.029293977
29	0xbd89eeef	-0.06735026
30	0xbb82ef70	-0.0039958283
31	0x3da2b7e9	0.07945234
32	0x3c8c1f64	0.017104812
33	0x3daf78d9	0.08567972
34	0xbb1bd2e0	-0.0023776814
35	0xbc5324b0	-0.012887165
36	0x3c6399f0	0.013891682
37	0x3d28fe42	0.041258104
38	0xbd396a14	-0.04526718
39	0xbd13d13a	-0.036088206
40	0x3d1abc32	0.037777133
41	0xbd84a21d	-0.06476233
42	0x3cf2909c	0.02960997
43	0xbd59260a	-0.053014793
44	0xbd928513	-0.07154288
45	0x3d35366a	0.044241346
46	0xbd3d1bd5	-0.04616912
47	0x3cc0bc94	0.023527421
48	0x3d827613	0.06370177
49	0x3d4b6f5e	0.049666755
50	0x3d9f4d1b	0.077783786
51	0x3d54c97a	0.051949956
52	0xbc21f808	-0.009885795
53	0xbd97e5c7	-0.074168734
54	0xbdaee207	-0.08539205
55	0x3d8d0c4d	0.06887112
56	0xbdafa1cc	-0.08575782
57	0xbd98b0e8	-0.07455617
58	0x3b57c680	0.0032924712
59	0xbc91204c	-0.017715596
60	0x3d942977	0.07234471
61	0x3d92b7c9	0.071639605
62	0x3d90cc9d	0.07070277
63	0xbd39bbc5	-0.045345087
