prgnn.pth (torch, 109842 bytes, 12 tensors)

encoder.conv1.lin_l.weight f4 [64, 7]
0	0x3e712ca6	0.23552188
1	0xbeb95090	-0.36194277
2	0xbd0d8ef0	-0.034560144
3	0xbe5a5bf4	-0.2132414
4	0x3e1f1166	0.1553398
5	0x3e500222	0.20313314
6	0x3cc71650	0.024302632
7	0xbe9c3006	-0.3050539
8	0x3dd0fa08	0.1020394
9	0x3e3c5482	0.18391612
10	0x3e04294e	0.12906381
11	0xbeb4c281	-0.35304645
12	0x3ead4411	0.33840993
13	0x3eb4f29d	0.3534135
14	0x3df9d010	0.12197888
15	0xbdf6e2a8	-0.1205495
16	0x3eb03ef5	0.34423032
17	0xbd2a7aa0	-0.04162085
18	0x3cb67260	0.022271335
19	0xbe800afa	-0.25008374
20	0x3e23359a	0.15938416
21	0x3e78d8ce	0.24301454
22	0x3ea2f5c7	0.31828138
23	0x3e78f0fe	0.24310681
24	0x3d6c7068	0.057724386
25	0x3e8492fb	0.25893387
26	0xbd5eec18	-0.054424375
27	0x3eb39a45	0.35078636
28	0xbb895b40	-0.004191786
29	0x3e06ebc6	0.13175878
30	0xbe6e3c8f	-0.23265289
31	0xbe2bfda6	-0.16795978
32	0x3dfad7e4	0.12248209
33	0xbea2f3b4	-0.31826556
34	0x3e80a6d7	0.2512729
35	0xbdd71aa8	-0.10503131
36	0xbd8d4e44	-0.068996936
37	0xbe9995a4	-0.2999698
38	0x3e6868a2	0.22696164
39	0xbd375d88	-0.044766933
40	0xbe9d01b4	-0.30665362
41	0x3eb3bc89	0.35104778
42	0x3db5b220	0.08871865
43	0x3e49248a	0.19642845
44	0xbe735227	-0.23761807
45	0xbe904dd2	-0.28184372
46	0x3de39f28	0.11114341
47	0xbe055662	-0.13021234
48	0xbcf8ba10	-0.030362159
49	0xbd8273dc	-0.06369755
50	0xbe3d56fa	-0.1849021
51	0x3e6ade32	0.22936323
52	0x3eb4a265	0.35280147
53	0xbd0e4c70	-0.034740865
54	0xbd118f70	-0.035537183
55	0x3ea0c73b	0.31402
56	0xbb96e740	-0.004605204
57	0xbddb0f1c	-0.10696241
58	0x3e94974f	0.2902169
59	0xbe2d45b6	-0.16921124
60	0x3dbb9d7c	0.09160897
61	0x3ce645b0	0.028109401
62	0x3d994d40	0.074854374
63	0xbe89c65d	-0.26909152
64	0x3e2a0392	0.16602924
65	0x3eb0691b	0.3445519
66	0xbd0d94d8	-0.034565777
67	0xbe883b59	-0.2660778
68	0xbe56415a	-0.20923367
69	0xbb482e00	-0.0030544996
70	0x3da324f4	0.079660326
71	0xbda4726c	-0.08029637
72	0xbe1bd37b	-0.15217392
73	0xbe9f86df	-0.31157586
74	0x3eb1877d	0.34673682
75	0x3dfa07f4	0.12208548
76	0x3e72315a	0.23651639
77	0x3dd6d144	0.10489133
78	0xbe9a861c	-0.30180442
79	0x3e84e945	0.2595922
80	0x3ddd742c	0.10813174
81	0xbe3b6cb0	-0.1830318
82	0x3ebda8ed	0.37042943
83	0xbda5c9a0	-0.080950975
84	0xbe2ac2c8	-0.16675866
85	0xbcb2bfc0	-0.02181995
86	0x3e356676	0.17714867
87	0x3d5a78b0	0.053337753
88	0xbe8725d0	-0.26396036
89	0x3bd59680	0.006518185
90	0xbe04bdcb	-0.12963025
91	0x3cc88e80	0.024482012
92	0xbdaca258	-0.08429402
93	0x3d9f0590	0.07764733
94	0x3e050cce	0.12993166
95	0x3e219d46	0.15782651
96	0xbdd06024	-0.10174587
97	0x3ebf433d	0.37355986
98	0x3ebb3b7f	0.3656883
99	0x3e9ae347	0.30251524
100	0x3dbd1df0	0.09234226
101	0xbe7a9f7e	-0.24474904
102	0xbe1298dc	-0.14316124
103	0xbe9848c7	-0.29743025
104	0xbb221b80	-0.002473563
105	0xbe92f78f	-0.28704497
106	0xbd673138	-0.056443423
107	0xbe715e54	-0.2357114
108	0xbe9c33ff	-0.3050842
109	0x3dbe7c38	0.093010366
110	0xbb472100	-0.003038466
111	0xbeb974c6	-0.36221904
112	0xbd20f730	-0.039298236
113	0xbce3b4d0	-0.027796179
114	0x3eb52f6b	0.3538774
115	0xbdfbcfbc	-0.122954816
116	0xbe80d347	-0.25161192
117	0x3e509852	0.20370606
118	0xbd6f7e20	-0.05846989
119	0xbe45963e	-0.19295594
120	0xbe874d4f	-0.2642617
121	0x3d164a60	0.036692023
122	0xbe520a0a	-0.20511642
123	0xbe756537	-0.23964392
124	0xbd328ff8	-0.04359433
125	0xbda9e130	-0.08294904
126	0xbd9209a0	-0.07130742
127	0xbcdc6940	-0.026905656
128	0xbe205f36	-0.1566132
129	0xbe882f91	-0.2659879
130	0xbce67f80	-0.028136969
131	0x3e96d609	0.2946017
132	0xbe02de04	-0.12780005
133	0xbe3b54cb	-0.18294065
134	0x3e5ad6a2	0.21370938
135	0x3e4162c2	0.1888533
136	0xbd457760	-0.048209548
137	0xbe6994dc	-0.22810692
138	0xbeb4b7b0	-0.35296392
139	0x3e87bf0b	0.26512942
140	0xbe5537e7	-0.20822106
141	0x3eb1493f	0.34626195
142	0xbe896754	-0.26836646
143	0x3e416daa	0.1888949
144	0xbe541c0a	-0.20713821
145	0xbc4b1fa0	-0.012397677
146	0xbeb89330	-0.36049795
147	0x3e7a4c12	0.24443081
148	0x3e5a713e	0.21332261
149	0xbd8a93d8	-0.0676648
150	0x3d780e70	0.060560644
151	0xbe7ecff7	-0.2488402
152	0xbe5a8658	-0.2134031
153	0x3dfe2064	0.12408522
154	0xbe39f1a6	-0.18158588
155	0x3ea6b251	0.3255792
156	0x3ebdab23	0.3704463
157	0xbe590634	-0.21193773
158	0xbe0066f8	-0.1253928
159	0x3d1b2670	0.037878454
160	0x3eb703b1	0.35745004
161	0x3e8ab107	0.27088186
162	0xbe24c94a	-0.1609241
163	0x3e3e75ca	0.1859962
164	0xbe85b1c6	-0.26112193
165	0xbe105751	-0.14095809
166	0xbea04bc2	-0.313078
167	0x3d9a6af4	0.07539931
168	0x3d827f20	0.063719034
169	0xbeb88532	-0.3603912
170	0x3e72f392	0.23725727
171	0x3df41318	0.11917704
172	0x3eb62571	0.3557544
173	0x3dcf34a0	0.10117459
174	0x3e076072	0.13220385
175	0xbcc9be20	-0.024626791
176	0x3e81ad47	0.25327513
177	0x3de87510	0.11350453
178	0xbd93f4c8	-0.07224423
179	0x3d553410	0.052051604
180	0xbe656e8b	-0.2240545
181	0x3e255586	0.16145906
182	0xbeb3cfb4	-0.35119402
183	0x3d661660	0.056173682
184	0x3e7cc266	0.24683532
185	0x3e37de52	0.17955902
186	0x3de0bc54	0.10973421
187	0x3e9efc37	0.310518
188	0x3da5e190	0.08099663
189	0x3d261858	0.04055056
190	0x3e83b699	0.25725248
191	0x3e1ca00a	0.15295425
192	0xbdc6929c	-0.09695932
193	0x3e32001a	0.17382851
194	0x3eb440bf	0.35205647
195	0xbd4bd510	-0.04976374
196	0xbdb38dac	-0.08767256
197	0xbd29e328	-0.0414764
198	0xbe9dd3a4	-0.3082553
199	0x3d81e3d4	0.06342283
200	0x3dbaeb74	0.0912694
201	0xbe7ffdfc	-0.24999231
202	0xbd8f4f2c	-0.06997523
203	0xbe056538	-0.13026893
204	0x3d60f9d8	0.05492577
205	0xbd0ef918	-0.034905523
206	0x3e376382	0.17909053
207	0xbc519a80	-0.012793183
208	0x3ea0b851	0.31390622
209	0x3e5768c6	0.21036062
210	0x3e84d8bf	0.25946614
211	0x3de2c3cc	0.110725015
212	0xbe498673	-0.19680195
213	0xbea7c0ac	-0.32764184
214	0xbd87ca30	-0.06630361
215	0x3ea6e0f9	0.32593516
216	0xbeb706c4	-0.3574735
217	0x3d9c5d40	0.076349735
218	0xbde00908	-0.109392226
219	0xbe4021f8	-0.18762958
220	0x3ec12ba5	0.3772861
221	0x3e22e396	0.1590713
222	0xbd920dcc	-0.07131538
223	0x3e8bb6f9	0.27288035
224	0x3defb0b8	0.11703628
225	0xbe84d90b	-0.2594684
226	0xbe8c5d47	-0.27414915
227	0x3e862d99	0.26206663
228	0xbeab4395	-0.33449998
229	0xbd3e1928	-0.04641071
230	0x3ea4cda5	0.32188144
231	0xbeb5bf70	-0.35497618
232	0x3e0023ea	0.125137
233	0x3e1de33a	0.15418711
234	0xbe9bc493	-0.30423412
235	0x3e2c5d0e	0.16832373
236	0x3d9ccb74	0.07655993
237	0x3e987d47	0.2978308
238	0xbebdf35b	-0.37099728
239	0xbeb1942c	-0.3468336
240	0x3d2cb630	0.042165935
241	0xbcbb9160	-0.022896469
242	0x3e3824d2	0.17982796
243	0xbeb1e2d9	-0.34743384
244	0x3ea55de1	0.32298186
245	0x3e2007c6	0.15627965
246	0xbe9f742a	-0.31143314
247	0x3e89f8b3	0.26947555
248	0x3e97b2a7	0.29628488
249	0xbe2b34bc	-0.16719335
250	0x3e3fc66a	0.18728033
251	0xbdeea994	-0.11653438
252	0x3e7baece	0.24578401
253	0x3c32eca0	0.010920674
254	0xbd2c0378	-0.041995496
255	0x3e95c711	0.29253438

encoder.conv1.lin_l.bias f4 [64]
0	0xbe2c6315	-0.16834672
1	0xbd9b3240	-0.07577944
2	0x3e68da4e	0.22739527
3	0xbe82d906	-0.255562
4	0x3b213680	0.0024599135
5	0x3e11d996	0.14243159
6	0xbe378ed2	-0.17925575
7	0x3e99729b	0.2997025
8	0x3e127642	0.14302924
9	0xbeac04e0	-0.3359747
10	0x3e01a366	0.12659988
11	0xbd855a44	-0.065113574
12	0x3e718d8e	0.23589155
13	0x3daff844	0.08592275
14	0xbe7869d5	-0.24259122
15	0xbead5c30	-0.33859396
16	0xbda4fa50	-0.08055556
17	0xbebae2db	-0.36501202
18	0x3da4ebd0	0.0805279
19	0x3d9ac2d4	0.07556692
20	0x3ea2973d	0.3175601
21	0xbc242ae0	-0.010019988
22	0xbe558d5c	-0.20854706
23	0x3db1c5ec	0.08680329
24	0xbdcaf7cc	-0.09910545
25	0x3e3ade8a	0.18248954
26	0xbe9e2451	-0.30887082
27	0xbe6bcaf8	-0.23026645
28	0x3e69ad66	0.22820053
29	0xbe7035a6	-0.23457965
30	0xbe9949ce	-0.2993912
31	0x3e7d4146	0.24731931
32	0x3ce3c720	0.027804911
33	0xbeb5fd4d	-0.35544816
34	0xbe7b8a8d	-0.24564572
35	0xbcc075f0	-0.023493737
36	0xbdcf279c	-0.10114977
37	0x3ea5ce19	0.32383803
38	0x3de436f0	0.11143291
39	0xbe2fb860	-0.17160177
40	0x3eb0fc1b	0.3456734
41	0x3ce30610	0.027712852
42	0xbe177157	-0.1478933
43	0x3eb2e6a3	0.34941587
44	0xbe94098a	-0.28913528
45	0x3e42639a	0.18983307
46	0x3d9170b8	0.071015775
47	0xbeb7c3f0	-0.35891676
48	0x3e04cf0e	0.1296961
49	0xbdc57640	-0.09641695
50	0xbe5601b1	-0.20899083
51	0xbe275cac	-0.16343945
52	0xbe1ee40d	-0.15516682
53	0x3e444f62	0.19170907
54	0x3e82827f	0.25490186
55	0xbe5fcfc3	-0.21856599
56	0x3e8443fb	0.25833115
57	0x3e40ab4e	0.18815348
58	0xbdea9db8	-0.11455864
59	0xbe30419f	-0.17212532
60	0xbe581e00	-0.21105194
61	0xbe63a0d0	-0.22229314
62	0xbcd0c0b0	-0.025482506
63	0x3eba91c1	0.36439326

encoder.conv1.lin_r.weight f4 [64, 7]
0	0xbe1f954e	-0.15584299
1	0x3eaf28e3	0.34210882
2	0xbe6b015c	-0.22949737
3	0xbd38fe70	-0.045164526
4	0xbde86808	-0.113479674
5	0x3e9038d9	0.2816837
6	0xbe23e47d	-0.1600513
7	0x3d0c0fc0	0.034194708
8	0x3cbf77c0	0.023372531
9	0xbe987eb4	-0.29784167
10	0xbe027f7c	-0.12743944
11	0x3eb704a3	0.35745725
12	0x3eaed331	0.341455
13	0x3db7c580	0.08973217
14	0xbe66c871	-0.225374
15	0xbebc8d94	-0.36826766
16	0x3eb7a9a9	0.35871628
17	0x3e482bba	0.1954793
18	0x3bd820c0	0.006595701
19	0xbd3274a8	-0.043568283
20	0x3e5a1dc2	0.21300414
21	0x3d96ee04	0.07369617
22	0x3d0753f0	0.033039033
23	0xbe9db2b7	-0.3080041
24	0xbebdd147	-0.37073728
25	0xbeac10f6	-0.3360669
26	0x3ebefd49	0.37302616
27	0xbe8e1bf3	-0.277557
28	0x3dfa4084	0.12219337
29	0xbe4ebbdf	-0.20188855
30	0xbe63efb4	-0.22259408
31	0xbd61c0e8	-0.05511561
32	0xbdcc5e64	-0.09978941
33	0x3dbd8344	0.092535526
34	0xbc829450	-0.015939862
35	0x3e0b8486	0.13624772
36	0xbec18111	-0.37793782
37	0x3eba7b69	0.3642228
38	0x3d0cf000	0.03440857
39	0xbe9f93c2	-0.31167418
40	0x3d538f90	0.051650584
41	0xbd49c4b8	-0.04925987
42	0x3d3a3e70	0.0454697
43	0x3e29c932	0.16580656
44	0x3e1d53d2	0.15364006
45	0xbe0275a4	-0.12740189
46	0xbe853ff8	-0.26025367
47	0x3ce031e0	0.027367532
48	0xbe85bc69	-0.26120308
49	0xbd52b880	-0.051445484
50	0xbe99d017	-0.30041572
51	0x3e5db6c6	0.21651754
52	0x3ebde091	0.37085393
53	0x3cb732e0	0.022363126
54	0xbea8eb6b	-0.3299211
55	0x3e88eb39	0.2674196
56	0x3e7022ce	0.23450777
57	0x3ea64147	0.32471678
58	0xbe3ab5a8	-0.18233359
59	0x3e9c7a7d	0.305622
60	0x3e770aaa	0.24125162
61	0xbe9192c8	-0.28432298
62	0x3d7db4c0	0.061939955
63	0xbeb082aa	-0.3447469
64	0x3e58e54a	0.21181217
65	0xbe8e9e43	-0.2785512
66	0x3d46ffc0	0.048583746
67	0x3c546d00	0.012965441
68	0xbe620d23	-0.22075324
69	0xbd6191c8	-0.05507067
70	0x3e030d66	0.1279808
71	0xbe806564	-0.25077355
72	0x3e19e07e	0.15027043
73	0x3dad1998	0.08452147
74	0x3da6c1f4	0.081424624
75	0x3ea1d9a9	0.31611374
76	0x3d907cd4	0.07055059
77	0x3e774046	0.24145612
78	0x3d93b298	0.072117984
79	0xbe88280a	-0.26593047
80	0x3d951624	0.072796136
81	0x3e51f682	0.20504192
82	0xbd9d10c0	-0.076692104
83	0xbe00620a	-0.12537399
84	0xbea2c5f2	-0.31791645
85	0xbe85e0cf	-0.26148078
86	0xbcde4dc0	-0.027136683
87	0xbe8470cd	-0.2586731
88	0x3e8558d7	0.26044342
89	0x3eb8e915	0.36115327
90	0x3ea09407	0.31362936
91	0xbe565f3c	-0.20934767
92	0xbe35d722	-0.17757848
93	0xbd2c63f0	-0.042087495
94	0x3e25a0de	0.16174647
95	0xbd1242c8	-0.03570822
96	0x3d0b2e30	0.033979595
97	0xbe00e66c	-0.12587899
98	0x3dbbe724	0.09174946
99	0x3e2f3f72	0.17114046
100	0x3e8cd8e3	0.2750922
101	0x3df83ba4	0.121207505
102	0xbe9314d6	-0.28726834
103	0x3ebad6b5	0.36491933
104	0xbd6a9968	-0.057275206
105	0xbd405d90	-0.04696423
106	0xbe54fa7c	-0.20798677
107	0x3e4883aa	0.19581476
108	0xbda2a0f8	-0.079408586
109	0x3de5e4f8	0.11225313
110	0x3c8df0c0	0.017326713
111	0x3ea0fb1b	0.31441578
112	0x3e6122b2	0.21985891
113	0x3e8ccef7	0.27501652
114	0xbde367a4	-0.11103752
115	0x3d5ee150	0.054414093
116	0x3e11c886	0.1423665
117	0x3e811db7	0.25217983
118	0x3e8c33b7	0.27383205
119	0xbe720eec	-0.23638505
120	0xbe9f0904	-0.31061566
121	0x3d651d18	0.05593595
122	0x3e1c1712	0.15243176
123	0xbd831728	-0.06400901
124	0x3d4c2b00	0.049845695
125	0x3e41def2	0.18932703
126	0x3ea35f7b	0.31908783
127	0x3eb9f079	0.3631628
128	0x3ea9b6a7	0.33147165
129	0x3dcb113c	0.099153966
130	0x3d496228	0.049165875
131	0x3def6c64	0.11690596
132	0x3ea52c3f	0.3226032
133	0xbdde9bc4	-0.10869554
134	0x3e8eba3d	0.27876464
135	0x3d8d558c	0.069010824
136	0x3e5be13a	0.21472636
137	0xbd9ce0c8	-0.07660061
138	0x3e10b98a	0.14133278
139	0xbd86975c	-0.06571838
140	0xbdeddb4c	-0.11614093
141	0x3cfbf800	0.030757904
142	0x3d3465e0	0.044042468
143	0xbea5f1d4	-0.32411063
144	0xbe00ff0c	-0.12597293
145	0xbc795000	-0.015216827
146	0xbe9e3632	-0.30900723
147	0x3e2ea27e	0.17054173
148	0x3e5f3372	0.21796969
149	0x3e3e2762	0.18569711
150	0xbe3133e0	-0.17304945
151	0x3e26f5c6	0.16304693
152	0x3dbfea04	0.09370807
153	0x3deb26b0	0.114819884
154	0xbe7c9090	-0.24664521
155	0x3d5781a0	0.052613854
156	0xbdc29cdc	-0.09502575
157	0xbe2756ee	-0.16341755
158	0x3e8d535d	0.27602664
159	0x3eb88649	0.3603995
160	0xbeb01cd3	-0.3439699
161	0x3dfb4704	0.122694045
162	0xbde42c24	-0.11141232
163	0xbe4d4f75	-0.20049842
164	0x3de08b50	0.10964072
165	0x3e3b7792	0.18307331
166	0x3e6316da	0.22176686
167	0x3e09bc4a	0.13450733
168	0xbe80bd0b	-0.25144228
169	0xbe92564a	-0.28581458
170	0x3e4d9a96	0.20078501
171	0xbe45ec9b	-0.19328539
172	0xbeb72931	-0.35773614
173	0x3ebcc1bf	0.36866567
174	0x3e9d4bd5	0.30721918
175	0x3ea1f2c3	0.31630525
176	0xbe85bec3	-0.26122102
177	0x3e31584e	0.17318842
178	0xbe4864c9	-0.19569696
179	0x3dde4e88	0.108548224
180	0xbdbe85f8	-0.09302896
181	0xbdf95134	-0.121736914
182	0xbe94e3ce	-0.2908005
183	0x3e5f4486	0.21803483
184	0x3e7c2b2e	0.24625847
185	0xbd365ce8	-0.044522196
186	0x3e9cd573	0.306316
187	0xbe9c7f80	-0.30566025
188	0xbbaaf6c0	-0.005217403
189	0x3e974ff9	0.29553202
190	0x3d8bf720	0.06834245
191	0x3e719c0a	0.2359468
192	0xbe5a9ec8	-0.21349633
193	0x3eabb193	0.33533916
194	0xbc907350	-0.01763311
195	0x3e6f2336	0.23353276
196	0xbc8e1020	-0.017341673
197	0x3e267a72	0.16257647
198	0x3e72cede	0.23711726
199	0xbeb96e7a	-0.362171
200	0x3e922cd1	0.28549817
201	0xbe88ba1a	-0.26704484
202	0xbea22b5d	-0.3167371
203	0x3e941349	0.28920963
204	0xbe1829ae	-0.1485965
205	0x3eb14159	0.3462017
206	0xbe4be29d	-0.19910665
207	0x3e2ab8ee	0.16672108
208	0xbe9d1349	-0.30678776
209	0x3de51d54	0.111872345
210	0x3e312dc2	0.17302611
211	0xbeb893bc	-0.36050212
212	0x3eaade1f	0.3337259
213	0xbe998afa	-0.29988843
214	0x3e75a282	0.23987773
215	0xbe694fdc	-0.2278437
216	0xbc7ef460	-0.015561193
217	0xbeb70eab	-0.35753378
218	0xbe59ee61	-0.2128234
219	0x3da435f8	0.08018106
220	0xbe4f3806	-0.20236215
221	0xbeb7eafc	-0.35921466
222	0x3eb08691	0.34477666
223	0xbe87468c	-0.2642101
224	0xbddadaac	-0.106862396
225	0xbe0d3b47	-0.13792144
226	0xbce547d0	-0.027988344
227	0xbc4c05a0	-0.012452513
228	0x3ea121ab	0.31471
229	0x3e637eaa	0.22216287
230	0xbdfcdb40	-0.12346506
231	0x3daead90	0.08529198
232	0xbd454a28	-0.048166424
233	0xbde70c20	-0.112816095
234	0x3de7ff3c	0.11327979
235	0xbe9f1e7d	-0.31077948
236	0x3e9d8c5b	0.30771145
237	0xbe43010a	-0.19043365
238	0xbe99442e	-0.2993483
239	0xbe4d5fbb	-0.2005605
240	0xbe147c7a	-0.14500609
241	0xbd9ea92c	-0.07747111
242	0xbe37fc47	-0.1796733
243	0xbd12c190	-0.035829127
244	0x3e4a8746	0.19778165
245	0xbd027180	-0.031846523
246	0xbe778fc8	-0.24175942
247	0x3e278fd2	0.16363457
248	0x3d0b5760	0.034018874
249	0xbea481b9	-0.3213022
250	0x3dd8bf84	0.10583404
251	0xbe6cc228	-0.2312094
252	0x3e68f702	0.22750476
253	0x3ebbb6a3	0.36662778
254	0x3e8449e7	0.25837633
255	0xbeb6626c	-0.35621965

encoder.conv2.lin_l.weight f4 [64, 64]
0	0x3d366890	0.044533312
1	0x3def779e	0.11692737
2	0x3c3e3180	0.011608481
3	0x3de5105a	0.111847594
4	0xbdb9a926	-0.09065466
5	0xbd45af64	-0.04826297
6	0xbd218c68	-0.039440542
7	0x3da9cd3c	0.082910985
8	0x3d305480	0.043049335
9	0x3cfa83b8	0.030580387
10	0xbdb8b38c	-0.09018621
11	0x3d351f7c	0.04421948
12	0x3cb5f508	0.022211567
13	0xbdd0f8f0	-0.10203731
14	0xbc1e31d0	-0.009655431
15	0xbd40f6a8	-0.04711023
16	0xbd51c7c8	-0.051215917
17	0xbd41b5ec	-0.047292635
18	0x3c3aa5e0	0.011392087
19	0x3d012584	0.03152992
20	0x3ce06460	0.027391613
21	0x3ddc292a	0.10750039
22	0xbb32c440	-0.0027277619
23	0x3d2253c8	0.03963068
24	0xbd573014	-0.052536085
25	0xbdbb2b74	-0.091391474
26	0xbd46b400	-0.048511505
27	0xbd840250	-0.064457536
28	0x3dd1b068	0.10238725
29	0xbd174b58	-0.036937088
30	0x3d0b9a28	0.03408256
31	0xbc6b66d0	-0.014367774
32	0xbbd3d140	-0.0064641535
33	0x3de5dd68	0.112238705
34	0x3d7818b0	0.06057042
35	0xbd2a5434	-0.04158421
36	0x3d71f804	0.059074417
37	0xbd558aec	-0.05213444
38	0x3d0fe858	0.03513369
39	0x3dd3e58a	0.103465155
40	0x3d99ba56	0.07506244
41	0xbdafd746	-0.08585982
42	0xbd9cb126	-0.07650976
43	0xbcd35190	-0.025795728
44	0x3d2868a0	0.041115403
45	0x39fc9800	0.00048178434
46	0x3ddd8280	0.108159065
47	0x3ce002f8	0.027345166
48	0xbaaaec00	-0.0013040304
49	0x3d6ed3b4	0.058307365
50	0x3dc52aa2	0.09627272
51	0x3c92aeb0	0.017905563
52	0xbb18df80	-0.0023326576
53	0x3d3463e0	0.04404056
54	0x3da84634	0.08216515
55	0x3d76a4e0	0.06021583
56	0xbdc8d3a4	-0.09805992
57	0xbcbb2770	-0.022845954
58	0xbb89e9c0	-0.0042087734
59	0xba1fb200	-0.0006091893
60	0xbddeee26	-0.10885267
61	0x3dd6f31a	0.10495587
62	0xbdb2c488	-0.087288916
63	0xbdf3b3da	-0.11899538
64	0x3d5a2a68	0.053263098
65	0xbd91d6ee	-0.07121073
66	0xbd811708	-0.06303221
67	0xbdb3eee4	-0.08785799
68	0xbdc76a68	-0.09737092
69	0x3d555308	0.052081138
70	0xbd4da088	-0.050201923
71	0x3dbec6ea	0.093152836
72	0x3da423b4	0.08014622
73	0x3d40f6c0	0.04711032
74	0xbcbe5188	-0.023232237
75	0x3d8e763a	0.06956144
76	0xbd67d41c	-0.056598768
77	0x3cadf830	0.02123651
78	0xbdfbb8a8	-0.1229108
79	0xbca6e2c8	-0.02037181
80	0xbdd74e54	-0.10512987
81	0xbd72929c	-0.05922185
82	0x3ceae060	0.028671443
83	0xbc859d08	-0.01631023
84	0x3c51bf90	0.01280202
85	0xbda76420	-0.08173394
86	0xbd25de18	-0.04049501
87	0xbba8c7c0	-0.005150765
88	0x3dedae82	0.1160555
89	0xbdf9b84c	-0.12193355
90	0x3c1e75f0	0.009671673
91	0x3c476690	0.012170449
92	0xbc4e7310	-0.012600675
93	0x3dbbf9f8	0.09178537
94	0xbc6192f0	-0.013767943
95	0x3c1097e0	0.008825272
96	0xbdb1a9e0	-0.08674979
97	0xbd3a6f64	-0.045516387
98	0xbd95af4c	-0.07308826
99	0x3d82b9e4	0.06383112
100	0x3c6b61d0	0.014366582
101	0xbd96a8f4	-0.07356444
102	0xbda2e180	-0.07953167
103	0x3dac8d38	0.08425373
104	0xbd754654	-0.059881523
105	0x3df8524c	0.12125072
106	0xbdd4e0b4	-0.10394421
107	0xbd3bfcf8	-0.045895547
108	0xbc02aa30	-0.007975146
109	0x3cae3238	0.02126418
110	0x3d3ca13c	0.046052203
111	0xbdf70a22	-0.120624796
112	0x3d5ee97c	0.054421887
113	0xbde40de4	-0.11135462
114	0x3d6af2f4	0.057360604
115	0x3dd067f2	0.10176076
116	0x3d53cff0	0.051711977
117	0xbc635c50	-0.0138769895
118	0x3dff4c68	0.12465745
119	0x3dbcf832	0.09227027
120	0xbcae8510	-0.021303684
121	0xbd73b948	-0.05950287
122	0xbdb35698	-0.08756751
123	0xbd39dca0	-0.04537642
124	0x3da32024	0.07965115
125	0xbd3d822c	-0.04626672
126	0x3de43ad6	0.111440346
127	0x3ce59bc8	0.028028384
128	0x3834d000	4.310906e-05
129	0x3d8e80ca	0.06958158
130	0xbdfa9fea	-0.122375324
131	0x3daaade4	0.08333948
132	0xbd2caf7c	-0.042159542
133	0x3ce8c150	0.028412491
134	0x3da623bc	0.081122845
135	0xbdb58630	-0.08863485
136	0xbde98b60	-0.11403537
137	0x3dba10c0	0.09085226
138	0xbd63cfc0	-0.055618048
139	0xbd001250	-0.031267464
140	0x3c800cf8	0.015631184
141	0xbd968e8e	-0.07351409
142	0x3d680ff0	0.056655824
143	0xbc72c5a0	-0.014817625
144	0xbdfcf69c	-0.123517245
145	0xbdddc1be	-0.10827969
146	0xbdfbd0ce	-0.12295686
147	0xbdf104a4	-0.11768463
148	0x3d1a5ae0	0.03768432
149	0xbdd01540	-0.10160303
150	0xbd88d0e8	-0.06680471
151	0xbddd033e	-0.10791634
152	0x3de1bfd8	0.110229194
153	0x3c71a7b0	0.0147494525
154	0xbc6ecc30	-0.014575049
155	0x3c8938c0	0.016750693
156	0x3de8887a	0.11354156
157	0xbdfd9af8	-0.123830736
158	0x3d9d4a56	0.07680194
159	0x3dc8420e	0.09778224
160	0x3cd8edf8	0.02648066
161	0xbde74744	-0.1129289
162	0x3dbc1a7a	0.091847375
163	0x3d2b6674	0.041845754
164	0xbbf899c0	-0.007586688
165	0x3d2633c4	0.04057671
166	0xbd188ae0	-0.037241817
167	0xbcb164e8	-0.021654561
168	0x3c4b8bf0	0.0124235
169	0xbcfc64e8	-0.030809835
170	0x3dded884	0.10881141
171	0x3d842c76	0.06453793
172	0xbdcfbade	-0.10143064
173	0xbdc78928	-0.09742957
174	0xbd08205c	-0.033233985
175	0x3dec2d0e	0.11532031
176	0x3dd1237c	0.10211846
177	0x3da1ae72	0.07894601
178	0xbc5b7560	-0.013394684
179	0x3d896a4c	0.06709728
180	0xbbbcafe0	-0.0057582706
181	0xbdd6f600	-0.104961395
182	0x3dee3b86	0.11632447
183	0x3db10be0	0.08644843
184	0xbde3b81e	-0.11119102
185	0x3c404420	0.011734992
186	0x3d3fd450	0.046833336
187	0xbbcfa940	-0.006337315
188	0x3c02c870	0.007982358
189	0x3c8aae20	0.016928732
190	0x3cc8d468	0.024515346
191	0x3d077194	0.0330673
192	0xbd751fd0	-0.059844792
193	0xbd1088dc	-0.03528677
194	0x3dda1b72	0.10649766
195	0x3da5c0ea	0.08093436
196	0x3d4ec5b0	0.0504815
197	0xbd9d2ef6	-0.07674973
198	0x3d93db4a	0.072195604
199	0x3b8a5f80	0.0042228103
200	0x3d05bcfc	0.032650933
201	0xbd0635b4	-0.03276606
202	0x3d4b9c1c	0.049709424
203	0xbd816f2a	-0.06320031
204	0xbd31fa44	-0.043451563
205	0x3c9c1dd8	0.0190572
206	0xbd966e02	-0.07345201
207	0x3d46fba4	0.048579827
208	0xbd33c9c8	-0.043893605
209	0x3d9f9478	0.0779199
210	0x3de3c7c4	0.11122087
211	0x3c4fe050	0.012687758
212	0x3cb47898	0.02203016
213	0xbd002c48	-0.03129223
214	0xbd91d4ba	-0.071206525
215	0x3de0d712	0.109785214
216	0xbc351410	-0.011052147
217	0xbb4107c0	-0.0029454082
218	0xbd4b66fc	-0.04965876
219	0xbdfb1c40	-0.12261248
220	0x3d226384	0.039645687
221	0xbcbdb530	-0.023157686
222	0xbdba5ba6	-0.09099512
223	0x3d816c22	0.06319453
224	0xbda54336	-0.0806946
225	0xbdab5dde	-0.08367513
226	0x3d5ad4fc	0.053425774
227	0x3ba0e0c0	0.004909605
228	0x3c7223b0	0.014779016
229	0xbbb3d4c0	-0.0054880083
230	0x3c9c9fc8	0.019119158
231	0xbde31ff4	-0.11090079
232	0x3c605c70	0.013693914
233	0x3c87d120	0.01657921
234	0xbd874590	-0.06605065
235	0xbd4227f8	-0.0474014
236	0x3c6dba80	0.014509797
237	0xbdc5c6a0	-0.09657025
238	0x3dde137c	0.1084356
239	0xbdba5ade	-0.09099363
240	0x3ccc5418	0.024942443
241	0xbd9dbb76	-0.07701771
242	0x3c99d248	0.018777028
243	0xbd565958	-0.0523313
244	0xbc8a7d38	-0.016905412
245	0x3dbdac6e	0.09261404
246	0xb7a6e000	-1.989305e-05
247	0x3c96c4e0	0.018404424
248	0xbd2c4240	-0.04205537
249	0x3daf2de6	0.08553676
250	0xbdb2d29e	-0.08731578
251	0x3d9ce08e	0.07660018
252	0xbde81ed8	-0.11334008
253	0x3d9bef92	0.07614054
254	0x3df19342	0.11795665
255	0x3dc8d2b2	0.09805812

encoder.conv2.lin_l.bias f4 [64]
0	0x3d9cd8f4	0.07658568
1	0x3cb16eb0	0.021659225
2	0xbdbe76fa	-0.09300037
3	0x3c2d8eb0	0.010593101
4	0xbd04c3e4	-0.03241338
5	0x3c0796d0	0.008275703
6	0xbd019034	-0.031631663
7	0x3cd98e08	0.026556984
8	0xbdf2d8d2	-0.118577614
9	0x3dee5e0c	0.11639032
10	0xbc981bf0	-0.01856801
11	0x3df8fa88	0.1215716
12	0x3cc46f78	0.023978934
13	0xbda42980	-0.08015728
14	0x3d96d478	0.07364744
15	0x3d7ce6d8	0.061743587
16	0xbdda72b8	-0.10666412
17	0xbd9a0494	-0.075204045
18	0x3be00480	0.006836474
19	0x3da7378e	0.08164893
20	0xbde22204	-0.11041644
21	0x3db62f72	0.08895768
22	0xbc1b41d0	-0.00947614
23	0x3cc46fb0	0.023979038
24	0xbd9f9904	-0.07792857
25	0xbc418b20	-0.011812955
26	0xbbd97ea0	-0.0066374093
27	0x3d77cca4	0.060497895
28	0xbdfa237c	-0.12213799
29	0xbdbf4602	-0.09339525
30	0xbd396958	-0.04526648
31	0xbc7047e0	-0.014665574
32	0x3d199ce8	0.037503153
33	0x3d571060	0.05250585
34	0xbc4d9430	-0.012547538
35	0x3dc1ea4a	0.09468515
36	0xbcbedfd0	-0.023300081
37	0x3d9cd0f4	0.07657042
38	0xbc4f1180	-0.01263845
39	0x3d3b0158	0.04565558
40	0x3d7adfe4	0.061248675
41	0xbcbae4c0	-0.022814155
42	0xbda7e08c	-0.08197126
43	0xbce54588	-0.027987257
44	0xbce8f1c8	-0.028435603
45	0x3c82ca08	0.015965477
46	0x3db64e46	0.08901648
47	0x3dcd3a0c	0.10020837
48	0x3d4fe0c8	0.050751477
49	0xbd74e11c	-0.059784994
50	0xbce5ed00	-0.028067112
51	0xbd85dea6	-0.065366074
52	0xbc9d2880	-0.019184351
53	0xbda5d754	-0.08097711
54	0xbd9985d2	-0.07496227
55	0xbd833f0a	-0.06408508
56	0xbad2e080	-0.0016088635
57	0xbcdfc438	-0.027315244
58	0xbddba364	-0.10724524
59	0xbd239874	-0.039940313
60	0x3d197b7c	0.03747128
61	0x3d89bbaa	0.06725247
62	0xbdb796e8	-0.0896433
63	0xbc06f190	-0.008236304

encoder.conv2.lin_r.weight f4 [64, 64]
0	0xbd65589c	-0.055992708
1	0x3dfdbb7a	0.12389274
2	0xbce53ee0	-0.027984083
3	0xbd379328	-0.044818074
4	0xbdc21878	-0.09477323
5	0x3becdce0	0.007228479
6	0xbd84aa6c	-0.06477818
7	0xbd07091c	-0.03296767
8	0x3dcaefc0	0.0990901
9	0xbd8c8e5c	-0.068630904
10	0x3c79c330	0.01524429
11	0x3da7c704	0.08192256
12	0xbce4a908	-0.027912632
13	0xbda39cde	-0.079889044
14	0xbd84438a	-0.064581946
15	0xbdaeb610	-0.085308194
16	0xbd6c4444	-0.05768229
17	0xbd211b4c	-0.039332673
18	0x3d4b76f4	0.04967399
19	0xbce67878	-0.028133616
20	0x3da9e68e	0.08295928
21	0xbdb7049c	-0.08936426
22	0xbdbb1db6	-0.09136526
23	0x3dd10a08	0.102069914
24	0x3db7b870	0.089707255
25	0x3d65a43c	0.05606483
26	0x3d19efe4	0.037582293
27	0xbbdf00e0	-0.006805524
28	0x3d60c290	0.05487305
29	0x39454000	0.00018811226
30	0x3d62d148	0.055375367
31	0x3dd3dd86	0.103449866
32	0x3db1b044	0.08676198
33	0xbd6dfe84	-0.058104053
34	0x3c86dae0	0.01646179
35	0xbdfc2e96	-0.12313573
36	0xbd636050	-0.055511773
37	0x3dc664e0	0.09687209
38	0x3deae4fa	0.11469455
39	0x3b8a8820	0.004227653
40	0xbc003c00	-0.007826805
41	0xbd757d30	-0.05993384
42	0xbde19f0c	-0.11016664
43	0x3deb9c72	0.11504449
44	0x3dca1e7a	0.09869094
45	0xbdc7f13e	-0.0976281
46	0xbdeb723c	-0.11496398
47	0x3ddfd2c4	0.10928872
48	0x3cf37278	0.029717669
49	0x3d808e22	0.0627711
50	0x3dea0222	0.11426188
51	0xbb1cd780	-0.002393216
52	0xbd14ae54	-0.036299065
53	0x3c929da0	0.017897427
54	0x3cf983c8	0.030458346
55	0x3c96eb18	0.018422648
56	0xbdc9631c	-0.09833357
57	0x3d988bac	0.07448515
58	0x3d90b73a	0.07066198
59	0xbcd00a90	-0.025395662
60	0xbda5a5b4	-0.08088246
61	0xbd81088c	-0.06300458
62	0xbd22a334	-0.039706424
63	0xbd76f758	-0.06029448
64	0xbdaa937c	-0.08328912
65	0xbd754e08	-0.05988887
66	0x3db7ce08	0.08974844
67	0xbb835680	-0.0040081143
68	0x3cccd168	0.025002196
69	0x3dcb0c68	0.09914476
70	0x3c2e0810	0.010622039
71	0x3de67fae	0.11254822
72	0x3dde69c8	0.1086002
73	0x3dacd19a	0.08438416
74	0x3dbf996e	0.09355436
75	0x3d122550	0.035680115
76	0xbcafbfc0	-0.021453738
77	0x3dbbfc26	0.09178953
78	0xbdecec1c	-0.11568472
79	0x3d96a40e	0.0735551
80	0xbdd58a48	-0.10426766
81	0x3c896078	0.016769633
82	0xbccb8db8	-0.02484785
83	0x3be3a360	0.006946966
84	0xbde69db8	-0.11260551
85	0xbdba82e8	-0.09107
86	0xbd0b05e0	-0.03394115
87	0x3d56d6cc	0.05245094
88	0xbba1ab40	-0.0049337447
89	0x3d1a1cc0	0.037625074
90	0xbde8e05c	-0.11370918
91	0x3dda2e5c	0.106533736
92	0x3dfaa31a	0.122381404
93	0x3cc40400	0.023927689
94	0xbd492f38	-0.049117297
95	0xbc9e2990	-0.019306928
96	0xbd46be8c	-0.048521563
97	0x3d5ea048	0.054352075
98	0x3dbf4cea	0.09340842
99	0x3cb2f080	0.021843195
100	0xbce53690	-0.027980119
101	0xbd91737c	-0.07102105
102	0x3b786000	0.0037899017
103	0x3cb8f598	0.022578046
104	0xbd1c2714	-0.038123205
105	0xbdd80932	-0.10548629
106	0xbd5f1d9c	-0.054471597
107	0xbd061d4c	-0.032742783
108	0x3dc57400	0.09641266
109	0xbd4a33f4	-0.049365953
110	0xbd818596	-0.063243076
111	0x3d824cfc	0.0636234
112	0x3dba1b64	0.090872556
113	0x3dd4a156	0.10382335
114	0x3dbdd9d2	0.092700616
115	0xbd71ad3c	-0.0590031
116	0xbdcf77b2	-0.10130252
117	0x3bf6ca60	0.007531449
118	0xbd3b8a4c	-0.045786187
119	0xbd335e88	-0.043791324
120	0xbda06288	-0.07831293
121	0xbd2b8524	-0.04187502
122	0x3d311860	0.043236136
123	0x3db03208	0.08603293
124	0x3df93226	0.12167768
125	0xbcbdd850	-0.023174435
126	0xbd16b270	-0.036791265
127	0xbda21d88	-0.07915789
128	0x3d81e0de	0.06341718
129	0xbddaf718	-0.10691661
130	0x3bdc0580	0.006714523
131	0x3d956870	0.072953105
132	0xbc7971d0	-0.015224889
133	0x3dffca4a	0.124897555
134	0x3da90da6	0.08254556
135	0x3dbf600e	0.09344493
136	0xbd24c9dc	-0.04023157
137	0x3d1c2c30	0.038128078
138	0xbd6598a4	-0.056053773
139	0x3c3d4550	0.01155217
140	0x3dc8ccd6	0.09804694
141	0xb9927400	-0.00027933717
142	0xbd8ee572	-0.06977357
143	0x3cb571a8	0.022148922
144	0xbcc61778	-0.024181113
145	0x3de3d246	0.11124091
146	0xbb85ba20	-0.0040810257
147	0xbdeaa4ae	-0.114571914
148	0xbdb9190e	-0.09037982
149	0xbb7e4f40	-0.003880456
150	0xbdf7d780	-0.1210165
151	0xbdcdf958	-0.10057324
152	0x3cfdbf10	0.030974895
153	0xbdeab858	-0.11460942
154	0x3bc31100	0.0059529543
155	0xbcb10060	-0.021606624
156	0x3d36d6b4	0.04463835
157	0xbc5bb780	-0.013410449
158	0x3d937346	0.07199721
159	0x3d74d590	0.05977398
160	0xbdee6aa0	-0.11641431
161	0x3c857de8	0.016295388
162	0x3d47be80	0.04876566
163	0x3de969ba	0.11397119
164	0xbad3eb00	-0.0016168058
165	0xbdcffe72	-0.101559535
166	0x3d650c4c	0.05591993
167	0xbda4a092	-0.08038439
168	0x3c373f60	0.011184543
169	0xbd80564a	-0.06266458
170	0x3d8f2482	0.06989385
171	0x3d76c5d4	0.060247257
172	0xbd4990f4	-0.049210504
173	0xbdd0aba4	-0.10188988
174	0xbd062130	-0.032746494
175	0x3dc5165c	0.09623405
176	0xbc86b4b0	-0.01644358
177	0xbdbb3c02	-0.09142305
178	0x3c976be0	0.018484056
179	0xbdc63a12	-0.09679045
180	0xbd870812	-0.06593336
181	0xbd33f80c	-0.043937728
182	0x3dcc446a	0.099739864
183	0xbc5a6770	-0.0133303255
184	0xbdeb5542	-0.11490871
185	0xbd4da3ac	-0.050204918
186	0x3d86fb34	0.06590882
187	0x3d0f6ed0	0.03501779
188	0x3daa1e8c	0.083066076
189	0xbdad5480	-0.08463383
190	0x3d6d0a84	0.057871357
191	0x3c395cd0	0.011313632
192	0x3c322970	0.010874137
193	0xbd41a6f0	-0.047278345
194	0xbda0c496	-0.07849996
195	0x3dcdc97a	0.10048194
196	0xbcc8deb0	-0.024520248
197	0x3de76c66	0.11299972
198	0x3d9fc10e	0.07800494
199	0x3de5b7de	0.112167105
200	0x3d9e610a	0.077333525
201	0xbd91552c	-0.07096323
202	0x3d2ff908	0.042962104
203	0x3d21f05c	0.039535865
204	0x3d269fd4	0.040679768
205	0xbd5cc1d4	-0.053895786
206	0x3c1fca30	0.009752795
207	0x3d1b4560	0.037907958
208	0x3d989dca	0.07451971
209	0xbd0eceec	-0.034865305
210	0x3cb08bf8	0.021551117
211	0xbd2cb88c	-0.042168185
212	0x3d675340	0.056475878
213	0xbde1df74	-0.110289484
214	0xbd3e5870	-0.04647106
215	0x3d96d9c6	0.07365756
216	0xbd3e23f0	-0.04642099
217	0x3c969030	0.0183793
218	0xbd2996dc	-0.041403636
219	0x3d891378	0.066931665
220	0xbcb79478	-0.022409663
221	0xbdefc364	-0.1170719
222	0x3c827030	0.015922636
223	0x3d8a2aa4	0.06746414
224	0x3bef0720	0.0072945505
225	0x3d396284	0.045259967
226	0xbd284fa0	-0.04109156
227	0xbdfccce2	-0.12343766
228	0xbde9b9dc	-0.11412403
229	0xbde4940c	-0.1116105
230	0xbda0d430	-0.078529716
231	0x3cc4ae68	0.024008945
232	0x3d5a41a8	0.05328527
233	0xbd8fbd94	-0.07018581
234	0xbde8badc	-0.113637656
235	0x3c725680	0.014791131
236	0xbd54cc04	-0.051952377
237	0xbdc82b84	-0.09773925
238	0x3d235564	0.039876357
239	0x3cfda890	0.030964166
240	0xbd2bb99c	-0.041925058
241	0x3dd46d98	0.10372466
242	0xbbca28c0	-0.0061694086
243	0x3ddead32	0.10872878
244	0xbb533580	-0.0032227933
245	0x3db5864a	0.08863504
246	0xbd5f34cc	-0.05449371
247	0x3deb94a0	0.11502957
248	0xbdebdfde	-0.11517309
249	0xbdd4eb9a	-0.103965
250	0xbdb228a6	-0.08699159
251	0xbd766b7c	-0.0601611
252	0x3cfbfb88	0.030759588
253	0xbd7f9854	-0.06240113
254	0xbdb840ce	-0.089967355
255	0x3db7e414	0.08979049

decoder.mlp.0.weight f4 [128, 64]
0	0xbd9f74f8	-0.07785982
1	0xbd388068	-0.045044333
2	0xbda6d7b2	-0.08146609
3	0x3d4d8e3c	0.050184473
4	0xbdcbe19a	-0.099551395
5	0x3dd73f4c	0.1051012
6	0x3dcfea92	0.101521626
7	0xbcdc2228	-0.026871756
8	0xbc3bfe90	-0.011474267
9	0x3c6acd60	0.014331192
10	0xbd1c5138	-0.038163394
11	0xbd752c80	-0.05985689
12	0x3ddeafc2	0.10873367
13	0x3d5eab54	0.05436261
14	0xbd2807d8	-0.041023105
15	0xbc921130	-0.017830461
16	0xbdd4cd6c	-0.103907436
17	0xbdcbf20c	-0.09958276
18	0xbb76bdc0	-0.003764972
19	0x3d3333c8	0.043750554
20	0x3d2b8068	0.041870505
21	0xbdbd5f58	-0.09246701
22	0xbd384ae4	-0.044993296
23	0x3c631ce0	0.013861865
24	0xbcd322f0	-0.025773495
25	0x3dbfffe2	0.09374978
26	0x3d5840d8	0.052796215
27	0xbdef6542	-0.11689235
28	0xbdbd67b6	-0.09248297
29	0x3ab81080	0.0014043003
30	0x3d951168	0.072787106
31	0x3c974560	0.018465698
32	0x3da6338c	0.081153005
33	0x3ddd6754	0.10810724
34	0xbdfd9224	-0.1238139
35	0x3d67d350	0.056598008
36	0xbcf6d478	-0.03013061
37	0x3defc2e8	0.11707097
38	0xbdc99062	-0.09841992
39	0xbd11cf48	-0.03559807
40	0xbde22670	-0.110424876
41	0x3d9035a8	0.07041484
42	0x3de8f30e	0.11374484
43	0x3d9e27a4	0.077224046
44	0xbc27ea10	-0.010248676
45	0xbddaeb62	-0.10689427
46	0x3c872300	0.016496181
47	0x3a8f2880	0.0010922104
48	0xbd81e8e8	-0.063432515
49	0xbd9705a8	-0.07374126
50	0x3dc28ba0	0.094992876
51	0x3d4787e4	0.04871358
52	0x3dcad8ea	0.09904654
53	0xbd95bcb6	-0.073113844
54	0x3c5a6d60	0.013331741
55	0xbc253f40	-0.010085881
56	0x3d1539e0	0.036432147
57	0xbd8d06a0	-0.06886029
58	0xbc109140	-0.008823693
59	0xbd9e94e0	-0.077432394
60	0x3d17c808	0.037056
61	0x3de32ac8	0.11092144
62	0x3cc91720	0.02454716
63	0x3d67db4c	0.056605622
64	0x3dbb24e2	0.09137894
65	0x3d0bbed4	0.034117535
66	0x3d047938	0.032342166
67	0xbdd03ddc	-0.10168049
68	0x3d945eac	0.0724462
69	0x3dcdfbf2	0.100578204
70	0x3b8da1a0	0.0043222457
71	0x3ca51858	0.02015321
72	0xbc223490	-0.009900227
73	0x3c5e0a80	0.013552308
74	0x3c9a3170	0.018822402
75	0x3c05b110	0.008159891
76	0x3ce98358	0.028505012
77	0x3d7c2190	0.061555445
78	0x3dbc455c	0.09192917
79	0xbde344a2	-0.11097075
80	0xbd945e5c	-0.0724456
81	0x3d98b694	0.07456699
82	0xbdf1318a	-0.11777027
83	0x3d2bd054	0.041946724
84	0x3d20288c	0.03910117
85	0x3c9a7940	0.018856645
86	0xbdd238ec	-0.10264763
87	0xbd3178a4	-0.043327942
88	0xbc8541e0	-0.016266763
89	0xbd865b04	-0.065603286
90	0xbdfaa930	-0.12239301
91	0xbdf12356	-0.11774318
92	0x3dc131e0	0.09433341
93	0xbddf09a0	-0.10890508
94	0xbd3884cc	-0.04504852
95	0x3caccac0	0.021092772
96	0x3cc7ecd0	0.024404913
97	0xbcbd13f0	-0.023080796
98	0xbdb7da2c	-0.0897716
99	0xbd47de98	-0.048796266
100	0x3ddeb4ec	0.10874352
101	0x3dd40ba8	0.10353786
102	0x3dd5e330	0.10443723
103	0xbdc86024	-0.09783962
104	0x3ce6f970	0.028195113
105	0x3d353234	0.04423733
106	0xbdcb3398	-0.0992195
107	0x3d841380	0.06449032
108	0x3daa9688	0.08329493
109	0x3d65f1b4	0.05613871
110	0x3dab7b58	0.08373135
111	0x3d89beb4	0.06725827
112	0xbdc8f166	-0.09811668
113	0x3d911276	0.07083599
114	0x3c685350	0.0141800195
115	0x3d03a7d8	0.03214249
116	0xbca4abe8	-0.020101503
117	0x3cd34a80	0.02579236
118	0xbdb52810	-0.08845532
119	0x3d96e4e0	0.07367873
120	0xbd3f56ac	-0.046713516
121	0xbdcf3f2c	-0.10119471
122	0x3abf0500	0.0014573634
123	0x3bd1b200	0.006399393
124	0x3cdac760	0.026706398
125	0x3d3667d8	0.044532627
126	0xbd9edbfe	-0.07756804
127	0x3d1c34f8	0.038136452
128	0x3d998c60	0.074974775
129	0xba231100	-0.000622049
130	0x3db55558	0.08854169
131	0xbd6836d8	-0.056692928
132	0x3c99dcc8	0.018782035
133	0xbd31e504	-0.043431297
134	0xbd927a02	-0.071521774
135	0xbd805bbe	-0.062674984
136	0xbd2a53ec	-0.04158394
137	0xbc3552b0	-0.0110670775
138	0xbcf257e0	-0.029582918
139	0xbd6966fc	-0.05698298
140	0x3defd322	0.11710192
141	0x3d86b53a	0.06577535
142	0xbc786fe0	-0.015163392
143	0x3d496d10	0.049176276
144	0x3d149818	0.03627786
145	0x3d98c8b0	0.07460153
146	0xbdd70ae8	-0.10500127
147	0x3dde5a9e	0.108571276
148	0x3dc6c0d0	0.09704745
149	0xbdf20fb2	-0.118194
150	0x3d639c48	0.055568963
151	0x3dc5c154	0.09656015
152	0x3c2e56c0	0.0106408
153	0xbd30a130	-0.04312247
154	0xbd1711e8	-0.03688231
155	0x3c92ae80	0.017905474
156	0xbd611ef4	-0.05496116
157	0x3dfaa05e	0.12237619
158	0xbde857a6	-0.113448426
159	0x3dcdee58	0.10055226
160	0x3d4be5e8	0.049779803
161	0xbd5fd930	-0.054650486
162	0x3c0a3e10	0.008437648
163	0xbdcab776	-0.09898274
164	0x3de25bba	0.11052652
165	0x3d0c7210	0.034288466
166	0x3deea148	0.11651856
167	0x3dfdb38a	0.1238776
168	0xbd406570	-0.04697174
169	0xbdd99386	-0.10623841
170	0x3de31742	0.110884205
171	0x3dc276c0	0.09495306
172	0x3d4509b8	0.04810497
173	0xbdb70458	-0.089363754
174	0x3d26df98	0.04074058
175	0x3da07a68	0.07835847
176	0x3c8bf4d8	0.017084524
177	0xbd0f6d38	-0.03501627
178	0x3c0d5aa0	0.008627564
179	0x3d1e3d08	0.038632423
180	0xbdde0ece	-0.108426675
181	0xbcbb8a18	-0.022892997
182	0x3d429754	0.0475076
183	0xbd0a0668	-0.033697516
184	0x3cf63d48	0.030058518
185	0x3a0bfb00	0.0005339831
186	0xbb9e4fe0	-0.004831299
187	0xbd7026ac	-0.05863063
188	0x3d0630f4	0.03276153
189	0x3a5d5000	0.0008442402
190	0x3af11800	0.0018393993
191	0x3dcba362	0.09943272
192	0x3c0ae310	0.0084769875
193	0x3bfbb720	0.0076817423
194	0x3d76fc74	0.06029935
195	0x3dc180e4	0.09448412
196	0x3d8a8eb6	0.06765501
197	0x3d8c1750	0.06840384
198	0x3af06280	0.0018339902
199	0x3cfaffe8	0.030639604
200	0x3bb87c60	0.005630061
201	0xbdba1d46	-0.09087615
202	0x3d3e0400	0.046390533
203	0xbda6289e	-0.08113216
204	0xbdc5cb0c	-0.09657869
205	0xbc47af80	-0.012187839
206	0xbccdabf0	-0.0251064
207	0xbd99ebe0	-0.07515693
208	0x3d1f3108	0.03886512
209	0x3df83eea	0.12121375
210	0xbc648830	-0.013948485
211	0x3d7c9d30	0.061673343
212	0x3deda1d8	0.11603135
213	0x3b2aff80	0.0026092231
214	0xbd3f5808	-0.046714813
215	0x3b596000	0.0033168793
216	0x3d14bc9c	0.036312684
217	0xbd027608	-0.031850845
218	0x3d7ac2cc	0.06122093
219	0x3dc8f574	0.098124415
220	0x3c01b7b0	0.00791733
221	0xbdb6a122	-0.089174524
222	0x3c19a970	0.009378776
223	0x3b36b480	0.0027878582
224	0xbc4ed500	-0.012624025
225	0x3d959ece	0.0730568
226	0x3cb9d870	0.022686213
227	0xbd39a278	-0.045320958
228	0x3ddf4458	0.109017074
229	0x3c15da30	0.009146258
230	0xbd4670b4	-0.048447326
231	0x3ce9eb20	0.0285545
232	0x3d1fa358	0.038974136
233	0x3c8a47c0	0.016879916
234	0xbd5f11e8	-0.054460436
235	0x3dc1e4a4	0.09467438
236	0x3c55b5f0	0.013043866
237	0xbcdcc0c0	-0.02694738
238	0xbcbd3f20	-0.02310139
239	0xbde098be	-0.10966633
240	0x3dc684be	0.09693287
241	0xbdab52e0	-0.083654165
242	0xbd52bad8	-0.05144772
243	0xbdf242fa	-0.11829181
244	0x3dcde874	0.100541025
245	0x3ddb7fe4	0.107177526
246	0x3d1ef084	0.038803592
247	0x3d1edc5c	0.03878437
248	0x3dcbe092	0.09954943
249	0x3add6480	0.0016890913
250	0x3d9fc270	0.07800758
251	0xbde634ec	-0.11240563
252	0xbd6c1068	-0.057632834
253	0xbd689384	-0.056781307
254	0xbde9cb90	-0.114157796
255	0xbd81b96a	-0.06334193

decoder.mlp.0.bias f4 [128]
0	0x3bdd2a80	0.006749451
1	0xbceee868	-0.029163554
2	0x3d2caca4	0.04215683
3	0x3de04296	0.109502
4	0xbb741240	-0.0037242323
5	0xbd1114a8	-0.03542009
6	0xbdc10baa	-0.09426053
7	0xbd81b4b2	-0.06333293
8	0x3d9cc7bc	0.07655284
9	0x3c20a170	0.009804115
10	0xbdc600de	-0.09668134
11	0x3dc93f04	0.098264724
12	0x3d4e3cd4	0.05035098
13	0x3dc10faa	0.09426816
14	0x3dca6a0c	0.09883508
15	0x3cd2fc48	0.025755063
16	0xbdb87946	-0.09007506
17	0x3dc80de2	0.09768273
18	0x3de3a62a	0.11115678
19	0x3ced8c68	0.028997615
20	0x3d3914c8	0.045185834
21	0x3dfd8dc6	0.12380557
22	0x3d4a87f8	0.049446076
23	0xbd3c9cc4	-0.04604794
24	0xbd7c4fb0	-0.061599433
25	0x3dc18be0	0.09450507
26	0x3b864080	0.0040970445
27	0xbdba5486	-0.09098153
28	0xbc0786a0	-0.008271843
29	0x3d67b3dc	0.05656801
30	0x3db73676	0.089459345
31	0xbd2e6530	-0.04257697
32	0x3dd95776	0.10612385
33	0x3dca51a0	0.0987885
34	0xbc664000	-0.014053345
35	0xbd70a720	-0.058753133
36	0x3db4f46c	0.08835682
37	0xbcb849e8	-0.022496179
38	0x3ca98730	0.020694345
39	0xbdba0d7c	-0.09084603
40	0xbdca0d02	-0.09865762
41	0x3cd03ff0	0.025421113
42	0x3d9493e0	0.072547674
43	0xbdc63b54	-0.09679285
44	0x3dfbacd4	0.12288824
45	0x3d3fea18	0.04685411
46	0xbd9e6f2c	-0.07736048
47	0xbda8fbdc	-0.08251163
48	0xbde08866	-0.10963516
49	0xbdb98a66	-0.090596005
50	0x3cedf9b8	0.02904974
51	0xbd4030e8	-0.04692164
52	0x3dd1e374	0.10248461
53	0x3d1f0854	0.0388263
54	0xbdbae538	-0.09125751
55	0x3dd37c16	0.10326402
56	0xbdf834f2	-0.121194735
57	0x3d82a406	0.06378941
58	0xbdce1294	-0.10062137
59	0x3ccc49f8	0.024937615
60	0xbdfc152e	-0.12308727
61	0xbcef5c48	-0.029218808
62	0x3c87c4b8	0.016573295
63	0xbbdc95a0	-0.006731704
64	0x3de59120	0.11209321
65	0x3d583ddc	0.05279337
66	0x3d988126	0.07446508
67	0x3d86d8ca	0.06584318
68	0xbd774e48	-0.06037739
69	0xbde40442	-0.111336246
70	0x3d0bb2a4	0.03410591
71	0xbd8ef4ae	-0.06980263
72	0xbcb09268	-0.021554187
73	0xbd94d06a	-0.07266314
74	0xbdcef45e	-0.10105203
75	0x3d8d4df2	0.068996325
76	0x3deb7900	0.11497688
77	0x3dc95bfa	0.09831996
78	0xbdd56cca	-0.104211405
79	0xbbe51de0	-0.006992087
80	0x3b2b6600	0.0026153326
81	0x3cf20760	0.029544532
82	0xbd9cd13a	-0.07657094
83	0x3d4a37c0	0.049369574
84	0xbd70db84	-0.058803096
85	0xbdf6db28	-0.120535195
86	0x3de03d18	0.10949153
87	0x3da99a4c	0.08281383
88	0xbcfe8bf8	-0.031072602
89	0xbdd4c06c	-0.10388264
90	0xbcf8d598	-0.030375287
91	0xbdc3f42a	-0.09568055
92	0xbda751aa	-0.08169873
93	0xbdff3b5c	-0.12462494
94	0x3dd32e30	0.10311544
95	0x3cef0c10	0.029180557
96	0x3d55b0d8	0.052170604
97	0xbd8a9262	-0.067662016
98	0x3d404be4	0.046947375
99	0x3ca7e640	0.020495534
100	0x3dbb7f68	0.0915516
101	0xbbdb4500	-0.006691575
102	0x3d4ecd9c	0.050489053
103	0x3c894638	0.016757116
104	0x3daf6df0	0.08565891
105	0xbdffdd4c	-0.12493381
106	0xbd2f3044	-0.04277064
107	0x3d285480	0.04109621
108	0xbdfd4cec	-0.12368187
109	0x3c3216c0	0.010869682
110	0xbd5cc3b0	-0.05389756
111	0xbd91c31e	-0.07117294
112	0x3b6ad780	0.0035834014
113	0xbdcdce96	-0.10049169
114	0xbd89922c	-0.06717333
115	0xbc1fa400	-0.0097436905
116	0xbc9fd8c0	-0.019512534
117	0xbcd70a10	-0.026249915
118	0x3dc7be56	0.097531006
119	0x3da521f8	0.0806312
120	0xbd973906	-0.07383923
121	0x3cfef4c0	0.031122565
122	0x3de9734c	0.11398944
123	0x3dc5f77a	0.09666343
124	0x3d29bcd8	0.04143986
125	0xbd11542c	-0.035480663
126	0xbcbd48d0	-0.023106009
127	0xbcf53768	-0.029933646

decoder.mlp.2.weight f4 [64, 128]
0	0xbd7131de	-0.058885448
1	0xbc9e97c4	-0.019359477
2	0x3d926939	0.07148976
3	0x3aba1900	0.0014198124
4	0x3d102b76	0.035197698
5	0xbce7779e	-0.02825528
6	0x3c87dfcc	0.016586207
7	0x3cc42da8	0.023947552
8	0x39b39e00	0.0003425926
9	0xbcd4b71c	-0.02596622
10	0xbd955608	-0.072918
11	0xbd139b93	-0.03603704
12	0x3d7673c6	0.060169004
13	0xbcee3f6e	-0.02908298
14	0x3d5118c6	0.051049016
15	0xbd9574c6	-0.072976634
16	0x3ce2e05c	0.027694874
17	0xbd195166	-0.037431143
18	0x3c879758	0.016551659
19	0x3d2f9d7a	0.04287479
20	0xbd388a01	-0.045053486
21	0x3dad99e5	0.08476619
22	0xbdaf0013	-0.08544936
23	0x3cdd888c	0.02704265
24	0xbdb41803	-0.08793642
25	0x3da024f9	0.07819552
26	0xbda116e6	-0.07865696
27	0x3d4bedda	0.04978738
28	0xba84d8c0	-0.0010135397
29	0x3d8d1e53	0.068905495
30	0x3c556e88	0.013026841
31	0xbcc678e0	-0.02422756
32	0x3d48d362	0.049029715
33	0xbda99d03	-0.08281901
34	0x3c839b08	0.016065136
35	0xbd35053a	-0.044194438
36	0xbd189a4a	-0.037256517
37	0x3d64f362	0.05589617
38	0xbd085076	-0.03327986
39	0x3c503060	0.012706846
40	0xbd00cc3c	-0.031444773
41	0xbd120c12	-0.035656042
42	0xbcafec30	-0.021474928
43	0x3d38ae2e	0.045087986
44	0xbd26d6cf	-0.0407322
45	0xbd37d425	-0.04488005
46	0x3d120426	0.035648488
47	0x3ce4e158	0.027939484
48	0x3a4a5d80	0.0007719621
49	0xbd91702c	-0.07101473
50	0xbcfc5d3a	-0.030806173
51	0x3c2453d0	0.010029748
52	0x3d8c8655	0.06861559
53	0x3d325a56	0.043543182
54	0x3cfa00f0	0.030518025
55	0xbadc2d00	-0.0016798079
56	0xbd1e1ecd	-0.038603593
57	0xbd641abc	-0.05568956
58	0xbcb4e1b8	-0.022080287
59	0x3cfc4364	0.030793853
60	0xbd553cda	-0.052059986
61	0xbd148e1d	-0.036268342
62	0x3ca7dc6c	0.020490848
63	0xbd9b4ccf	-0.075830095
64	0xbd9a4bc2	-0.07533981
65	0xbcc4c314	-0.024018802
66	0xbd9d90eb	-0.076936565
67	0x3cbbd8d4	0.02293054
68	0x3cc9c7f8	0.024631485
69	0x3d3470d6	0.04405292
70	0xbb3f0340	-0.0029146224
71	0x3d92a043	0.07159474
72	0xbd0a74d2	-0.033802815
73	0x3db01e6d	0.08599553
74	0x3d870893	0.06593432
75	0x3d85501d	0.06509421
76	0xbbcf53f0	-0.006327145
77	0xbda05685	-0.07829002
78	0x3be9f300	0.0071395636
79	0xbd1a21ce	-0.037629895
80	0xbd2c77b4	-0.042106345
81	0x3c28b7c0	0.010297716
82	0xbd1187aa	-0.03552977
83	0x3d3f4986	0.046700977
84	0xbd8f59fe	-0.069995865
85	0xbd82cee2	-0.06387116
86	0x3daab1cd	0.08334694
87	0xbcc42778	-0.023944601
88	0xbd9d80fe	-0.07690619
89	0x3da83711	0.08213628
90	0x3c4f6b70	0.012659892
91	0xbcb1829c	-0.021668725
92	0x3d82ad91	0.063807614
93	0x3db0e713	0.08637824
94	0xbda4323c	-0.08017394
95	0xbda5ed60	-0.08101916
96	0xbd457647	-0.0482085
97	0x3d9a4071	0.075318225
98	0xbd946132	-0.07245101
99	0xbdad4e12	-0.08462156
100	0xbb8c7b90	-0.0042871907
101	0xbcea9b88	-0.028638616
102	0xbd8d9460	-0.06913066
103	0x3d8fbb2d	0.07018123
104	0x3d6b6ac6	0.057474874
105	0xbdb36c0c	-0.08760843
106	0x3d29d1d6	0.04145988
107	0xbd0809fb	-0.033212643
108	0xbda30af0	-0.079610705
109	0xbcd4f88a	-0.025997419
110	0x3da62247	0.08112007
111	0x3dadd759	0.0848834
112	0x3d33181a	0.043724157
113	0xbd79b40b	-0.060962718
114	0xbccd2cd8	-0.025045797
115	0x3d1526de	0.03641402
116	0xbd88da91	-0.06682313
117	0x3d5fd38a	0.0546451
118	0xbceeb7b4	-0.02914033
119	0x3c4bcd98	0.012439154
120	0x3d754fae	0.05989044
121	0x3d9a3abd	0.07530735
122	0x3d8a296f	0.06746184
123	0xbd991da4	-0.074763566
124	0x3daca69b	0.08430215
125	0xbd1e953b	-0.038716536
126	0x3d3d485a	0.046211578
127	0x3d55ed32	0.05222816
128	0x3d947b93	0.072501324
129	0xbcc9f6b4	-0.02465377
130	0xbd72265f	-0.059118625
131	0x3bf84050	0.007576026
132	0xbd1f226c	-0.038851187
133	0xbc8797bc	-0.016551845
134	0xbb271780	-0.0025496185
135	0xbdb4bf4d	-0.0882555
136	0xbcb9c63c	-0.022677533
137	0xbd3f8ffd	-0.046768177
138	0xbd894d66	-0.06704216
139	0xbd0d2974	-0.03446336
140	0x3c4771f8	0.012173168
141	0x3c8ecf2c	0.017432772
142	0x3d7fdc0a	0.062465705
143	0xbcc8f688	-0.024531618
144	0xbd98d6a4	-0.074628145
145	0x3d4f8136	0.050660335
146	0xbca9f794	-0.020747937
147	0x3d9c1d8b	0.076228224
148	0x3dab49c1	0.08363677
149	0xbcdb8efe	-0.026801582
150	0x3cbee1f0	0.023301095
151	0x3d362f06	0.04447844
152	0x3c4843f0	0.012223229
153	0xbd13cf68	-0.03608647
154	0x3da5bd21	0.08092714
155	0x3dae4a7f	0.08510303
156	0x3d31e562	0.043431647
157	0xbdb22f90	-0.08700478
158	0xbaa7fa00	-0.0012815595
159	0x3ccb110c	0.024788402
160	0x3cf43da0	0.029814541
161	0x3d87eaa5	0.06636552
162	0xbc455c28	-0.012045898
163	0xbd1615e8	-0.036641985
164	0xbd9f63ec	-0.077827305
165	0x3d71304a	0.058883943
166	0x3bd14e10	0.0063874796
167	0xbc824e14	-0.015906371
168	0xbd45f534	-0.048329547
169	0xbc6198c8	-0.013769336
170	0xbc885258	-0.016640827
171	0xbd40fa6a	-0.047113813
172	0xbd913ffc	-0.07092282
173	0xbd2ff856	-0.04296144
174	0xbce87be6	-0.028379392
175	0x3d1067fa	0.03525541
176	0xbd84167b	-0.064496
177	0x3ce72750	0.028216988
178	0xbd027fdb	-0.031860214
179	0x3d6a35a2	0.057180054
180	0xbbc51430	-0.0060143694
181	0xbc573d90	-0.013137236
182	0x3c37a920	0.011209756
183	0xbd90c1ba	-0.070682004
184	0x3d8b18af	0.067918174
185	0xbce3e6f6	-0.027820092
186	0xbd8f4197	-0.06994932
187	0x3d513432	0.051075168
188	0x3d589a1a	0.052881338
189	0xbd441adb	-0.047877174
190	0x3d17de0e	0.037077002
191	0x3d65898e	0.056039385
192	0x3d2624b6	0.040562354
193	0xbd22f300	-0.039782524
194	0x3cd36b80	0.025808096
195	0x3c3ff478	0.011716001
196	0xbd501cba	-0.050808646
197	0xbd16f798	-0.036857218
198	0x3d678aa2	0.056528695
199	0x3d07a894	0.033119753
200	0xbd04e1f2	-0.03244204
201	0xbca1d614	-0.0197554
202	0x3dad1145	0.084505595
203	0xbd0ec1c1	-0.034852747
204	0x3d1f4172	0.038880773
205	0xbd8c28bf	-0.06843709
206	0x3cd9ff5c	0.026611023
207	0x3d88a0cd	0.06671295
208	0xbd8e2da0	-0.06942296
209	0x3dabe70f	0.0839368
210	0xbd70ca58	-0.05878672
211	0x3bf5e3b0	0.007503949
212	0xbd2c292b	-0.04203145
213	0xbd736656	-0.059423767
214	0xbd3f2b2e	-0.04667204
215	0x3da37bd5	0.079826035
216	0x3d24e1c6	0.040254377
217	0xbd957801	-0.072982796
218	0xbc60b730	-0.01371555
219	0x3c345648	0.011006899
220	0x3c4baf48	0.012431927
221	0x3cf5bce0	0.02999729
222	0xbd5930bf	-0.053025004
223	0xbd573ceb	-0.05254833
224	0x3c41c288	0.011826165
225	0xbceae412	-0.028673206
226	0x3d9c7d1f	0.076410525
227	0xbd10a7ef	-0.035316404
228	0xbcc3e48c	-0.02391269
229	0xbcc66fb8	-0.024223194
230	0x3d9fcaab	0.07802328
231	0x3d6a342a	0.057178654
232	0x3cc35a04	0.023846634
233	0xbd9aab17	-0.07552164
234	0x3d9f3c77	0.07775205
235	0x3c598230	0.013275668
236	0xbd66a321	-0.056307916
237	0xbd8be1f8	-0.068302095
238	0xbda92d62	-0.08260609
239	0xbd8d634e	-0.069037065
240	0x3d14fb52	0.03637249
241	0xbd480c90	-0.048840106
242	0xbcc83ac8	-0.024442092
243	0xbc62d438	-0.013844542
244	0xbc68ba98	-0.014204644
245	0x3d9640af	0.07336556
246	0xbd981eb1	-0.07427729
247	0xbdb458ff	-0.08806037
248	0xbdad47db	-0.08460971
249	0x3da24547	0.0792337
250	0x3d144c3c	0.036205515
251	0xbd2f26cd	-0.042761613
252	0x3db04eb1	0.08608759
253	0x3d60e7c6	0.054908536
254	0x3be68980	0.0070354342
255	0x3c8b2ba4	0.016988583

decoder.mlp.2.bias f4 [64]
0	0x3d4d95d2	0.050191708
1	0x3d739e92	0.059477396
2	0xbb3c3fa0	-0.0028724447
3	0x3dac0037	0.083984785
4	0xbbab8370	-0.0052341744
5	0xbbaa19e0	-0.005191073
6	0x3db482af	0.088139884
7	0xbd5a3b7d	-0.05327939
8	0x3d87e34b	0.066351496
9	0xbc9858a8	-0.018596962
10	0xbd2acbb4	-0.041698173
11	0xbd326fe2	-0.04356373
12	0xbce3bbce	-0.027799513
13	0x3cfa79e8	0.030575708
14	0x3c9f0b48	0.019414559
15	0xbcdcf276	-0.026971083
16	0x3da0d0c3	0.07852318
17	0x3d9465cd	0.072459795
18	0x3d9c398f	0.07628166
19	0x3d70be4e	0.05877524
20	0xbd4f0c2c	-0.050548717
21	0xbd660f28	-0.056166798
22	0x3d991cd3	0.07476201
23	0x3bf24960	0.007394001
24	0x3d57aa62	0.052652724
25	0xbbcd00e0	-0.006256208
26	0x3d421de6	0.047391795
27	0x3d94bb9d	0.07262347
28	0x3cdc20b4	0.026871063
29	0x3d89ab65	0.06722144
30	0x3d557622	0.052114613
31	0x3da7c6cb	0.081922136
32	0x3bd7c6c0	0.006584972
33	0x3cad3c30	0.021146864
34	0x3d50e38a	0.05099825
35	0xbc097288	-0.008389123
36	0xbd8a9cc0	-0.06768179
37	0x3da26ad3	0.07930531
38	0x3c820ab8	0.015874252
39	0xbda24b72	-0.07924546
40	0xbd4247d0	-0.047431767
41	0xbd5e143c	-0.054218516
42	0x3d83340f	0.06406414
43	0x3d06c730	0.032904804
44	0xbdb1b58e	-0.08677207
45	0xbd9d3bdc	-0.07677433
46	0x3d932f6d	0.0718678
47	0x3d8bcfe9	0.06826765
48	0x3c5afd80	0.013366103
49	0x3c7c77d0	0.015409425
50	0xbda7329f	-0.08163952
51	0x3ccdc0d8	0.02511637
52	0x3d95d8f9	0.07316775
53	0xbda6856c	-0.08130917
54	0xbda7d284	-0.081944495
55	0x3d8cbef5	0.0687236
56	0xbc6fe298	-0.0146414265
57	0xbdae275c	-0.08503601
58	0xbd97bca5	-0.07409028
59	0x3d4fa34e	0.05069285
60	0x3c4c2fe8	0.012462594
61	0x3d9dd063	0.07705762
62	0xbbef98d0	-0.007311918
63	0xbd8883f2	-0.066657916
