save.pth (torch, 109826 bytes, 12 tensors)

encoder.conv1.lin_l.weight f4 [64, 7]
000000 7b 58 83 be 51 9e ed 3c 38 a7 5e be eb f9 5c be
       -0.25653443 0.029006155 -0.21743476 -0.21579711
000010 b1 3d 4e be d7 37 9b 3e 5b 60 b3 be b9 39 d4 be
       -0.20140721 0.3031604 -0.3503445 -0.4145029
000020 8a 36 6e 3d 30 d2 30 3e 83 fc b3 3e 62 21 08 3e
       0.05815748 0.1726768 0.3515359 0.13293985
000030 cf 26 f9 bd b8 ca c0 3d f3 1c 73 bc fd 6d bf bc
       -0.12165605 0.094136655 -0.014838445 -0.023367876
000040 ce c4 e8 bc 1f 7e a0 3e 6e 05 0d 3e 79 0b 98 3e
       -0.028414156 0.31346223 0.13771603 0.29696253
000050 37 37 82 3e db 41 cd be 0c 1a 77 be 52 b5 e2 3e
       0.2543275 -0.40089306 -0.2413103 0.4427896
000060 e2 21 26 be 00 53 ec 3c c7 25 c7 3d bb 92 ae be
       -0.16223863 0.028848171 0.09724002 -0.3409632
000070 a0 36 d8 3e 77 92 5f be e6 38 af be c0 a5 b1 bd
       0.42229176 -0.21833216 -0.34223098 -0.086741924
000080 28 a4 05 bd ee 77 b7 be 96 dc 8e be fa 4f de bd
       -0.032627255 -0.35833687 -0.2790267 -0.10855098
000090 19 02 79 3e f3 b8 e4 3e eb 01 a4 be 34 26 a4 bd
       0.24317206 0.44672355 -0.32032713 -0.08015099
0000a0 66 5b 25 bd 18 97 93 be 0b 71 8e 3e 2d 1d 5e be
       -0.040370367 -0.28826213 0.2782062 -0.21690817
0000b0 cc bb 89 be 74 b2 89 bd a6 07 0a be 7c 9d 90 3e
       -0.2690109 -0.0672349 -0.1347948 0.2824515
0000c0 d2 af 26 be 12 d5 c7 3e ca 87 87 3e 5e 35 86 bd
       -0.16278008 0.39029747 0.26470786 -0.06553148
0000d0 b6 65 13 3e 7e 9b 3f 3e dd 52 e1 bd 78 d6 0e be
       0.14394268 0.1871166 -0.11002133 -0.13949001
0000e0 9c 0f 46 be b8 c5 b5 bd de aa 24 be 40 68 93 bb
       -0.19341892 -0.088756025 -0.16080806 -0.0044985116
0000f0 c6 ea 10 3e 83 66 04 bd 00 3e 3c 3d 81 03 87 bc
       0.14152059 -0.032324325 0.045957565 -0.016481163
000100 da d7 c1 bd 1e 91 d5 3e f8 0b 78 3d d1 0b a8 be
       -0.094649985 0.41712278 0.06055829 -0.32821515
000110 f3 f4 2b bd f8 98 b1 bd 5c be 80 bd 5c f5 88 3d
       -0.04198165 -0.086717546 -0.06286308 0.066874236
000120 18 b0 0c bd 8b f6 b1 3e fb bf 9c be fe 1a 22 3e
       -0.034347624 0.3475841 -0.3061522 0.15830609
000130 df a6 8f 3e b3 ad 5b be ba 17 24 be 5f cc a3 3e
       0.28057 -0.2145298 -0.16024676 0.3199186
000140 71 bc a5 be 02 b3 34 3e 80 1c d1 3c 6f 27 a3 3e
       -0.32370332 0.17646411 0.025526285 0.31866023
000150 9a 00 58 3c f1 41 18 be 3a ad 2d 3e 90 34 68 bd
       0.013183737 -0.14868905 0.16960612 -0.056690753
000160 12 ef 2a 3e 5c 7b 84 be 40 c9 07 bc 60 26 9e bd
       0.1669276 -0.25875366 -0.008287728 -0.07722163
000170 17 d5 ac 3d 12 65 b2 3e f9 8f 90 be 48 5b 10 bd
       0.08439081 0.34842736 -0.28234842 -0.035243303
000180 2b 1e 7d 3e ac ac a2 bd 77 bd 74 3a 3a 20 2d 3c
       0.2471854 -0.07943091 0.0009336094 0.010566765
000190 a5 5d 7f 3d 7e db 77 3e c0 68 41 3c a0 b4 4d 3e
       0.062345166 0.24204823 0.0118047595 0.20088434
0001a0 c9 f3 ba 3e ea 79 19 be b5 2e 23 bd 0c 0a f2 bd
       0.36514118 -0.14987913 -0.039839465 -0.118183225
0001b0 aa c0 06 be 79 9e a0 3e 6d 28 79 3e d0 87 c7 3d
       -0.13159433 0.31370905 0.24331827 0.09742701
0001c0 dd c8 8d 3e 8a 63 51 be b0 b9 8a be 9c 32 b8 3d
       0.2769231 -0.20448127 -0.27094793 0.08994028
0001d0 c8 8e 66 bd b8 10 ad bd 20 f0 77 3c 9a bc 31 be
       -0.05628851 -0.084504545 0.015132934 -0.17357102
0001e0 ea ef 53 3e 45 29 8c 3e 38 1e af bd 57 21 98 be
       0.20696989 0.27375236 -0.08550686 -0.29712936
0001f0 ef b1 0f be 85 cf a5 3e c5 73 b3 3e b0 4c ff bd
       -0.1403272 0.32384887 0.35049263 -0.12465799
000200 27 b4 8b 3e c6 2a 0b 3e 02 53 a0 be 35 f0 9e be
       0.27285883 0.13590536 -0.3131333 -0.31042638
000210 06 2e 57 3e 2d 79 b6 3e 73 aa 06 3e c9 c3 6e bd
       0.2101365 0.35639325 0.13150959 -0.058292184
000220 4c 03 84 bd 6e e8 33 3e df 4d e8 bc f8 91 b7 bd
       -0.06445941 0.17569134 -0.028357444 -0.08963388
000230 2a a3 d2 be cf 6e f1 3d 9f ef b5 3e 34 ed e0 bd
       -0.4114011 0.11788713 0.3553438 -0.10982743
000240 09 ec 0f be f5 72 84 3b 43 79 9e 3e c5 a1 8d 3e
       -0.14054884 0.0040420243 0.3095189 0.27662483
000250 4c 1f a3 be 88 09 9a bd 6f d8 57 be 1e 2a 9c be
       -0.31859815 -0.07521349 -0.21078657 -0.30500883
000260 bf 06 81 3e aa 92 50 3e 41 f7 1f be 17 29 a9 be
       0.2520046 0.20368448 -0.15621664 -0.33039162
000270 b6 2b 9b bc 9a 51 19 be fe 4d 51 be 50 57 5f 3e
       -0.018941741 -0.14972535 -0.20439908 0.21810651
000280 b6 57 17 3e 71 0f 55 be 01 b5 e7 bc 0e e6 ca 3e
       0.14779553 -0.20806672 -0.028284552 0.39628643
000290 a8 d0 34 bd 0e 6a ab be da 7d 85 3e aa 36 11 3e
       -0.044144303 -0.3347935 0.2607258 0.14181009
0002a0 ab 0b 15 3c 6a 91 31 3e e2 5d 26 bc a8 9e 90 bd
       0.00909702 0.17340627 -0.010154219 -0.07061511
0002b0 b7 31 9b 3e db 30 be be a8 72 80 be 5c c5 9d be
       0.30311367 -0.3714665 -0.25087476 -0.30814636
0002c0 5e c6 ac bc 5a 1c a5 be 90 59 8c 3c c2 12 34 3e
       -0.021090683 -0.32248193 0.01713255 0.1758528
0002d0 c4 48 0e be d6 f3 67 be fc ab 9f be 8d 9a 46 be
       -0.13894945 -0.2265161 -0.311859 -0.19394894
0002e0 d6 73 0a 3e 40 af b2 bb e0 7c d1 bc b5 c2 9a be
       0.1352075 -0.0054530203 -0.02557224 -0.30226675
0002f0 50 9a 0e 3d e9 65 8f 3e da 0a 25 be f0 c9 dd bc
       0.034815133 0.2800744 -0.16117421 -0.02707383
000300 85 b5 75 be 40 55 43 3c c3 c9 ab be e6 e5 21 3e
       -0.23995025 0.011922181 -0.3355237 0.15810356
000310 dc 38 90 3c 56 e1 0f be 16 f2 f5 bc 40 e2 2e 3c
       0.017605238 -0.14050803 -0.030022662 0.010674059
000320 b8 2b 32 bd 0a 05 ab be 32 80 0a be 10 ab d9 be
       -0.043498725 -0.33402282 -0.13525465 -0.42513323
000330 e3 91 93 bd 25 5b 4d be 82 fe 2d 3e 68 d1 94 3d
       -0.0720556 -0.200543 0.16991618 0.072665036
000340 98 67 9f 3e ad f6 83 3e d6 1d 6a 3e 90 6b 1c be
       0.31133723 0.25774136 0.22862944 -0.15275407
000350 b4 e1 de 3d 1c 60 39 be f4 12 f1 bd 9e 55 2e be
       0.10882893 -0.18103069 -0.11771193 -0.17024848
000360 f4 28 fc bd a0 0d 6a 3d f2 cd 57 be 00 98 14 bd
       -0.12312499 0.0571419 -0.21074656 -0.03627777
000370 42 12 1f be f1 50 99 3e 38 40 6c 3d ee 84 97 be
       -0.15534309 0.29944566 0.05767843 -0.29593605
000380 80 a3 c3 3c 6e 83 b0 be bd 08 b8 be f8 da 69 bd
       0.023881674 -0.34475273 -0.35944167 -0.05709359
000390 00 70 22 3c ea 7b 2c 3e 04 74 ae be 8b 16 02 bd
       0.009914398 0.16844144 -0.34072888 -0.03175978
0003a0 80 7b 6b be 94 09 d0 bd 9a c4 97 be e2 9f 7c be
       -0.2299633 -0.10158077 -0.29642183 -0.24670365
0003b0 b7 b9 96 3d e0 e1 c0 3c 20 5b ca bc 34 35 b6 bd
       0.07359641 0.023545206 -0.024701655 -0.088968664
0003c0 d6 cd b7 be c4 ca bc 3d 20 5c d5 3c dd 09 66 be
       -0.35899228 0.09218362 0.026044905 -0.224647
0003d0 92 0c 35 3e 35 4e 8a be 14 b7 48 3c 40 4b e0 be
       0.17680576 -0.27012792 0.0122506805 -0.4380741
0003e0 09 a4 9e 3e 61 3a 17 be 6d 9d bc 3c 30 1c c7 3d
       0.30984524 -0.14768364 0.023024285 0.09722173
0003f0 0b 76 47 bd 86 c1 b4 bd 7a 3a 32 bc d0 f0 2f 3d
       -0.04869656 -0.08825974 -0.0108782 0.042954266

encoder.conv1.lin_l.bias f4 [64]
000000 56 25 d3 3e 9a 0a 49 3d b0 66 66 3e 64 14 d7 3e
       0.41239423 0.049082376 0.2250011 0.42007744
000010 2b db a1 bd 7a 62 cb bd 1f 48 b7 3e 55 f3 68 bd
       -0.07903131 -0.09930892 0.35797212 -0.056872685
000020 6a 37 6f be 52 20 d0 3d ea b1 a7 3d 2a 54 13 bd
       -0.23360983 0.101624146 0.08188231 -0.035968937
000030 42 f7 0a 3f f2 be 19 3f 62 3f 8d be f0 96 d8 3e
       0.54283535 0.60056984 -0.2758742 0.42302656
000040 76 79 00 3f aa 4e 50 bd 8b 20 52 be ab a5 b5 bd
       0.50185335 -0.05085627 -0.20520227 -0.08869489
000050 ae f7 0b 3f 08 e7 36 3e 60 2a c2 3e cc 3e 15 3f
       0.54674804 0.17861569 0.37922955 0.58298945
000060 d7 29 8d bd 02 51 85 3e 4b f0 a3 bc 5c 85 c6 3e
       -0.06892746 0.26038367 -0.020012042 0.3877362
000070 df 98 cc 3e 66 8c de bc 88 c3 cc 3d 7c ae f7 3e
       0.3996038 -0.027166557 0.09998232 0.4837531
000080 cf 72 8b bd f7 57 b1 3e cd d4 b7 bd b9 d8 5f bd
       -0.068090074 0.34637424 -0.089761354 -0.054650042
000090 03 6d 39 be a3 3f c2 be 04 ae c4 3e 56 d9 80 3c
       -0.18107991 -0.37939176 0.38414013 0.015728634
0000a0 e7 d8 12 3f e2 1e 29 bc 59 fb 8a 3e bb e0 48 3e
       0.57362217 -0.010322304 0.27144888 0.19616978
0000b0 7c e0 14 3d fd fe c4 3d 2a 30 47 be 5d 65 e6 3e
       0.036346897 0.09618948 -0.19451967 0.4499921
0000c0 6e 06 80 bd 5e 6e b7 3e 82 21 14 be 82 6c 04 3f
       -0.06251226 0.3582639 -0.14465907 0.5172807
0000d0 40 1d db 3d 6e 47 89 bd 65 b3 0c 3f 18 c9 90 3e
       0.10698938 -0.06703077 0.54961234 0.28278422
0000e0 ae dd 2a 3d 71 26 87 3e 44 1b 3c bd a7 09 90 3e
       0.041715316 0.26396516 -0.04592444 0.28132364
0000f0 4f 8e 78 bd d7 62 f8 3d 38 92 b7 bd 8c 4c d2 bc
       -0.06068259 0.12128227 -0.08963436 -0.025671266

encoder.conv1.lin_r.weight f4 [64, 7]
000000 ad 7c a7 3d d6 d1 b7 bd 4b de 18 be 56 9d 18 be
       0.08178077 -0.0897557 -0.14928548 -0.14903769
000010 2b 06 b9 3e 0f 5b e4 3e f8 90 ed bd 07 03 b6 3e
       0.36137518 0.44600722 -0.11599916 0.35549185
000020 87 51 9e 3e ca 7b b0 3c 83 9a 84 be 80 c9 33 bd
       0.30921575 0.021543402 -0.25899133 -0.043893337
000030 3c 66 b7 3c 94 1c 02 be 86 cb f0 3e 1a 9e fe bd
       0.022387616 -0.12706214 0.47030276 -0.12432499
000040 93 fb 96 be d6 77 84 be 97 27 94 be 9f 12 dc 3e
       -0.2948881 -0.25872678 -0.28936455 0.42982957
000050 29 da 71 be a9 8c f4 bd f4 d9 0e 3e 48 3f 8f 3e
       -0.23618378 -0.11940891 0.1395033 0.27977967
000060 89 cc a9 be b6 fc 24 3e d4 f9 13 be 05 3d 74 be
       -0.3316386 0.16112027 -0.1445077 -0.23851402
000070 26 5e 05 be d7 4a b0 3e 32 ad 23 be 1c e1 d7 bd
       -0.13024196 0.34432098 -0.15984038 -0.10540983
000080 39 06 8b 3e 54 34 b8 be 76 f1 5f be ce bc 94 3e
       0.27153185 -0.35977423 -0.21869454 0.29050297
000090 bb 1e 2f be 21 99 ca be 84 53 c3 bd fd 4a b7 be
       -0.17101566 -0.39569953 -0.09537414 -0.357994
0000a0 bc 19 55 be 41 a3 36 be 9b 62 d1 bd 8f aa 10 3e
       -0.20810598 -0.17835714 -0.102238856 0.14127563
0000b0 90 95 8e bd 8f 04 47 be 72 af 31 be 8d 00 33 3e
       -0.069621205 -0.19435333 -0.17352083 0.17480679
0000c0 41 73 26 be e3 63 9c bd ee 82 b8 3e 9e 61 bd be
       -0.16254903 -0.076362394 0.3603739 -0.36988539
0000d0 d8 f4 30 3d 6e 54 74 3e 9f bd 68 3e 9e 51 60 be
       0.04320225 0.23860332 0.22728585 -0.21906134
0000e0 20 1e 21 3e c9 ca b8 3d 90 fb b1 be 72 3a 25 3e
       0.15734148 0.09023053 -0.3476224 0.16135576
0000f0 c6 8d 66 3e e8 90 ae be d8 db d9 3d 28 36 2e bb
       0.2251502 -0.3409493 0.10637635 -0.0026582573
000100 33 a5 d5 3e 07 57 d6 3e b0 2a aa 3c 21 23 ac 3e
       0.417276 0.41863272 0.020772308 0.3362055
000110 2e 00 58 3d 29 d8 aa 3e 35 d6 a2 be 15 58 f2 bd
       0.052734546 0.33368042 -0.31804052 -0.118332066
000120 06 8d ee 3e 2b fd 7a be db 75 b8 3e ba 0f 0b be
       0.46591967 -0.24510638 0.36027417 -0.13580218
000130 f4 09 8b be 1c a1 29 be 90 a1 21 be 0a 54 92 be
       -0.2715603 -0.16565365 -0.15784287 -0.28579742
000140 8a dd 34 3e 80 37 d6 3b bc 55 b2 3c d6 92 7a 3e
       0.17662635 0.006537378 0.021769397 0.24470076
000150 ab 5a 16 be f2 d5 f9 bd 9c ad f8 3d c8 bd 15 bd
       -0.14683025 -0.1219901 0.12142488 -0.036557943
000160 db 95 92 3e b4 05 9d bd 4a d4 ba be 25 19 ff bd
       0.28629956 -0.076671034 -0.3649009 -0.12455968
000170 47 03 a0 3e 85 10 31 3d a4 4d aa be ba 16 7f be
       0.312525 0.043228645 -0.3326236 -0.24911013
000180 d2 8a d9 3e ec 4c 81 3d f6 ef 17 bd 95 b3 a6 3e
       0.42488724 0.063135 -0.03709408 0.32558885
000190 44 a2 53 3d 00 dc 66 bc 80 59 66 bb 81 01 59 bd
       0.05166842 -0.014090538 -0.003514856 -0.05297995
0001a0 6b 96 bf be 30 16 d9 3d 5f ac 19 be 76 70 ed bc
       -0.37419447 0.10599935 -0.1500716 -0.02898429
0001b0 7c b7 9e 3d d1 69 33 be e1 92 ea 3e a2 64 3f 3e
       0.077498406 -0.17520835 0.45815185 0.18690732
0001c0 94 21 1b 3e d7 7a 97 3e 59 45 82 be 74 34 9f bd
       0.15149528 0.29585907 -0.25443533 -0.077736765
0001d0 d5 ea 91 be 75 3b b1 3e 58 a2 95 be f8 85 6d be
       -0.28499475 0.34615675 -0.2922542 -0.23195636
0001e0 d5 2c 10 3e 12 cc 8c be bd 52 37 be 23 8d 95 3e
       0.14079602 -0.27499443 -0.17902656 0.2920924
0001f0 f1 99 a4 3e 26 b4 1b 3e 2d a0 9f 3e b0 8c e4 be
       0.32148698 0.1520544 0.31176892 -0.44638586
000200 5f f6 ab be 36 e0 67 3e a1 dd a8 3e d9 65 b5 3d
       -0.33586404 0.22644123 0.3298159 0.088573165
000210 c3 c0 ad be 4c 03 b5 3e b2 05 e8 3e 0d 39 2e be
       -0.33936128 0.35354078 0.45316845 -0.1701395
000220 31 54 39 be 67 3c bf be 5c a8 a2 3e 62 05 72 3e
       -0.18098523 -0.3735077 0.31769073 0.23634866
000230 22 82 8f 3e fb bb a1 bc 6a 57 45 be 56 32 29 3e
       0.2802897 -0.019742956 -0.19271627 0.16523108
000240 9c d6 df 3d 75 b0 6a 3e a3 c1 71 be e6 37 ce 3d
       0.10929605 0.22918876 -0.23609023 0.100692555
000250 56 eb bc be 8c 84 76 bd 40 a4 6d bd 50 c0 1d 3d
       -0.36898297 -0.060185 -0.05801797 0.03851348
000260 90 12 9c 3e bc 20 b0 3d 1b d7 b4 bc eb 4e 87 3e
       0.30482912 0.085999936 -0.022075227 0.26427397
000270 c5 b9 88 bd 00 f8 f1 bd 58 3b a8 3d d9 80 da 3e
       -0.06676058 -0.1181488 0.08214444 0.42676428
000280 fa 25 7f 3e 06 da 68 3e 10 c6 ce 3e aa c7 64 3e
       0.2491683 0.2273942 0.40385485 0.22341791
000290 30 57 e8 bd ab 23 99 3e 7b a9 32 3d 04 73 0f be
       -0.11344755 0.29910025 0.04361866 -0.14008719
0002a0 28 7a 3e 3e aa 3a 8f 3e f1 12 1a 3e f8 ae 8a be
       0.18601286 0.27974445 0.15046288 -0.27086616
0002b0 f2 58 66 3e bf c1 94 be 69 b0 ac 3e f7 1c a5 3e
       0.22494867 -0.29054067 0.3372834 0.3224866
0002c0 25 a2 c8 be 39 89 05 3f 60 a4 ff bd a0 9a 80 3c
       -0.39186206 0.5216251 -0.12482524 0.015698731
0002d0 33 c4 d5 3e 50 67 ba be e3 4d b3 be c1 3b c8 be
       0.4175125 -0.36406946 -0.3502036 -0.3910809
0002e0 89 4b ce 3e 52 dc 60 be 2a 1b 40 3e 09 25 c6 3e
       0.40292004 -0.21959046 0.18760362 0.3870013
0002f0 52 26 11 3e 81 6c 80 be aa 9e 81 be ad d4 c0 be
       0.14174774 -0.25082782 -0.25316364 -0.3766226
000300 97 b8 90 be 68 e8 9b bd f3 69 73 3e 34 d6 fe 3d
       -0.2826583 -0.07612687 0.23770885 0.124432
000310 2d 0c f1 bd 40 b0 e4 bc 24 a0 3a be 73 74 ad 3e
       -0.117699005 -0.027916074 -0.18225151 0.33877906
000320 b5 24 09 be e3 35 fb 3e 94 68 b8 be 9b c1 79 3e
       -0.13392909 0.4906455 -0.36017287 0.24390261
000330 5c 11 97 3e 3f 66 e6 3e e1 4e b7 3e 10 c8 74 bd
       0.29505432 0.44999883 0.35802367 -0.059761107
000340 1d 28 13 3e 80 0b df 3c 01 54 71 3e 15 a6 d0 be
       0.14370771 0.027227163 0.23567201 -0.4075171
000350 bd 73 a0 3e 68 b3 82 be 06 b9 14 3e 2d 27 61 3e
       0.313383 -0.255275 0.14523706 0.219876
000360 78 19 20 3d 1a a2 3b be da b2 33 be 5e 9f 83 bd
       0.03908679 -0.18323556 -0.17548695 -0.06426881
000370 a5 31 6c be 3b da 71 be ab 1d e2 3e 80 c9 ea 3b
       -0.23065813 -0.23618405 0.4416326 0.007165134
000380 2d c9 05 bf 81 ce 06 bf 59 92 b3 be 25 65 6d be
       -0.52260095 -0.5265885 -0.35072592 -0.23183115
000390 98 58 0f be 5b 57 bc 3e cb 99 2c be fb 85 85 3e
       -0.1399864 0.36785397 -0.16855542 0.2607878
0003a0 d1 b5 35 3c db 72 25 3e 56 58 8a be 28 84 6e 3d
       0.011090712 0.16157095 -0.2702052 0.058231503
0003b0 2a c8 36 bd 22 61 08 be 1f 0d ea bb 78 ad c3 be
       -0.044624485 -0.13318303 -0.0071426774 -0.38218284
0003c0 4d 5e a9 be 40 28 1a 3d d0 2d cf bd cb 8a d3 be
       -0.33079758 0.03763604 -0.1011616 -0.41316828
0003d0 11 90 84 3e 23 2d 31 3e 55 3e 97 3e d8 f0 1e 3f
       0.25891164 0.17302375 0.29539743 0.6208625
0003e0 a1 eb a5 3e 4a 35 8e be e6 d9 73 3e e8 50 37 be
       0.32406333 -0.2777503 0.2381359 -0.17901957
0003f0 76 bd 8d 3e 17 a9 0b be 2f 35 ba be c3 aa 7a be
       0.2768361 -0.13638721 -0.363687 -0.24479203

encoder.conv2.lin_l.weight f4 [64, 64]
000000 1c c1 88 3d 6b 45 8b 3e 55 3a 39 3e 34 2a 08 3e
       0.06677458 0.272014 0.18088658 0.13297349
000010 d3 30 6c 3e ac 40 42 3e a6 70 82 3d 13 f1 c2 3d
       0.230655 0.18969983 0.06369142 0.095186375
000020 a9 17 12 3e 0d 50 82 3e 15 16 64 3e 98 63 79 3e
       0.14266838 0.254517 0.22274049 0.24354398
000030 da 96 4a 3d e1 c5 fa 3d 7b c7 4b 3d 4a 95 aa 3d
       0.04946027 0.12244774 0.049750786 0.08329256
000040 b4 cb 4e 3e 01 1f 92 3e 53 ef 6b 3e 96 08 73 3d
       0.20194894 0.2853928 0.23040514 0.05933436
000050 ab be 86 3e 76 aa d3 3d 3c e6 94 3d 82 75 74 3e
       0.26317343 0.10335247 0.07270476 0.2387295
000060 bf 4b cc 3d a7 c6 40 3e 3e 07 78 3e ba b6 4d 3e
       0.09975385 0.1882578 0.24221513 0.20089236
000070 9c 4b 58 3d 93 0f 2a 3e fd 12 e3 3d b8 26 4a 3e
       0.05280648 0.16607504 0.11087606 0.19741333
000080 b5 aa 7e 3d a2 e1 7e 3d 7b 8b 54 3e 13 8d ff 3d
       0.062174518 0.0622269 0.20756333 0.1247808
000090 e4 51 89 3d 4c 45 2c 3e 9e 6f 84 3e a2 e8 5b 3e
       0.067050725 0.1682331 0.25866407 0.21475461
0000a0 17 cf 7c 3e b4 30 43 3d 6f eb 12 3e 1f f6 80 3e
       0.24688374 0.04765387 0.14347623 0.25187775
0000b0 7a 0d 06 3e e7 1e 7e 3d b0 0f 4a 3e 66 ca b1 3d
       0.13091078 0.06204119 0.19732547 0.086811826
0000c0 5e 21 23 3e df f4 7b 3e 6d e3 e0 3d 43 53 a0 3d
       0.15930697 0.2460513 0.10980878 0.07828381
0000d0 30 97 d8 3d 65 f7 f3 3d 89 f3 84 3e a1 8a 98 3d
       0.10575712 0.11912421 0.25967053 0.07448316
0000e0 70 c2 93 3d d1 1c 86 3e 02 80 58 3e 63 0a 84 3e
       0.072148204 0.2619386 0.21142581 0.25789174
0000f0 c9 a1 42 3d 79 e4 80 3e 94 84 2f 3e 81 89 36 3d
       0.04751757 0.2517431 0.17140418 0.044564728
000100 27 7f 45 bd 29 aa c3 bd d7 4b f6 bd 18 4a 11 be
       -0.048216965 -0.0955394 -0.12026184 -0.14188421
000110 1e 61 d7 bd 26 04 1e be c3 37 5e be 2d ad ad bc
       -0.105165705 -0.1543127 -0.21700959 -0.02120074
000120 f8 c7 4f be e1 25 cf bd 27 81 05 be 1a 13 71 bc
       -0.20291126 -0.10114647 -0.13037549 -0.014714027
000130 15 6b 4e bd 7b ec c3 bd d2 b9 3a be 2e d8 1b bd
       -0.05039509 -0.095665894 -0.18234947 -0.038047962
000140 7d 26 b2 bc fa 94 a1 bd 29 f3 07 be da 12 87 bd
       -0.021746868 -0.07889743 -0.13276352 -0.065953925
000150 83 73 59 be a7 21 a5 bc 70 94 e2 bd c7 20 a8 bc
       -0.2123547 -0.020157648 -0.110634685 -0.020523442
000160 5c 0a 31 be 50 d8 24 be 61 30 17 bc b9 5f 6a be
       -0.17289108 -0.16098142 -0.009227843 -0.22888078
000170 0a 69 6b be b1 11 a9 bc 65 51 ab bd fe e3 81 be
       -0.22989288 -0.020638319 -0.08365134 -0.25369257
000180 4b 44 11 be ee dc c9 bc 7a 72 8c bc 6f 64 25 be
       -0.14186208 -0.02464148 -0.01714443 -0.16151594
000190 6e 7c 34 bb 3a 55 f4 bd 74 50 2a be c8 a9 db bd
       -0.0027539986 -0.11930318 -0.16632253 -0.107257426
0001a0 ce 33 5d be 99 72 1e be 5e 26 b6 bc e8 a9 3a be
       -0.21601793 -0.15473403 -0.022235092 -0.18228877
0001b0 ac 36 12 be 9f c0 90 be 34 68 ff bd e3 9e 25 be
       -0.14278668 -0.28271958 -0.12471047 -0.16173892
0001c0 11 c5 3b bd 79 e1 87 bd 24 b4 61 be 41 a6 6c be
       -0.045842234 -0.06634802 -0.22041374 -0.23110296
0001d0 ce bc 80 bd 99 11 07 bd 89 52 0c bd a6 5c 87 bd
       -0.06286012 -0.032975767 -0.0342584 -0.06609468
0001e0 a9 5b 64 be 06 ea 71 be 48 54 59 be f3 a1 83 3c
       -0.2230059 -0.23624429 -0.21223557 0.016068434
0001f0 ca 02 af bc 11 f2 7a be e0 79 46 be 17 52 a6 bd
       -0.021363635 -0.24506404 -0.19382429 -0.08121126
000200 bc b0 e5 3d a6 46 ce 3d 38 25 8f 3c 00 51 41 bb
       0.1121535 0.10072069 0.017473802 -0.0029497743
000210 fa d7 f6 bd 42 40 a8 bd c0 77 62 bc b0 80 fd 3d
       -0.12052913 -0.08215381 -0.013822496 0.12378061
000220 44 5e d0 bd a0 5f bb bb 56 f1 b3 bd b0 80 6f 3c
       -0.1017423 -0.0057181865 -0.087862656 0.014618084
000230 78 47 57 bd 2c 7b a8 bd 00 25 4f bc c4 cb a5 3d
       -0.052558392 -0.08226618 -0.012643099 0.08095506
000240 8a ed e9 3d f0 21 62 bc 16 24 95 3d 4e 9f c5 bd
       0.1142226 -0.013802037 0.072822735 -0.096495256
000250 1e f2 b1 bd 50 a0 b6 3c 62 2e d6 bd 56 5c a3 3d
       -0.08688758 0.02229324 -0.104580656 0.07976596
000260 6c 0c d3 3d 34 04 28 3d b2 54 af bd 0c bf 08 bd
       0.10305104 0.041019633 -0.08561076 -0.03338532
000270 de 51 ad 3d 70 0b c8 bd e0 dc c4 3b b8 4e 36 bd
       0.084628806 -0.097678065 0.0060077757 -0.044508666
000280 8c 20 e5 bd 02 12 dd bd 4c 38 6c 3d cc 21 58 3d
       -0.111878484 -0.1079445 0.057670876 0.052766606
000290 9e c8 f7 bd 44 97 95 bd c8 b9 82 bc 30 0a 21 3d
       -0.120988116 -0.07304242 -0.015957728 0.039316356
0002a0 f8 51 3c bd 22 b4 c2 3d 90 76 7d bc 00 83 bc 3a
       -0.04597661 0.09507014 -0.015470162 0.0014382303
0002b0 d4 a0 17 bd ac 2a 80 3d 7a df c4 bd 16 3d fe bd
       -0.037018612 0.06258139 -0.09612937 -0.12413995
0002c0 e8 13 a7 bd a0 7c 2b bc 02 fe ba 3d 60 a0 ba 3d
       -0.08158094 -0.010466725 0.091304794 0.0911262
0002d0 50 a9 08 bc ac e9 1c 3d d8 88 5b 3d 04 f5 d1 bd
       -0.0083411485 0.038308784 0.0535973 -0.10251811
0002e0 c6 f3 cd bd bc 08 59 bd 40 e9 eb 3c d0 11 94 3c
       -0.10056262 -0.052986845 0.028797746 0.0180749
0002f0 0e 59 c7 3d 8c 6c e6 3d 14 da 3b 3d 00 cc fb 3a
       0.09733783 0.112511724 0.045862272 0.0019210577
000300 eb 23 65 bd 91 26 0d be 5c ca 32 3c 58 65 7d be
       -0.055942457 -0.13784243 0.010912504 -0.24745691
000310 7f 80 90 bd 3a f1 ec bd 94 9b 63 bc 52 0f aa bd
       -0.07055759 -0.11569448 -0.013892073 -0.08303703
000320 4f c0 f0 bd da 39 6d be 9c 63 be bd 21 48 bb bd
       -0.1175543 -0.231666 -0.09296343 -0.09144617
000330 bd ec e8 bc 85 5c 7d bb b3 8e 49 be 5a c9 56 be
       -0.028433198 -0.0038659882 -0.19683342 -0.20975247
000340 4b 94 88 bd a3 51 17 be 68 5b 65 be 0e 9e ca bd
       -0.0666891 -0.14777236 -0.2239815 -0.09893428
000350 17 b2 28 bd 4b b6 2c be 35 3d 5c be b4 cd 55 be
       -0.041185465 -0.16866414 -0.21507724 -0.20879251
000360 b5 0e 75 3c 5c 40 1c bd 35 df 7d be 25 d9 49 be
       0.01495712 -0.038147315 -0.24792178 -0.1971174
000370 4a 6c 41 be 42 02 b7 bc 9c 67 05 be bf 66 29 be
       -0.18888965 -0.022339944 -0.13027805 -0.16543101
000380 0d 63 a4 bd a1 24 12 be 8b 13 28 be c4 da 34 be
       -0.08026705 -0.14271785 -0.16413705 -0.17661577
000390 52 d5 85 bc 02 6b 39 bd 95 61 68 be 7c 7c f9 bd
       -0.01633707 -0.045268066 -0.22693475 -0.12181947
0003a0 38 2c 0e be 0d 18 64 bd f7 64 5f be c5 61 65 be
       -0.13884056 -0.055687 -0.21815859 -0.22400577
0003b0 be e4 a1 bd 10 02 1e be b8 d9 b8 bd 4a ac 5c bd
       -0.07904957 -0.15430474 -0.090259016 -0.053875245
0003c0 c2 f4 1e be 15 73 df 3b cf cb 22 be d0 c2 a7 bd
       -0.15523055 0.006819139 -0.1589806 -0.081914544
0003d0 e9 56 62 be a0 ea 5a be 6a 36 63 be 4f 1d 10 be
       -0.22103466 -0.21378565 -0.22188726 -0.1407368
0003e0 e0 46 57 be 33 e5 4d be d7 cb 74 bc 9b bf 01 3b
       -0.2102313 -0.20106964 -0.014941177 0.0019798044
0003f0 02 48 8b bd 6e b1 3c be 51 3a b6 bd ba 66 30 be
       -0.06800844 -0.18427059 -0.08897842 -0.17226687

encoder.conv2.lin_l.bias f4 [64]
000000 95 1d 92 3e e8 31 91 3e 02 f0 da bd 89 e2 66 3e
       0.28538194 0.28358388 -0.10690309 0.22547354
000010 38 16 19 be f0 c6 26 3e e9 c3 32 3c 25 de b7 bc
       -0.14949882 0.16286826 0.010910966 -0.022444794
000020 48 3e 95 3e 20 10 3d 3e de e1 6e 3e 48 83 f0 3d
       0.2914908 0.18463182 0.23328349 0.1174379
000030 4e 98 2f 3e 84 c0 2d be 6f 56 a0 3e 9b a2 13 3e
       0.17147943 -0.1696797 0.31315944 0.14417498
000040 c3 7b e9 3d 9a e8 59 3e 72 28 8e 3e cc fb cb bd
       0.11400559 0.21280137 0.27765232 -0.09960136
000050 0e d2 1f 3e d1 8f 4a bd 63 e2 03 be 4d d6 b4 3e
       0.15607473 -0.04945356 -0.12879328 0.3531975
000060 6f 4d 22 3e 6f a8 74 3e 09 b7 d3 3d dd c4 b8 bd
       0.15849851 0.23892377 0.103376456 -0.09021924
000070 91 2c 07 be 61 57 95 3e 7c 92 21 3e 7d cf 01 bc
       -0.13200594 0.29168227 0.15778536 -0.007923004
000080 14 d2 8a 3e 3e 41 40 3e 4d c6 3a 3e 41 a8 23 3c
       0.27113402 0.18774888 0.18239708 0.009988845
000090 b4 1d a1 3e 1d 40 b3 3c 34 f7 1f 3e 6f d9 f1 bc
       0.31467974 0.021881158 0.15621644 -0.029522626
0000a0 55 1f a5 3e ba 9a be bd da 85 1d be ba 4a 5f 3e
       0.32250467 -0.093068555 -0.15383092 0.2180585
0000b0 b3 53 f5 bd 32 5b 19 3e c5 17 20 3e e7 4b 5e 3d
       -0.11978855 0.14976195 0.15634067 0.054271605
0000c0 b2 df 90 bd fa 8d 8f 3e c8 30 1d be 66 ef c4 bd
       -0.070739165 0.28038007 -0.1535064 -0.09615974
0000d0 ba a1 fb 3c 7e 9b 60 3e 38 40 63 bd f1 27 a7 bd
       0.030716766 0.21934316 -0.055481166 -0.08161915
0000e0 46 48 0a be 68 f9 02 3e 3b 36 70 3e 9f 09 9a be
       -0.13504133 0.12790453 0.23458187 -0.30085465
0000f0 39 dd 5a 3e 8b 25 fd bc 53 cb 25 3e 4a 14 41 3e
       0.21373452 -0.030901691 0.16190843 0.18855396

encoder.conv2.lin_r.weight f4 [64, 64]
000000 9b 5b 81 3e de 3a 8c 3e 05 05 fa 3d 33 a4 7f 3e
       0.25265202 0.27388662 0.12207989 0.24964981
000010 43 59 c5 3e c8 68 a0 3e 34 7a a4 3e 9e 8f 7f 3e
       0.38544664 0.31329942 0.32124484 0.2495713
000020 1f 7e 2b 3e 13 b7 72 3e 75 eb f8 3e 7b 6a 89 3e
       0.1674733 0.2370265 0.4861714 0.2683905
000030 40 31 c9 3e ac 33 8c 3e 14 c3 f7 3e e8 50 9e 3e
       0.39295387 0.27383173 0.4839102 0.30921102
000040 05 37 b1 3e a4 36 97 3e 35 d7 50 3e 97 32 a3 3e
       0.3461229 0.29533875 0.20394595 0.31874534
000050 40 1e f7 3d c1 0f a8 3e a3 a0 21 3e db 38 a2 3e
       0.120663166 0.3282452 0.15783934 0.31684002
000060 32 82 18 3e ef 95 c4 3e 19 66 0c 3f ff 7e 83 3e
       0.14893416 0.3839564 0.5484329 0.25682828
000070 a5 2d 74 3e 68 6e 1c 3e 72 fc 92 3e 27 b4 8c 3e
       0.23845537 0.15276492 0.28708225 0.27481195
000080 45 c6 c5 3e d8 6b 93 3e 28 04 c1 3e 05 52 91 3e
       0.3862783 0.28793216 0.37698483 0.28382888
000090 e5 14 03 3e 11 b3 ff 3e 06 31 65 3e ef 98 07 3f
       0.1280094 0.49941304 0.22381982 0.52967733
0000a0 6c fc 0a 3e 6f 50 42 3e 2f 1f b5 3e c3 27 01 3f
       0.13572854 0.18975995 0.35375354 0.50451297
0000b0 f7 67 6a 3e 35 fb b5 3e 05 2b ea 3e fc 9c 40 3e
       0.22891222 0.35543218 0.45735946 0.18809885
0000c0 51 24 b3 3e 6b 9a 17 3e 7d 9b a4 3e cb 4c 08 3e
       0.34988645 0.14805 0.32149878 0.13310544
0000d0 d2 2e de 3e 37 2a dd 3e b3 44 92 3e cc a6 73 3e
       0.43395096 0.4319627 0.28568038 0.23794097
0000e0 85 2d b4 3e 35 76 24 3e 23 75 1b 3e b0 4c 9a 3e
       0.3519098 0.16060717 0.15181403 0.30136633
0000f0 86 23 65 3e b1 fe 98 3e e3 f2 2c 3e e8 79 88 3e
       0.22376832 0.29881814 0.16889529 0.26655507
000100 e6 c6 68 3e 4d 4f d7 3d 57 d8 35 3e bd 45 ab 3e
       0.22732124 0.10513172 0.17758308 0.33451644
000110 5a b7 03 be b4 5c d0 3c 86 57 6a 3e b0 ac a2 3d
       -0.12862912 0.02543483 0.2288495 0.07943094
000120 40 3e f9 bc 02 bd 2a 3e 68 cd 70 3e 31 9d 8f 3d
       -0.03042519 0.16673663 0.23515856 0.07012404
000130 a4 12 b5 3e fd 6f 80 3e ac 05 e9 bc d3 2c 68 3e
       0.35365784 0.2508544 -0.028445087 0.22673349
000140 cb 27 5d 3d 41 6b 93 bd 52 58 24 3e c8 b4 8e be
       0.053993028 -0.071981914 0.16049317 -0.278723
000150 0e 91 84 3e 6a c9 f0 3d 9a 84 04 3e 1b dc 64 3e
       0.25891918 0.11757167 0.12941208 0.22349589
000160 cf a3 1a bd 9b eb 36 3e 91 c7 0f 3d b5 d9 80 3e
       -0.037753876 0.17863314 0.03510243 0.25166097
000170 19 8a 19 3e 03 ed 5c 3e 1b 4e a0 3c 1a 78 18 3e
       0.14994086 0.21574788 0.019568494 0.14889565
000180 0b 36 56 3e fb 2e 43 3e db 48 1b 3e 62 1b bb be
       0.20919053 0.1906089 0.15164511 -0.3654433
000190 98 47 84 bd 81 58 5b be f3 80 da 3d ae 74 38 3e
       -0.06458968 -0.2142048 0.10669126 0.1801326
0001a0 63 27 3b 3e e4 cd 30 3d 52 2f 63 3e bb 6f 54 3e
       0.18276744 0.043165103 0.2218602 0.20745747
0001b0 cd 2c c6 3d 6b 61 54 be 40 19 ba bd 6d f6 52 3e
       0.09676514 -0.20740287 -0.09086847 0.20601816
0001c0 da 91 c5 3d 11 d0 91 3d eb 01 a6 bc 83 f0 ce 3d
       0.096469596 0.07119764 -0.020264586 0.10104468
0001d0 53 1a 59 3d d9 b4 5c bd d8 c7 c2 3e 78 43 16 3e
       0.05300362 -0.053883407 0.38043094 0.14674175
0001e0 f4 9e 4f bb f0 57 38 3e 6c 09 83 3c b6 f5 86 3d
       -0.0031680437 0.18002295 0.015995704 0.065898344
0001f0 d0 f8 db 3d a1 fa 3d 3e e9 72 92 3d f9 1d b6 3d
       0.107408166 0.18552639 0.071508236 0.088924356
000200 03 45 e3 bd 7d 2d bb bd 44 da 0a bd 04 ae 37 3d
       -0.11097147 -0.091395356 -0.03389956 0.04484369
000210 31 48 54 bd c3 67 5f bc 34 a4 20 3d 05 91 3e bc
       -0.05182666 -0.013635579 0.039219096 -0.011631255
000220 c2 65 c8 3d 35 46 73 bc 48 c7 46 bd 47 7b 5f 3c
       0.09785034 -0.014848282 -0.048529893 0.013640231
000230 59 46 03 3b 5a 9f ad 3d eb eb a2 3d ac c6 90 bd
       0.0020030944 0.084776595 0.07955154 -0.07069144
000240 20 91 3a 3d 01 37 1b be a8 a4 af 3d 74 ef 7d bd
       0.04554856 -0.15157701 0.085763276 -0.06199594
000250 b3 47 02 be df ee e1 bd 87 14 01 be 2c 44 53 3c
       -0.12722664 -0.11031889 -0.12605487 0.012894671
000260 70 4a f4 bd c4 fd 00 be 71 97 a8 3c 93 2c 37 3b
       -0.1192826 -0.12596804 0.020580025 0.0027950152
000270 ae 1d 37 3c a3 cd fc 3c 02 24 ee bd 2a 5b 15 bd
       0.01117651 0.030859774 -0.11627962 -0.036463894
000280 3e ba cc bd b8 f0 04 bc 0d 4f c9 3d de fd cb 3d
       -0.099964604 -0.008114032 0.09829531 0.09960531
000290 ef fc 88 bc 52 c3 1c bd b1 78 08 bd 8f e8 f4 bd
       -0.01672217 -0.03827221 -0.033318225 -0.119584195
0002a0 15 5b 31 3c 25 50 d0 bd cd 47 e8 3c 55 cf ec bc
       0.010824938 -0.10171536 0.02835455 -0.028907457
0002b0 36 ce c5 bd f4 44 c4 bd 9e c6 4b 3c b2 4a f3 bd
       -0.09658472 -0.09583464 0.012437491 -0.118794814
0002c0 aa 4b 43 bd 3c 56 80 bd 9e c6 9a 3c ba 3f be bb
       -0.04767958 -0.06266448 0.018893536 -0.0058059366
0002d0 d6 32 81 3d 49 f8 02 be 74 f0 39 3d 53 36 65 bd
       0.06308524 -0.12790026 0.04539533 -0.05596001
0002e0 fb fc 43 bd 53 c4 f1 bd bf 13 ee 3d 0e fa dc bd
       -0.047848683 -0.11805024 0.1162486 -0.10789882
0002f0 3d 46 d8 bd fe d3 a4 bd d5 14 56 3d b9 43 29 b9
       -0.10560272 -0.08048247 0.05226596 -0.00016142325
000300 bb 57 13 3e 17 69 6e 3d d9 e6 6c 3e 5a c2 d5 3e
       0.14388935 0.05820569 0.23134936 0.4174984
000310 a3 f0 c7 bd 7d 06 23 3e 18 47 9e 3e 4f 78 75 bc
       -0.09762695 0.15920444 0.30913615 -0.014982297
000320 48 a5 a3 bd 74 11 04 3e 51 7f bd 3d 59 d5 fa 3d
       -0.07990509 0.12897283 0.09252799 0.12247724
000330 80 61 85 3e 6c 10 29 3e 2b dd cc 3d 9d 1f 4d 3e
       0.2605095 0.1651017 0.10003122 0.20031591
000340 87 22 92 3e a1 91 9b bd 74 f2 3a 3e 57 a0 c3 be
       0.28541967 -0.07596136 0.18256551 -0.38208267
000350 53 a0 75 3e 9c 8b 7d 3e 2a 4f 0b 3e 27 6f 87 3e
       0.2398694 0.24760288 0.13604417 0.2645199
000360 23 4f 63 3a 9d f5 41 3e d1 55 bc 3d 51 1e a5 3d
       0.0008671155 0.1894135 0.09196056 0.08062423
000370 7f 86 ce 3d 58 e4 99 3d de 3a 80 3d 95 b9 79 3e
       0.10084247 0.07514256 0.06261228 0.243872
000380 cf 20 b2 3d 91 72 23 3e c2 e6 00 3e 44 54 b6 be
       0.08697664 0.15961672 0.12588027 -0.35611165
000390 64 3a 12 3d d1 f6 8f be 16 c0 dc 3d 77 84 0f 3e
       0.035700217 -0.28117993 0.10778825 0.14015375
0003a0 07 c6 95 3e 07 af 5f bd 6a fd 86 3e c1 b2 85 3e
       0.29252645 -0.05461028 0.26365215 0.2611294
0003b0 d5 be 47 3c 6d cf c2 be 82 45 b8 bd 86 db df 3d
       0.012191494 -0.38048878 -0.089976326 0.10930543
0003c0 87 28 49 3e 05 f1 4d 3e 66 10 eb 3b d9 d5 a9 3e
       0.19644366 0.20111473 0.0071735857 0.33170965
0003d0 79 a3 3d 3d 06 5d af bd a6 1a 63 3e f7 4d 47 3e
       0.046298478 -0.08562665 0.22178134 0.19463335
0003e0 66 ca a3 3d 3d b1 82 3d f9 f6 c3 3d 4e cf 03 3e
       0.07997589 0.06381462 0.09568591 0.12872049
0003f0 a4 04 0c bd 54 91 a5 3d de 8e c4 3c 9b ae c8 3d
       -0.034184113 0.0808436 0.023993906 0.09798928

decoder.mlp.0.weight f4 [128, 64]
000000 b8 6e 1c be c0 29 50 3e 3c cc 01 bb 4d ea 31 3e
       -0.15276611 0.20328426 -0.001980557 0.17374535
000010 d4 35 0a 3e c0 fd 72 3e 52 15 50 3d f2 04 d6 bc
       0.13497096 0.2372961 0.050801583 -0.026125405
000020 4b 3c 7e 3e a3 c7 c1 3d 5a 8d 07 3e 00 23 8d 3e
       0.24827687 0.09461906 0.13237515 0.27565765
000030 d5 f6 23 3e 54 fa 18 3d be bd 00 3e 3c ac 4b 3d
       0.16012128 0.037348107 0.12572381 0.049724802
000040 ee 4f c3 bc 68 cb 24 3e 50 fe 0d 3e 77 a7 1e bd
       -0.023841824 0.16093218 0.13866544 -0.038733926
000050 04 c1 e1 3d b6 3e f7 ba 64 a4 02 be c5 6d 15 3e
       0.11023143 -0.0018863294 -0.12758023 0.14592655
000060 c4 7d 27 3e 55 6e 7b 3e 29 7b a1 3d 56 73 f3 bc
       0.1635657 0.24553807 0.07884819 -0.029718082
000070 b0 5d 43 3d 38 86 49 3d 89 f7 97 3b e5 f7 50 3d
       0.04769677 0.049200267 0.004637663 0.05101766
000080 c3 93 24 3e a6 6e 35 3e bd c8 16 3e 5b 70 42 bd
       0.16071992 0.1771799 0.14725013 -0.04747043
000090 18 df 09 3d 68 a7 57 3e 93 c8 d1 3d aa 6d 71 be
       0.033660024 0.21059954 0.102433346 -0.2357699
0000a0 51 c5 5f 3e 76 75 03 bd 27 23 a9 bd 67 5d 4e be
       0.21852614 -0.03209444 -0.08258658 -0.20152818
0000b0 e2 c4 a4 3d c8 be 47 3e 2c 0b 8e 3d 44 5f 63 3e
       0.08045365 0.19506371 0.069357246 0.2220431
0000c0 f8 6b 61 3d 7a b4 8c 3d 9d d3 c3 3d 54 12 7c 3d
       0.055034608 0.06870361 0.095618464 0.061540917
0000d0 03 88 d7 bd df a5 16 3e 1e bd d1 bd 80 e9 f6 bc
       -0.10523989 0.14711712 -0.10241149 -0.030140638
0000e0 65 7e ec bc de 25 06 3e 6e 62 6c 3e 93 44 ff be
       -0.028868863 0.13100383 0.23084423 -0.49857005
0000f0 40 f5 7c 3e 98 5e ef bd c8 2e f6 bb a5 e1 90 3e
       0.2470293 -0.11687964 -0.007512901 0.28297153
000100 4b c1 48 be 66 da 7b 3e 00 c9 d7 bd 0f 9c 4e 3e
       -0.19604985 0.24595031 -0.105363846 0.20176719
000110 4a 78 fb 3d 85 f9 1e 3c 84 2d 40 3e 0c 4d 4b 3d
       0.12278803 0.009703045 0.18767363 0.049634025
000120 93 3c 65 3e 1b 2f 4c 3d d8 f2 94 3d 64 a1 28 3d
       0.22386388 0.04984961 0.07272881 0.04116954
000130 e8 13 1e 3e ed 8e ff 3b 81 ca 5e 3e 93 95 fa 3d
       0.15437281 0.0077990205 0.21756937 0.1223556
000140 38 e3 a2 3d 27 c6 39 3e 9f 32 22 3e 48 d3 a2 bd
       0.07953495 0.18141995 0.15839623 -0.07950455
000150 45 25 20 3e 5d 72 e2 3d 9e ee 7f 3d 5c f7 43 3e
       0.15639217 0.11056969 0.062483422 0.19137329
000160 d2 a2 75 3d 82 66 88 3e fe 23 73 3e bf 12 6d 3b
       0.05996973 0.26640707 0.23744199 0.0036174504
000170 5d 79 47 3e 11 56 67 3e 07 bf f4 3d fa 9a e5 3d
       0.1947989 0.22591425 0.11950498 0.112112
000180 d1 ef 4a bc f7 be a3 3c db 8a 94 3e 93 d9 14 bd
       -0.012386278 0.01998852 0.29012188 -0.036340307
000190 58 67 48 3e 71 cd 29 3e 37 75 9a 3d 71 b1 91 be
       0.19570673 0.16582276 0.07541888 -0.2845569
0001a0 87 a4 20 3e 23 e3 92 bd 0e e6 3c bd fe bc ae bd
       0.15687762 -0.07172229 -0.046117835 -0.08532141
0001b0 ca 79 1d 3d 49 f8 00 3e dc 32 8b 3d 49 c4 d3 3c
       0.038446225 0.12594713 0.0679681 0.025850432
0001c0 65 e1 74 3d 5e 8d 52 3d f4 7f 2a 3e 62 b7 80 bd
       0.059785265 0.05140435 0.16650373 -0.062849775
0001d0 12 28 4c 3e dd ba 26 3d c9 79 99 bd e4 cb 4d 3e
       0.1993716 0.04070555 -0.07493932 0.2009731
0001e0 8b d4 96 3a a3 36 17 3e 6e 4d 24 3e 7b 19 70 be
       0.0011507435 0.14766936 0.16045162 -0.2344722
0001f0 92 a5 2a 3e fd ec b5 3d a7 0f 27 3e f9 5e 29 3e
       0.16664723 0.088830926 0.16314565 0.16540135
000200 03 f5 4b be 1c f2 28 3e a7 0b aa bd 4c 36 b9 3d
       -0.19917683 0.16498607 -0.08303004 0.090435594
000210 d9 3f 94 bd d3 29 87 3e dc 94 4f 3e 2c 05 ce 3c
       -0.072387405 0.26399097 0.20271629 0.02514895
000220 0d 40 a2 3e 5b 2a 34 3e 15 79 0b 3e ee 49 97 3d
       0.31689492 0.17594282 0.13620408 0.07387148
000230 c7 a1 84 3e f4 4f ef bd de 1d 48 3e bf e8 3f 3e
       0.25904676 -0.11685172 0.19542643 0.1874113
000240 3f 20 16 3b f4 ea 73 3e 5d ca 89 3e 31 9e 2e 3d
       0.0022907404 0.23820096 0.26912203 0.04263133
000250 6f dd 56 3e c0 5d d3 3d 9a a9 8f bd a0 43 76 3e
       0.20982908 0.10320616 -0.07014771 0.24049234
000260 64 8b 15 3e cf 3a 6d 3e 38 40 a8 3d d9 c9 f8 3d
       0.14603955 0.23166965 0.08215374 0.121478744
000270 d1 2f 83 bc 48 10 27 3e c4 83 29 3e 7d 79 01 3e
       -0.016014012 0.16314805 0.16554171 0.12644
000280 ec 2a 1c 3e 9e 23 ba 3d ed 00 4f 3e c1 ba c3 bd
       0.15250748 0.09088825 0.20215197 -0.09557105
000290 3e 67 be 3d ff 14 e9 3d e6 50 9b 3e db 46 bd be
       0.09297036 0.11380958 0.30335158 -0.3696812
0002a0 c8 4a 47 3d 88 07 4a 3d cb 69 27 3e 47 39 3c be
       0.0486553 0.04932359 0.1634895 -0.18381225
0002b0 0d c3 b7 3d 04 3a 46 3e 38 f7 32 3e 7e 57 7f 3d
       0.0897275 0.19358069 0.17477119 0.0623393
0002c0 7a 3e d8 bd c3 f4 6d 3e 44 9e 94 3c cc 1f 05 3d
       -0.105587915 0.232379 0.018141873 0.032501027
0002d0 f6 3d e7 3d ad d7 83 3e 6a 23 e5 bd 8a d8 4c bb
       0.11291115 0.25750485 -0.11188395 -0.0031256997
0002e0 57 e9 30 3e 7b 7d 90 3d bf 3d 57 3e bd d8 aa be
       0.17276512 0.070551835 0.21019648 -0.33368483
0002f0 5a e9 18 3e c7 ad b9 bc 96 ab b3 3c 61 4d 53 3e
       0.14932767 -0.022665871 0.021932404 0.20634986
000300 41 b4 f4 bd 37 98 89 ba 2c b4 e9 3d b1 93 1d bd
       -0.11948443 -0.0010497634 0.11411318 -0.038470928
000310 21 41 a9 3d 69 7b 95 bd 5b e8 1c 3e e1 d2 ba 3c
       0.082643755 -0.07298929 0.15323012 0.022805633
000320 ac 68 e4 bc 5e 5b 28 be 97 c4 4a bd 52 48 42 bd
       -0.027881943 -0.16441104 -0.04950389 -0.04743225
000330 d1 22 a5 bc b8 3b 6d 3d 56 2d 85 bc ff 77 a4 bd
       -0.020158203 0.05791828 -0.01625697 -0.080307
000340 7c 20 92 bd ac 8d 0b 3d 4f cc 05 be 4d 56 e3 3d
       -0.07135102 0.034070656 -0.13066219 0.11100445
000350 b1 cc df bd cd 64 c4 3d 7b 03 cf bd d6 96 f2 bc
       -0.10927714 0.09589539 -0.10108086 -0.02961294
000360 03 df 84 3d ba a1 11 be 86 91 1d bc 22 fc f9 3d
       0.064878486 -0.1422185 -0.009617215 0.12206294
000370 03 e0 93 bd db 3d f0 bd a0 66 6d bd ff d0 71 3c
       -0.07220461 -0.11730548 -0.0579592 0.014759301
000380 49 82 dd bd 61 16 ab bd 69 7d 98 3d 59 8a 59 bd
       -0.108158655 -0.08353878 0.07445795 -0.053110454
000390 dd 3a 86 bd 52 36 7e bc 35 1e e9 bc ec 2d 19 3d
       -0.06554196 -0.015515881 -0.028456787 0.03739731
0003a0 3f 32 c6 3c 07 0b 0e 3d cb 36 27 3e 80 a4 12 bb
       0.024193881 0.034678485 0.16329496 -0.0022375882
0003b0 26 8d 06 3c f4 7b 4f 3d 46 d3 d3 bd 44 1d 84 bc
       0.008212363 0.05065532 -0.103430316 -0.016127236
0003c0 f7 b3 0b 3d 66 71 aa 3d d8 6d c3 3d c4 5a 7d bd
       0.034107175 0.0832241 0.095424354 -0.06185414
0003d0 57 47 c3 3d f5 c1 b8 bc 3a 96 85 bd c3 22 2c 3e
       0.09535091 -0.022553423 -0.06522794 0.16810136
0003e0 28 65 d8 bd 81 ba 17 be 21 10 69 bc 09 c3 04 3e
       -0.10566169 -0.1481724 -0.014225037 0.12965025
0003f0 e0 05 24 be fd ec 82 bd d5 db 9b 3c ae 3b 1e bd
       -0.16017866 -0.06392858 0.019025723 -0.038631134

decoder.mlp.0.bias f4 [128]
000000 bc 5b 93 3e a1 cc 1d 3e 18 7b 92 3e 42 dc b9 bd
       0.28780925 0.15410091 0.28609538 -0.09075214
000010 10 7c 69 3c b8 8b a2 3e cf 6d 60 3e a1 81 58 3e
       0.01425077 0.31747222 0.21916889 0.211432
000020 16 bd 09 3e 60 0e 81 bd 14 14 c6 bd 13 57 17 3c
       0.13451037 -0.0630157 -0.09671798 0.009237069
000030 21 f7 85 3d 41 81 f0 3d 77 ab c5 3d 28 6d 29 bd
       0.06541277 0.11743403 0.09651845 -0.041363865
000040 cf 65 94 3e 5e bd d4 3c 01 8c 05 bc c2 15 8c 3e
       0.28983924 0.025969204 -0.008151055 0.2736035
000050 6e 12 0f 3d d6 5f c7 bd 80 26 11 be d9 ff c6 bd
       0.034929685 -0.09735076 -0.14174843 -0.09716768
000060 92 db 13 38 88 00 c4 bc da 7a b0 3c 96 34 09 be
       3.5252022e-05 -0.023926035 0.021542955 -0.13398966
000070 2b c7 25 3e 82 38 a1 bd 64 14 08 be 17 48 bd 3d
       0.16189258 -0.07872106 -0.13289028 0.09242266
000080 7e 8b 60 3e 40 a2 28 3e 99 25 08 be 4c 12 ad bd
       0.21928212 0.16468143 -0.13295592 -0.084507555
000090 20 7f aa 3e c3 66 fc 3c 5b b1 03 3e f2 08 25 3e
       0.33300114 0.03081072 0.12860624 0.16116694
0000a0 1d 02 d7 3d 19 95 c3 bc d2 71 e1 bd a4 03 96 3e
       0.1049845 -0.023874806 -0.110080376 0.29299653
0000b0 39 bb 44 3e 00 fb 8a 3e 2f 77 0a 3d 70 59 72 3e
       0.19212045 0.27144623 0.03380507 0.2366693
0000c0 26 75 a4 bd f0 3d 41 3e 01 94 72 3e 6e 66 8b 3e
       -0.08030157 0.18871284 0.23689272 0.27226585
0000d0 f2 cd 1b 3d 14 c5 a9 3e ef 77 8a 3e a5 54 2c 3e
       0.0380382 0.3315817 0.27044627 0.16829164
0000e0 93 ef 8c 3e 4a 0b 42 3e 07 76 46 bc 66 e4 eb bc
       0.2752653 0.18949619 -0.012113101 -0.028795432
0000f0 98 ed 72 3e d8 5e 89 bd 60 4f f5 bb eb 4d 2d 3e
       0.23723447 -0.06707543 -0.007486269 0.16924255
000100 d7 22 22 3e a3 68 8b 3e e4 d3 d6 3d 2a 49 30 3e
       0.15833603 0.2722827 0.10489634 0.1721541
000110 0f df 8b 3e 18 75 fc bd b5 ab 53 3d fa 43 75 bd
       0.27318618 -0.12327021 0.051677424 -0.05987928
000120 48 b9 ff bd db bc 89 3e 12 39 fb bd 67 2b 1d bd
       -0.124865115 0.26901898 -0.12266745 -0.03837147
000130 f4 e0 86 3e 48 36 c5 bb 01 b5 3e 3d 22 1a ac 3e
       0.263435 -0.0060184337 0.046559338 0.33613688
000140 eb f9 ed 3d 5d fc 1d 3e 53 6b 86 3e 2b 72 6a 3e
       0.11619934 0.154283 0.26253757 0.22895114
000150 39 1f 11 3e 7d c2 aa 3e a7 e7 ea bd 2c 51 06 3e
       0.14172067 0.33351508 -0.114699654 0.13116902
000160 b8 66 d3 bc a7 0f a6 3e e2 bc ee 3d b1 ec 8f 3e
       -0.025805816 0.32433817 0.1165712 0.2811027
000170 ae 9b 94 3e 6a b8 4f bd df 33 75 3e 41 fb 7b bc
       0.29025024 -0.05071298 0.23945569 -0.015379728
000180 db 28 d9 3d 55 4d 63 3e b5 ab 30 bd 3e f0 37 3e
       0.10603496 0.22197469 -0.043132503 0.17962739
000190 ad db 0e 3d c8 d2 42 bd 92 9e 8f bd 9c da 4f 3e
       0.034877468 -0.047564298 -0.07012667 0.20298237
0001a0 9e 7f 97 3e 97 99 7a 3e 50 e6 31 3e cb 73 1a bd
       0.29589552 0.24472652 0.17373013 -0.037708085
0001b0 db 92 e9 bb 46 de 45 3d 4b df b6 bd dd ef 6d 3d
       -0.0071281022 0.04830768 -0.089293085 0.05809008
0001c0 d4 6c 3a 3d f2 88 8a 3e b7 e9 7b 3e 0b 13 8d 3e
       0.045513943 0.27057606 0.24600874 0.2755359
0001d0 ba eb 80 3e 3e a8 a1 bd d7 47 65 3d d8 f7 db 3c
       0.25179845 -0.07893418 0.055976715 0.02685158
0001e0 02 c6 5e 3e f2 63 88 bd 48 76 78 3e a3 01 97 3e
       0.21755221 -0.06659688 0.2426387 0.29493436
0001f0 80 49 e6 bd 4f 08 1d 3e 73 29 35 3e e0 cc 76 3e
       -0.11244488 0.153352 0.17691593 0.24101591

decoder.mlp.2.weight f4 [64, 128]
000000 ff 5c a5 3d bf ea 21 bd d4 1a 29 bd 36 fb ad bc
       0.08074378 -0.039530512 -0.04128535 -0.02123795
000010 84 86 80 3c 01 1c ff bc 3e e3 36 3c 42 03 07 3d
       0.015689142 -0.031141283 0.011162577 0.03296209
000020 74 99 5f 3d 89 25 6b bd 86 d6 35 3d 85 08 b1 3c
       0.054589704 -0.057408843 0.04439404 0.021610508
000030 ab f8 27 bd db 46 b1 bd e0 fe 6b bb e0 36 40 bb
       -0.041008633 -0.08656093 -0.0036010072 -0.0029329583
000040 4f 6b f8 3c 5c 30 4d bd 81 7c 9c 3c 83 73 70 bd
       0.030324606 -0.050094947 0.019102337 -0.05870391
000050 27 97 2a 3d 6e 0f 67 bd 26 74 63 3d d7 06 7f bd
       0.041648056 -0.0564112 0.05553069 -0.062262382
000060 14 e3 6f 3d ea 12 ad bc 50 58 3b bd 18 ad 9d bc
       0.058566168 -0.021127183 -0.04573852 -0.019247577
000070 6a c6 90 bd 41 8d 72 bd a2 5f 65 3d df e9 bc bd
       -0.070690945 -0.05921674 0.055999406 -0.09224295
000080 19 ed b0 bc 5f b8 77 3b 79 e6 15 3b d3 f0 a8 3d
       -0.021597432 0.0037799103 0.0022872968 0.082490586
000090 14 b8 4f bd b7 2f f4 ba 5d f0 00 3d 88 91 97 3d
       -0.05071266 -0.0018629943 0.03147923 0.07400805
0000a0 b4 53 d6 3c 6b 67 c9 3c 46 5e f7 bd c7 c5 73 3d
       0.02616296 0.024585446 -0.12078528 0.059514787
0000b0 b8 85 60 bc 7b a3 9f bd 1d cf 66 bd 9e 12 6d 3c
       -0.013703756 -0.07794853 -0.056349862 0.014469771
0000c0 8a 42 a3 bd 8d b0 0a 3d e0 88 04 bd e3 86 b2 bd
       -0.07971676 0.03385978 -0.032357097 -0.08717134
0000d0 f5 53 70 bd 6c 88 9f bb 13 2d 4a bd a7 4c 8e 3d
       -0.058673818 -0.0048685577 -0.049359392 0.06948214
0000e0 60 ef 38 3d d9 6a 2e 3d 66 ca 9f 3c 1a 79 90 bd
       0.04515016 0.042582367 0.01950569 -0.07054348
0000f0 27 d1 b3 bb d3 7d 90 3d a2 68 2c bd d8 3f 63 3c
       -0.0054875794 0.07055249 -0.042091973 0.013870202
000100 58 a0 e7 bd e6 8d 84 bd 78 b9 3d 3d c3 91 db bd
       -0.1130988 -0.064723775 0.046319455 -0.10721161
000110 0c ba 24 3b 20 6b bc bb d9 70 17 bc 02 5d 86 bd
       0.0025135307 -0.005750075 -0.009243214 -0.065607086
000120 6e 37 4e 3b 8c 80 ec 3c 56 8a 3a bd 6a 18 74 3d
       0.0031466144 0.02886989 -0.045542084 0.059593596
000130 17 87 a7 bd e0 12 34 bd d0 26 07 3c 88 cc e3 bd
       -0.08180063 -0.043963313 0.008249 -0.111229956
000140 48 3e f9 3c cb f4 0b 3d ff a6 7c 3d 37 65 51 3c
       0.030425206 0.034169 0.061682697 0.012780479
000150 f8 cf 86 3d 15 20 20 3d d7 52 62 bc a9 05 10 bd
       0.06582636 0.039093096 -0.013813696 -0.035161648
000160 2e e5 7e bd 07 bb be bd bf 27 e2 3c 84 4b db bd
       -0.06223028 -0.093130164 0.027606843 -0.10707763
000170 cf 1e 38 3d a6 f2 21 bd 85 04 25 bc f9 2c 9c bd
       0.044951256 -0.03953805 -0.010071878 -0.07625765
000180 0f 9e 14 bd b4 4a a3 3d 83 17 2d 3d 62 20 dc bc
       -0.03628355 0.07973233 0.04225875 -0.02687091
000190 89 70 f9 bb 78 55 d8 3c d2 e3 11 bd 15 24 87 bd
       -0.007612292 0.026407942 -0.035617657 -0.06598679
0001a0 65 0b 86 bb de c9 8c bd 71 c0 67 bd b2 94 2d 3d
       -0.004090714 -0.068744406 -0.05658001 0.042378135
0001b0 01 17 8a 3d 6b c9 74 3d 8c 09 9d bc 22 17 9b bd
       0.06742669 0.0597624 -0.019169591 -0.075727716
0001c0 17 0a 8d 3c 4a f1 ab bd c7 4d eb 3c 50 cf 05 3c
       0.017216725 -0.083956316 0.02872361 0.008167103
0001d0 d9 7a a7 3d 67 9c 9f bd 65 d4 a8 bd 0d c5 74 bd
       0.08177728 -0.07793503 -0.08243636 -0.059758235
0001e0 2b 5a 12 bc df 09 93 3d 06 f6 3e bc 01 1d 36 3d
       -0.0089326305 0.07179617 -0.011655336 0.044461254
0001f0 b6 f1 26 3d 65 dd 37 bd 81 d8 78 bd 41 35 7a bd
       0.040757857 -0.044888873 -0.06075335 -0.061085943
000200 8b 31 99 bd fc 07 06 3c 91 43 be 3c 60 e3 40 3d
       -0.07480153 0.008180615 0.023225578 0.04709184
000210 b2 c5 3f 3d a3 ff 7b 3d 5d 87 82 bd ec 52 d5 3c
       0.046819396 0.06152309 -0.06373475 0.026040517
000220 19 65 d9 bc e4 13 25 3d 0e a6 d1 bd 9e 31 dd 3c
       -0.026537465 0.040302172 -0.102367505 0.027001198
000230 b6 24 8f bd 06 4c 3f 3d c0 88 80 ba 6e 7a 65 bd
       -0.06989424 0.04670336 -0.000980638 -0.05602496
000240 31 2c 2a bd 09 a5 29 bd 48 da 4f bd 0a 11 58 bc
       -0.04154605 -0.041417155 -0.05074528 -0.013187656
000250 0a 3e eb 3b 68 b2 82 3d 2c ad 51 3d 6a 85 85 bc
       0.0071790265 0.063816845 0.05119054 -0.016298968
000260 dd a3 e0 3b e2 a7 44 3d 53 6c 0d 3d 29 a9 d1 bd
       0.0068554715 0.048011668 0.034527134 -0.10237343
000270 b0 bc 6e 3d e6 6b 88 bd 1e a8 af bd 50 df fa 3b
       0.058285415 -0.06661205 -0.08576988 0.0076560155
000280 b4 be ec bb cd 20 fc 3c a6 58 83 bd 07 81 5a bd
       -0.007224882 0.03077736 -0.06413393 -0.053345706
000290 a2 2a b8 3d 6b 30 1d 3d 8e 18 c6 bd c7 3b 93 bd
       0.089925066 0.038376253 -0.09672652 -0.07189136
0002a0 1d f3 24 3d 15 50 08 bd cc cb 2a 3c ec 1b 73 3c
       0.040270913 -0.033279497 0.0104245655 0.0148382
0002b0 41 e1 99 3d c0 1d f9 bb 2b 77 c0 bd 47 3e 23 bd
       0.07513667 -0.0076024234 -0.093977295 -0.039854314
0002c0 55 ac a1 3d 36 02 67 bd 0f 5d c8 bc 89 af 56 bc
       0.07894198 -0.056398593 -0.024458436 -0.013103374
0002d0 1a e4 d2 3b b0 3f 9a bd ef 7f 08 bd a6 6a d6 bd
       0.006435883 -0.07531679 -0.033325132 -0.1046956
0002e0 a6 cd 8f 3d 40 e1 88 3d 5e a3 b4 bd 04 a6 be bd
       0.07021646 0.06683588 -0.08820222 -0.09309009
0002f0 10 d7 f2 3c 8e 2a f3 bb 61 00 92 3d 75 88 3a 3d
       0.029643565 -0.0074208444 0.071289785 0.04554029
000300 1a cc 8c bd b7 e4 fa 3c dc cf 0d bd ba d5 31 3d
       -0.06874867 0.030626638 -0.03462206 0.043416716
000310 46 52 68 bd 14 6b 00 be 85 28 9d bd 2a 30 0c 3d
       -0.056719087 -0.12540847 -0.07673744 0.03422562
000320 cf 34 0b 3d 98 cc b5 3c d0 79 de 3b 28 00 7b bc
       0.03398591 0.022192284 0.0067894235 -0.0153198615
000330 4f 70 39 bd c0 e1 55 bc 40 56 22 bb db 86 1d bd
       -0.04527312 -0.013054311 -0.0024770647 -0.038458686
000340 a1 43 9e bc c8 05 b0 bd 09 18 d1 bc 30 ed 44 3d
       -0.019319357 -0.08594853 -0.025524156 0.048077762
000350 d3 ed 3f bd 2e 64 a7 bd c4 52 e4 bc 8d 04 bc 3c
       -0.046857666 -0.08173405 -0.027871497 0.022951389
000360 c1 d4 54 3d 86 61 c6 bc 48 ce a7 3c ba 16 9e 3c
       0.05196071 -0.024216425 0.020484105 0.019297946
000370 04 ca 86 3c b8 d7 9e bd 13 cd b9 bb b6 7a 59 bc
       0.01645375 -0.07755989 -0.0056701987 -0.0132738855
000380 66 d1 dc 3b 02 2f 94 3d a7 80 f5 bc b6 32 9c bc
       0.0067388294 0.072355285 -0.029968573 -0.01906715
000390 9a ed d9 3c 46 1c 11 3d d8 2a 40 bc 72 5a 3d 3d
       0.026602555 0.035427354 -0.011728965 0.046228833
0003a0 8e 6a cb bd 68 a9 2d 3d 10 41 a9 bc 5e d9 63 3d
       -0.09932433 0.042397887 -0.020660907 0.05562722
0003b0 5c 37 69 3d ba 3f aa 3c 4c 16 c5 bc 19 91 79 bd
       0.05693756 0.02078234 -0.024058484 -0.06092939
0003c0 e4 c0 63 bd 0f 33 c4 bd cb 8b 96 3d 81 cc 47 bd
       -0.055603877 -0.09580051 0.07350882 -0.048779014
0003d0 b5 a3 6b bd 1f 33 4d bd f7 56 b8 3c e6 71 67 bb
       -0.05752917 -0.05009758 0.022502406 -0.0035315691
0003e0 1a c2 d2 3b 84 e9 65 3c 02 ac 88 bd d5 93 8f 3c
       0.00643183 0.014032725 -0.06673433 0.017526546
0003f0 9d 21 ad bd 71 6e a2 bd bc 85 5c bd 77 21 c8 bd
       -0.08453677 -0.07931221 -0.053838477 -0.09772008
